models/0.4/0.pt (torch, 747117 bytes, 12 tensors)

fc1.weight f4 [128, 36]
000000 85 e2 2b bc 44 80 1e 3e 5b 5a df 3d 1a 91 ef bd
       -0.010491018 0.15478617 0.10905906 -0.11697598
000010 2f af e8 3d 15 70 00 be 8d da 8b bd bb ff d1 3c
       0.113615386 -0.12542756 -0.06828795 0.025634637
000020 86 0b f1 3d aa be 39 3d b2 7d c9 bd 22 88 02 be
       0.11769776 0.045347847 -0.098384276 -0.12747243
000030 a0 03 1d bd 61 68 93 3d 1f 57 20 be 4e 4e 82 bc
       -0.038333535 0.07197643 -0.15658234 -0.01590648
000040 4c 96 e0 bc 6f a0 99 bd 14 2a 4b 3d 22 a0 00 3e
       -0.027415417 -0.075013034 0.049600676 0.12561086
000050 e2 ae ac bd cb d6 ed bd 88 f2 94 bd 16 7d de bd
       -0.08431794 -0.11613234 -0.07272822 -0.10863702
000060 e8 13 29 3d 34 5b 77 bd 26 be 02 3e f7 ef 9b bd
       0.04127875 -0.060389712 0.12767848 -0.07614129
000070 e4 f5 b6 bd 08 70 ef bd 25 b3 08 bd 12 61 80 3c
       -0.08933619 -0.1169129 -0.03337397 0.015671287
000080 f9 47 7e bd 12 b0 37 3d fa ae d4 3d 90 14 01 3e
       -0.062080357 0.044845648 0.10384937 0.126055
000090 51 e8 a0 bc af a3 11 3e bd 13 fe bd 52 a1 22 3e
       -0.019642027 0.14222597 -0.124061085 0.15881851
0000a0 1f 9b 9a 3e d2 e3 44 bb c8 db 3f 3d 48 46 14 3e
       0.30196473 -0.0030043018 0.04684046 0.14479935
0000b0 a0 53 af bd d8 c5 78 be d2 4b 97 3e 14 c0 1a 3e
       -0.08560872 -0.24294221 0.29550034 0.15112334
0000c0 5c 55 0a bd d6 26 cc bd 59 c4 86 3d 64 8f a7 bd
       -0.03377281 -0.09968345 0.06580419 -0.081816465
0000d0 1d 8e c0 3d 1d 09 01 3d 95 1f dc 3d f7 fb f2 bd
       0.09402106 0.03150283 0.10748211 -0.11864465
0000e0 b1 93 6b bd 4c 25 9c 3d 92 49 a7 bd ac 31 94 3d
       -0.057513896 0.07624301 -0.08168329 0.07236037
0000f0 7d 49 58 bd 75 3d b4 bc 67 82 0b be c9 9e be bd
       -0.05280446 -0.022001961 -0.13623963 -0.093076296
000100 ed a4 08 3e 4a e1 85 3d 45 6a b5 bd 99 91 d6 3d
       0.13344164 0.06537111 -0.0885816 0.10476989
000110 76 75 81 3d 3f e9 aa 3c 5d 25 e7 bd 0c ee 3d be
       0.06321232 0.020863174 -0.11286423 -0.18547839
000120 23 44 0d 3e 54 83 ee bd a4 0e e4 3c d7 b2 8b bd
       0.13795523 -0.116461426 0.027839012 -0.0682122
000130 b7 de c2 bd f2 b6 8e 3c c2 8e d1 3d 23 96 00 be
       -0.09515136 0.01742122 0.10232307 -0.12557273
000140 94 2c 60 39 6a 77 07 3e bc be a6 3d d7 2c 14 3e
       0.00021378911 0.13229147 0.081418484 0.1447023
000150 0b 08 66 bd 75 91 ae bd 50 4f 45 3d d5 fd cc bd
       -0.056160014 -0.085238375 0.04817134 -0.10009352
000160 90 72 d3 3d c9 f0 8d bd b3 46 23 3d 33 fa fc bc
       0.103245854 -0.06930692 0.039862346 -0.030881023
000170 c9 65 7d bd 31 42 53 3e 91 f3 14 be 30 d4 c3 bd
       -0.061864648 0.20630719 -0.14546038 -0.09561956
000180 68 8c f1 bd 54 ab a7 bd 02 7d ab 3d f3 4f 5e bc
       -0.117943585 -0.08186975 0.08373453 -0.013568866
000190 b9 8a f2 3c 39 ce 29 bd e8 d4 06 3d 98 b9 06 bd
       0.029607164 -0.041456435 0.032917887 -0.03289184
0001a0 ea 59 e4 3c b5 51 d0 3d b4 59 02 be 18 fc 2a bd
       0.027874906 0.101718344 -0.12729532 -0.04174432
0001b0 fd 5f d9 3d 28 2c 4b 3d be a5 a9 bd 63 f0 cb 3b
       0.106140114 0.049602658 -0.08283566 0.0062237247
0001c0 6e 7c c1 3c d4 0f 24 be 75 8c 19 bc b3 c4 c4 bd
       0.023618903 -0.16021663 -0.0093718665 -0.0960783
0001d0 96 09 b4 bb f9 f9 e5 3d 6c 2b fc 3c 9f 86 dd 3d
       -0.005494307 0.11229319 0.030782424 0.108166926
0001e0 53 a9 c5 bd c3 be 19 be 40 3b da 3d 21 db 01 3c
       -0.09651437 -0.15014176 0.10655832 0.00792578
0001f0 92 55 a4 bb 62 04 2a bd e5 84 12 be 76 64 d9 3d
       -0.0050150836 -0.041508086 -0.14308508 0.106148645
000200 c2 b2 06 bd 55 8c a1 3d b1 39 e9 3d 0e 73 eb bb
       -0.03288532 0.07888094 0.11387957 -0.0071853464
000210 17 a4 cd bd 18 1b 33 3d df ad c6 bd 24 d0 7e 3d
       -0.10041063 0.04372701 -0.09701132 0.062210217
000220 55 28 ec bd 8f 81 e6 3d f8 a4 ea 3d d4 f2 57 bd
       -0.1153113 0.1125518 0.114572465 -0.052721813
000230 11 ef 6e bd 93 38 a3 bb d3 d3 2e 3e 63 2a a0 3c
       -0.05833346 -0.0049811094 0.17072992 0.019551462
000240 bb 9b f3 3a 65 28 9a bd 3e 20 18 bd a3 13 cf bc
       0.001858584 -0.07527236 -0.037140124 -0.025277918
000250 b1 ee 4e be 38 e0 ee bc 29 50 92 bd ff e1 55 3d
       -0.20208241 -0.02915965 -0.071441956 0.05221748
000260 50 23 3a bd ab 52 4c be 5b e1 d6 bd e1 d3 3c be
       -0.045443833 -0.1995341 -0.10492202 -0.184402
000270 17 d8 b5 3d 34 98 05 3e 8c 0d 69 bd b5 65 5d be
       0.088791065 0.13046342 -0.056897685 -0.2162083
000280 65 69 01 be 8d 38 12 3e 10 84 69 bd 03 e3 e0 bd
       -0.12637861 0.14279385 -0.05701071 -0.10980799
000290 2e 79 41 bc db 29 93 3d 57 11 b6 bd c4 4b 48 3d
       -0.011808677 0.07185718 -0.08890026 0.04890038
0002a0 b8 b2 0e bd 0a 1c 9e 3c 40 bd 0e 3e 9a 81 72 bd
       -0.03483841 0.01930048 0.1393938 -0.05920563
0002b0 e2 7f 8a be 39 13 cd bd 5a db 9f bd df f7 f6 3d
       -0.27050692 -0.10013432 -0.0780551 0.120589964
0002c0 0e 86 3e bd de 7e 52 3e f7 9e 27 3d 48 6d 2d 3e
       -0.046514563 0.20556208 0.040923085 0.16936219
0002d0 d8 11 17 3d dc 65 4b bd c9 69 c1 bc 32 97 e3 bd
       0.03688225 -0.049657688 -0.023610013 -0.111128226
0002e0 61 63 e6 bd 04 85 e0 bd e6 f1 8d bd 47 ed 54 3d
       -0.11249424 -0.10962871 -0.06930904 0.051984098
0002f0 f6 58 08 be a1 1f 67 bc 79 a5 0c 3c a3 32 aa bd
       -0.13315186 -0.014106662 0.008584374 -0.083104394
000300 5c 92 54 3d 7e 13 c5 3c 54 16 d6 3d 04 e5 fa bd
       0.05189739 0.024057146 0.104534775 -0.122507125
000310 43 b3 2b bc 8e 53 14 3e 9e 7e 4d 3d 3d 95 ff 3c
       -0.010479751 0.14484999 0.05016958 0.031199092
000320 a4 ec 1c 3e 9b da 80 3d 0b b8 21 be 63 7a 33 be
       0.15324646 0.06291696 -0.15792863 -0.17527156
000330 de 55 ea 3d dc bd 22 be bc e1 85 3d a4 79 06 be
       0.11442159 -0.15892738 0.06537196 -0.1313234
000340 2e ef e5 3d 5a bf be 3d 0c ac 1e 3e ab 4a f2 bd
       0.112272605 0.09313841 0.15495318 -0.11830648
000350 95 6d 87 bd 0e fc 22 3e 6e 67 fe bd 1c fc a6 be
       -0.06612698 0.15916464 -0.124220714 -0.3261422
000360 23 34 25 be a4 0c 23 be c9 e4 64 bd b4 f7 79 bc
       -0.1613317 -0.15922791 -0.05588225 -0.015256811
000370 c3 b1 bb 3c c5 99 a5 bb 00 b7 f3 bd 63 e1 c7 3c
       0.022911912 -0.005053731 -0.11900139 0.024399465
000380 03 cb a1 bd d0 35 d0 3d 9e 38 23 bd 62 b7 15 3e
       -0.079000495 0.10166514 -0.039848916 0.14620736
000390 2d db ca 3d 84 cf 9c bd 6f 48 dd 3d 15 ce 11 3d
       0.09905086 -0.07656768 0.10804831 0.035596926
0003a0 5e 89 fc bd bb 2f 93 bd 4a 86 bf bd 38 cc e3 3d
       -0.12330888 -0.07186838 -0.093517855 0.11122936
0003b0 55 ca 0a 3e 74 cb 12 3e b7 14 36 bd 8f 10 e7 3d
       0.13553746 0.14335424 -0.04445335 0.11282455
0003c0 ac 7e 83 3b c6 c3 d2 3d 08 90 d0 3d 6b 07 c9 bd
       0.004012903 0.10291247 0.10183722 -0.09815868
0003d0 c0 2e 96 3c f4 d1 13 3e 6d 8f 3d bd 65 aa b5 3c
       0.018332839 0.1443556 -0.04627936 0.022175977
0003e0 d1 d4 11 3e cb 67 26 3e a4 8a e1 3d fb bc cb 3d
       0.1424134 0.16250531 0.11012772 0.099481545
0003f0 43 3a 31 3d 3f bf 03 3e 2a c9 45 bd e2 80 07 bd
       0.043268453 0.12865923 -0.048287548 -0.033081897

fc1.bias f4 [128]
000000 36 f0 a7 3d 1b 8b e5 bd e9 55 b6 3d 89 fc 84 3e
       0.082001135 -0.11208173 0.08903105 0.2597392
000010 29 de 59 3d 5e d9 f6 3d 53 a6 06 bd 13 a3 df bd
       0.053190384 0.12053178 -0.032873463 -0.10919776
000020 20 ba 1d be cd d9 09 be 65 f8 e1 bd 2d 71 01 be
       -0.15403032 -0.1346199 -0.110337056 -0.1264083
000030 b8 a9 8f 3d 30 ea 0c be 0a a7 aa bd 26 13 5c 3d
       0.07014793 -0.1376121 -0.083326414 0.0537292
000040 d0 00 b0 3c e7 4b 3f bd a7 29 e2 3d ed 17 15 bd
       0.021484762 -0.046703245 0.11043101 -0.03639977
000050 1a d0 f8 3d e3 82 ce 3d 32 6a 35 3e be 11 e8 bd
       0.12149067 0.100835584 0.17716292 -0.11331509
000060 fd eb 62 3d 3c 60 f6 3d 3e 75 e2 3e 9f 97 0a be
       0.055400837 0.12030074 0.44230074 -0.13534401
000070 1c 04 b9 bd d5 2f 17 be fd dc e7 bd 55 67 c0 bd
       -0.09033987 -0.1476434 -0.11321447 -0.09394709
000080 98 59 b0 3d 25 21 72 3d 3f 00 d8 bd 44 6c a2 bd
       0.08610839 0.05911364 -0.10546922 -0.07930806
000090 54 90 18 3e 1f 2b ca 3d 14 39 c1 bd 24 f1 8e bd
       0.14898807 0.09871506 -0.09434715 -0.06979588
0000a0 22 63 93 bc 5d 7d be bd 85 bd 36 bd fe 79 34 3e
       -0.017991606 -0.09301255 -0.044614334 0.17624661
0000b0 a7 1f c2 3c 8f c5 c2 3d 79 81 cb 3d 0e bc d7 bd
       0.023696734 0.095103376 0.09936804 -0.105339155
0000c0 dd d2 80 3d 59 67 11 be 24 05 91 bd 7c cc ea bd
       0.06290219 -0.1419958 -0.070810586 -0.114647835
0000d0 76 9e 6c bd c3 2f 95 3d 6c 40 af 3d 4d be 2f 3e
       -0.057768308 0.072845004 0.08557209 0.17162438
0000e0 ba 00 a5 3c 7e 02 41 bc cb 2b ad bd 50 d7 01 3d
       0.020141948 -0.011780379 -0.084556185 0.03169948
0000f0 a4 22 3d 3d 2a 35 cb bd ae 07 de bd c0 ed 06 3e
       0.046175614 -0.099222496 -0.108413085 0.13176632
000100 c7 cc 78 3e 0c 64 68 bd 1d 56 8d 3d 9e ad 16 3e
       0.24296866 -0.056736037 0.069011904 0.14714667
000110 77 4e a9 bd 07 9b 45 bd 35 aa 0e 3e df 3e 44 3e
       -0.08266919 -0.04824355 0.13932116 0.19164608
000120 e7 3f ca 3d b6 51 db bd 57 c7 fe 3d 6c 3a 1f 3e
       0.0987547 -0.107089445 0.12440365 0.1554963
000130 ed a4 18 bd 99 9b 1c 3e 95 c6 13 3d d0 8c 5d 3e
       -0.03726666 0.15293731 0.036078054 0.21635747
000140 85 84 16 3e f8 3b 4e 3e e5 62 4c 3e 8d 42 cd 3d
       0.1469899 0.20140064 0.199596 0.10022459
000150 80 4e 0f 3e aa 9e 7e 3d 67 61 45 3d fe bc 85 3e
       0.13994789 0.062163033 0.048188593 0.26120752
000160 63 46 03 be 37 6e 3f 3e de d7 18 be ba ce d2 3d
       -0.12819819 0.18694387 -0.14926097 0.10293336
000170 b6 b2 b6 bd 49 19 54 3d 76 ef e1 bd ce f9 f4 bd
       -0.08920805 0.051781926 -0.11032002 -0.11961709
000180 dc 93 4e bd ba 86 08 3e 85 67 f8 bd 9c 40 13 3e
       -0.05043398 0.13332644 -0.1212912 0.14380115
000190 1c 46 fe bd 5c 25 27 be 95 22 01 3e a3 ec b6 bd
       -0.12415716 -0.16322845 0.12610848 -0.089318536
0001a0 69 c9 7f 3e 9d 10 d5 3d 46 1c ec bd e0 73 ec 3c
       0.24979176 0.10403559 -0.1152883 0.028863847
0001b0 47 88 a4 3d 3d f6 67 3d 53 d4 85 bd 04 33 c8 bd
       0.08033805 0.056631315 -0.06534638 -0.097753555
0001c0 8d d0 11 be ad 6a f7 bd 9c 59 bd bd 68 6d 8f 3e
       -0.14239712 -0.12080894 -0.09245607 0.28013158
0001d0 b4 b8 f1 bd 2b 3b 8f 3d 79 75 1a 3f 60 2b 30 3e
       -0.118028075 0.06993707 0.603355 0.17204046
0001e0 b9 1f c9 3d f1 88 78 bd e3 74 bc 3d 9d 4a b2 bd
       0.09820504 -0.060677473 0.09201982 -0.087056376
0001f0 ba 57 07 3e b4 80 ff 3d 39 ed 6e bc bb 36 23 bd
       0.13217059 0.1247572 -0.0145829255 -0.039847117

fc2.weight f4 [64, 128]
000000 4e ee 08 bd fa 56 72 3d 60 d5 65 bd b9 7f ae bd
       -0.03343039 0.05916498 -0.056111693 -0.08520455
000010 43 e8 55 3d ac da 8a bd 02 1b ed 3c 5e 97 e5 bc
       0.052223455 -0.067799896 0.028943542 -0.028026279
000020 11 82 04 bd 42 17 6b 3d 03 24 2e 3d cb 2f 1a bc
       -0.032350603 0.057395227 0.042514812 -0.009410809
000030 38 70 31 bd 89 37 7f bd f2 4a f6 bb 30 5a 87 3d
       -0.04331991 -0.06230882 -0.0075162584 0.06608999
000040 3b d7 9e bb 05 91 3f bd a7 fc 5a 3d 19 e6 07 3a
       -0.004847435 -0.04676916 0.053463604 0.00051841285
000050 b2 3a d9 bc ac 6f 5a 3c 3d 76 78 3c 6e 5a 1c 3c
       -0.026517246 0.013332289 0.015164909 0.0095430445
000060 7f 11 cc ba c1 e0 97 bd c8 09 7c bc 5f bc 9f 3c
       -0.0015569179 -0.07415915 -0.015383191 0.019499002
000070 66 1f 91 bd 39 b5 85 bd 82 23 50 3d 98 16 48 3d
       -0.07086067 -0.06528706 0.050815113 0.048849672
000080 f7 c2 26 bd c0 48 95 bd 46 dc 6d bc de 52 0b 3d
       -0.040713277 -0.072892666 -0.014517849 0.034014575
000090 37 5b 44 3d 92 eb 1e bc 40 09 a2 bd 5d d3 b6 bd
       0.04793855 -0.009699719 -0.079119205 -0.08927033
0000a0 ea 82 5f bd 58 72 75 3d 7a 46 42 bd 42 a3 a8 bd
       -0.05456821 0.0599235 -0.047430493 -0.08234264
0000b0 32 68 b0 bd c4 42 e5 bc 81 95 a1 3d 83 b8 a2 bd
       -0.08613624 -0.027985938 0.07889844 -0.07945349
0000c0 4b 22 20 3d c2 89 11 bd 2b db 99 3d 89 ba 18 bb
       0.039095204 -0.035531767 0.07512506 -0.0023304543
0000d0 f4 12 f6 bc cd 06 94 3d 1e af 87 3c c0 50 97 3d
       -0.030038334 0.0722786 0.016562995 0.07388449
0000e0 f5 84 a9 3d 07 45 16 bd ce fa 2b bb de 27 36 3d
       0.08277313 -0.036686923 -0.002624202 0.044471614
0000f0 48 4a 77 bc ab 41 82 3d 5f db 13 3c 94 51 59 3d
       -0.015093394 0.063601814 0.00902447 0.053056315
000100 23 f2 2d bd 81 a0 a1 bc 16 09 9a bd fd ea 6a 3d
       -0.042467248 -0.019729855 -0.07521264 0.05735301
000110 22 45 bc bb 11 9b 05 3d 70 03 65 bd 3a ac b3 3c
       -0.005745546 0.032618586 -0.05591148 0.02193271
000120 b9 ed 7c bd a7 32 4d 3d 3e 80 73 bd 30 db 11 bc
       -0.061750147 0.050097134 -0.059448473 -0.008902356
000130 39 d9 1b bd f4 9c 0d bd 7c 6c 8c 3d 4b 30 b5 bd
       -0.038048957 -0.03457351 0.06856629 -0.08847102
000140 b7 9d ea 3c e4 9b c4 3c af a7 84 3d 1c 9c 7c 3c
       0.028639657 0.024000116 0.064772956 0.015418079
000150 c8 fa a2 3b 43 b2 8a bd 90 a3 61 3d 01 44 8c bd
       0.004973743 -0.06772282 0.055087626 -0.06848908
000160 bc bf 53 3d 49 85 8d bd d1 f3 55 3d 41 6d 36 bd
       0.051696524 -0.06910188 0.052234475 -0.044537786
000170 fd 7e 8f 3d d6 ae 80 3c ab 98 88 3d 59 3d 70 bc
       0.07006643 0.015708368 0.06669744 -0.014663064
000180 24 3b 30 bd 5f cd 55 bd 64 68 99 bd 98 8f 63 bd
       -0.04302515 -0.05219781 -0.07490614 -0.055556864
000190 cc 12 1d bc 0f ec 34 3d ac 16 0a bc 85 00 a8 bd
       -0.009587001 0.044170436 -0.008428257 -0.08203224
0001a0 ab 6f bb bc 7f 81 42 bd 30 cf 02 3d c9 58 7a 3d
       -0.022880396 -0.04748678 0.03193587 0.06111983
0001b0 34 cb 97 3d 35 f5 87 bc 33 05 95 3a ba 41 96 3d
       0.07411805 -0.016596416 0.0011369347 0.07336755
0001c0 fe 99 c0 bc 36 13 32 bd 69 e6 6f bd 9e f5 1b 3d
       -0.02351093 -0.043475352 -0.058569346 0.038076036
0001d0 eb e1 72 3d 64 6c 68 3d 6c ba 90 bd 83 50 8f 3d
       0.059297483 0.056743994 -0.07066807 0.06997778
0001e0 09 cf 24 3d 38 86 f4 bc 2b 75 b7 bd d3 0f 5c bb
       0.040236507 -0.029849157 -0.08957895 -0.0033578768
0001f0 da ca 6b bd b2 03 82 bd 00 04 19 bd d5 38 d1 3c
       -0.0575665 -0.06348361 -0.03735733 0.025539795
000200 66 1b ca bc e6 85 d5 bd 4b b4 84 bd 05 8a 86 bd
       -0.024671268 -0.1042593 -0.06479701 -0.06569294
000210 bb d8 ab bd 19 7e 1c be ac 94 61 bd 50 5a d2 bc
       -0.083909474 -0.15282477 -0.055073425 -0.02567783
000220 99 4f 0a be 36 bb 26 bd fd cb be bd 0c 07 31 bd
       -0.13506927 -0.040705882 -0.093162514 -0.04321961
000230 ea 85 a9 bd 64 9b 5b bd 02 e7 e9 bd 60 c3 ab bd
       -0.08277495 -0.05361499 -0.11421014 -0.08386874
000240 c5 5c 15 bd 87 f3 80 bd 47 79 a4 3c 59 7e b5 bc
       -0.036465425 -0.06296449 0.02007736 -0.022154974
000250 c1 58 43 bd a9 e6 11 be af 6f ce 3b c8 4d 06 3c
       -0.047692064 -0.14248146 0.006299935 0.008197255
000260 53 02 24 bd 86 19 af bd 12 4f 80 3d 8c 1a c2 bd
       -0.04004128 -0.0854979 0.062650815 -0.0947772
000270 d5 88 1d be 3a 87 ef bd 0e 1e 04 be 5d 8f 4d bd
       -0.15384229 -0.11695714 -0.1290209 -0.05018555
000280 6e 0e 8e bd 18 a6 0d be 97 82 d0 bd e4 8d c5 3b
       -0.06936346 -0.13832891 -0.10181158 0.0060288776
000290 84 62 7c bd c5 61 88 3d a5 bc c2 3c 65 6f 43 3c
       -0.06161739 0.06659273 0.023771593 0.011928414
0002a0 43 94 df bd 6b fb 7d bc 14 33 e5 bd 88 b3 e5 bd
       -0.109169506 -0.015501837 -0.11191383 -0.112158835
0002b0 b0 ed b6 bd 49 fb ae 3c e5 5a ea bd 3b 78 0b 3c
       -0.08932054 0.021360056 -0.11443118 0.008512552
0002c0 15 43 81 bd 84 47 92 3b 09 e4 2a bc 1d 89 0c 3d
       -0.06311623 0.0044640917 -0.010430344 0.03431045
0002d0 f5 68 23 bd 07 c5 2c bd bc f9 9b bd e1 d4 7b 3d
       -0.039895017 -0.042180087 -0.076159924 0.061482314
0002e0 1b 6e 70 bd d5 a4 43 39 4a aa f8 bd 30 93 e2 bd
       -0.058698755 0.00018658054 -0.12141855 -0.1106323
0002f0 6e 5b 2b be 13 d6 de bd be 8e ef bc 4e 2e 5a 3a
       -0.16734096 -0.10880675 -0.02924287 0.000832294
000300 53 33 a2 3d 8a 48 bb bc 21 53 98 bd 45 6d a6 bd
       0.079199456 -0.022861738 -0.074377306 -0.0812631
000310 01 64 5b bd d7 75 12 3c 4f 15 97 bc a9 6d 05 be
       -0.053562168 0.008939228 -0.018442778 -0.13030113
000320 1f 01 c9 bd aa c6 81 bd 02 e1 04 be c8 4d 0c 3d
       -0.09814667 -0.0633672 -0.12976459 0.034253865
000330 6a 2f 00 be 13 e3 1e be 03 23 02 bd f6 f4 2a 3d
       -0.12518087 -0.1551631 -0.03177167 0.04173752
000340 2c 24 22 be bd f1 f9 bd f1 6d 07 be 36 be 77 bd
       -0.15834111 -0.12204311 -0.13225533 -0.060484134
000350 46 8f c4 bd 1d 32 e6 bd 7b a2 21 be 95 2d 8d 3d
       -0.0959764 -0.11240027 -0.15784638 0.0689346
000360 bf 40 d4 bd cb 59 10 be 91 fd 4c bd 48 d1 81 bd
       -0.10363912 -0.14096753 -0.050046507 -0.06338745
000370 84 e5 b8 bd b6 7a f4 3c 97 b5 3e 3d 5f 26 18 be
       -0.09028152 0.02984367 0.046559896 -0.14858387
000380 56 c7 79 bd 69 1d 56 3c 84 91 1f bc 9c 16 b0 bc
       -0.060981117 0.013068535 -0.0097392835 -0.021495156
000390 56 f5 6e bd f5 22 11 bd 22 37 df bd 44 f5 42 be
       -0.05833944 -0.03543373 -0.108991876 -0.19038874
0003a0 1b d8 52 be 2c 4b d1 bd d9 8a 16 be 30 4c 44 3b
       -0.2059025 -0.10219416 -0.14701404 0.0029952638
0003b0 e8 74 11 be e1 bf 4a 3d 5e b1 1e be 2a d8 e3 bd
       -0.14204752 0.049499396 -0.15497348 -0.111252144
0003c0 63 fd 57 bc 68 3d ba bd 77 79 4e bd 3e 9b 6d 3d
       -0.013182971 -0.090937436 -0.050408807 0.05800938
0003d0 1c 68 7e bd 54 59 e9 bd cc fd e4 3d dc 55 c1 bd
       -0.062111005 -0.11393991 0.111812204 -0.094402045
0003e0 78 a0 29 3d 9f 4a a4 bd 10 c8 bf bd b5 46 71 3a
       0.0414128 -0.08022045 -0.09364331 0.00092039566
0003f0 00 2e 84 bd c6 a1 1b be f2 09 6f bd b8 bd e0 bd
       -0.06454086 -0.1519843 -0.058359094 -0.10973686

fc2.bias f4 [64]
000000 43 65 fd 3a 4f 30 9c 3e 6f 3c 10 3d f2 b6 4d bc
       0.0019332547 0.30505607 0.035213884 -0.012555825
000010 4a d6 b7 bd 31 4f 24 3e f7 47 8b 3e bb 26 b6 bd
       -0.08976419 0.16045834 0.27203342 -0.08894106
000020 1e 2e b2 bd 79 6c c1 39 9d a9 90 3e f2 d5 3b bd
       -0.087002024 0.00036892647 0.28254405 -0.04585833
000030 18 0a 89 bc a7 74 c0 3e 8c 59 0b 3e 49 c5 d3 3b
       -0.016728446 0.37589 0.13608378 0.006462727
000040 47 38 7e 3e 4e 02 91 bd 16 be 94 bd fc 86 1d 3e
       0.24826156 -0.07080518 -0.072628185 0.15383524
000050 19 d1 40 3e 39 a0 0d bd b7 e1 62 3e df a5 bf bd
       0.18829764 -0.03457663 0.22156416 -0.09357809
000060 db 46 1c 3d d5 e6 53 3e 1a 93 b9 3c 44 22 62 bd
       0.03815351 0.20693524 0.022653151 -0.05520846
000070 42 fb bd bc a9 f3 9c 3e af 3e 94 3d d0 4d 8c bd
       -0.023191098 0.30654648 0.072385184 -0.06850779
000080 96 62 02 bc f3 c6 7b 3e 1f 8e d8 bc cc 67 a9 3e
       -0.007958075 0.24587612 -0.026434956 0.33087003
000090 71 5e a0 bd bf 82 32 bd 23 e7 00 be 86 d6 43 3b
       -0.07830513 -0.04358172 -0.12588172 0.0029882505
0000a0 ae 42 8b 3b 6a 4d c7 bd b8 24 ad bd 3e 94 84 3e
       0.004249892 -0.097315624 -0.08454269 0.2589435
0000b0 f9 39 2c bb e4 08 6c 3d 3b ef fc bd d5 1d 51 bc
       -0.0026279672 0.057625666 -0.12350317 -0.01276346
0000c0 e5 d8 94 3d d0 7a f6 3c 91 0a 49 bd 9b 8e cb 3c
       0.07267932 0.030087858 -0.049082343 0.024848273
0000d0 02 8f 90 bd 0f de 07 bd d8 ce 9a 3e b8 4c 31 bd
       -0.070585266 -0.033170756 0.30235934 -0.043286055
0000e0 c2 6c 2a bc d6 50 f3 bc e3 a4 c2 bb cd d1 46 bd
       -0.010401906 -0.029701632 -0.005940066 -0.048539925
0000f0 17 a8 b2 bd 76 bf 9d bc 53 08 35 bd dc b6 9c 3d
       -0.08723467 -0.019256335 -0.04419739 0.07652065

fc3.weight f4 [6, 64]
000000 2a 52 68 bd 81 d7 c7 be cb e3 dd 3e 81 66 0c 3f
       -0.056718983 -0.39031604 0.43337855 0.5484391
000010 7a 01 4b bd f4 9b 7e 3e 71 70 5f 3e 69 ad 14 3f
       -0.049561955 0.24864179 0.21820237 0.580771
000020 e6 ea 73 bd ed 13 3a bb 72 83 90 3e b1 9d fe 3e
       -0.05955019 -0.0028393224 0.28225285 0.49729684
000030 30 19 d4 3e 5f 24 bc 3e 04 01 88 be 95 ea 32 3f
       0.41425467 0.367465 -0.26563275 0.69889194
000040 5d aa cd be 14 01 70 3d 18 91 11 3f be a2 e7 3e
       -0.4016904 0.05859478 0.5686202 0.4524135
000050 66 d1 ae be 73 0f 1f 3f a5 ae a3 3e bc 68 1e 3f
       -0.34144133 0.6213295 0.3196918 0.6187856
000060 e7 97 3a 3e 51 a0 3b be 9d 86 da bc c8 f0 f0 3e
       0.18222009 -0.18322875 -0.026675517 0.47058702
000070 69 3f 43 3f 5d 69 8f 3e e7 dd d7 3e 39 ad 26 3f
       0.7626863 0.28010073 0.42161486 0.65108067
000080 04 65 c0 3e 00 bd a9 be 31 12 22 3f ac e9 9b 3e
       0.3757707 -0.33152008 0.6330901 0.30451715
000090 dc 15 74 bb 1e 55 3e 3f b1 61 1a 3f a4 15 11 bd
       -0.0037244475 0.7434863 0.60305315 -0.03542103
0000a0 01 30 a5 3c 8e c5 c0 3e 21 c5 17 bd 5a 9f 7c 3e
       0.020164492 0.37650722 -0.03705323 0.24670163
0000b0 83 c5 30 3f f9 ba 0d 3f 22 86 42 3f 2a c0 b6 bd
       0.6905138 0.5536342 0.7598592 -0.08923371
0000c0 a3 23 0c bd 75 c2 03 bd 20 2b 2c 3f a3 8f e0 bc
       -0.034213673 -0.03216787 0.67253304 -0.027412241
0000d0 83 68 12 3f 55 58 39 3f b1 f8 d1 3e cb 79 c7 3e
       0.5719072 0.7240041 0.4101005 0.38960108
0000e0 10 2a c3 bd 58 92 f8 3e 8e 53 3d bd 24 29 a7 3c
       -0.09529507 0.4854915 -0.046222262 0.02040536
0000f0 51 47 2e 3f d2 bc 61 3e db 3f 8e bc 0d 9f ce 3e
       0.6807757 0.22044685 -0.017364433 0.4035572
000100 a0 df 07 3d 0e 90 48 3f 39 86 6f be de cf 81 be
       0.03317225 0.7834481 -0.23391046 -0.25353903
000110 65 c8 76 3d c6 66 a2 3e 38 1a 84 3e 59 65 8f be
       0.060249705 0.31719035 0.25801253 -0.2800701
000120 e9 bf b6 bc e3 03 7c 3d 96 f7 88 3e 40 c9 83 be
       -0.022308307 0.061527144 0.26751393 -0.2573948
000130 16 25 7e be 69 01 c1 3e a7 0b f4 3e 91 64 20 be
       -0.24818835 0.37696388 0.4766514 -0.15663363
000140 da 9c 32 3f 35 76 cf bc 10 7c c3 be bf c1 3d 3d
       0.69770586 -0.02532492 -0.3818059 0.04632735
000150 44 02 19 3f 70 ee 9c be b6 00 98 3e 9b d8 90 be
       0.5976908 -0.30650663 0.29688042 -0.28290257
000160 6a 79 39 be 7e 4e 17 3f f6 aa 05 bd 1c 59 b9 be
       -0.18112722 0.59104145 -0.032633744 -0.36200798
000170 e8 e9 1b be d0 c2 98 3e 98 46 3b bd 08 9b 78 be
       -0.15225947 0.2983613 -0.04572162 -0.2427789
000180 ec 12 a0 be f6 5c 20 3f 31 41 38 be 9e cd a2 3e
       -0.31264436 0.6264185 -0.17993619 0.31797498
000190 7e 1c 82 3d 09 30 ed bd e0 4e 89 be 58 3f d7 3d
       0.06353091 -0.115814276 -0.2681799 0.10510129
0001a0 9b 4d d2 bd a2 92 be be bf e4 ee bd 80 e9 97 3e
       -0.10268708 -0.37221247 -0.116647236 0.29670334
0001b0 4a 18 82 be 04 b8 0b 3e b2 e7 8b be 44 d2 d4 bd
       -0.25409156 0.13644415 -0.27325207 -0.103916675
0001c0 06 68 94 3e 32 71 8c 3d 28 5f 2e be 91 34 03 be
       0.28985614 0.06857528 -0.17028487 -0.12813021
0001d0 1e 45 80 be 99 f4 17 be 9f b8 c6 3e 4a 8e a3 be
       -0.25052732 -0.148394 0.3881273 -0.31944495
0001e0 91 58 25 3d 37 17 b3 bd 66 b1 62 bd 18 ec 02 be
       0.040367667 -0.08744662 -0.05534496 -0.12785375
0001f0 41 84 7d be e1 13 f3 bd f4 05 00 be 06 f1 45 be
       -0.24757482 -0.11869026 -0.12502271 -0.19330224
000200 73 90 d7 bb 8b 74 db bd 84 47 2d be 4f 51 43 be
       -0.006578499 -0.10715588 -0.16921812 -0.19073986
000210 d0 f4 2f 3c ae 5d 2e be 8e be 74 be 69 50 04 be
       0.01073952 -0.17027923 -0.23900816 -0.12921299
000220 7b 0c 5c 3d e0 c2 8a bd 1a 17 79 be b0 5e 46 be
       0.05372284 -0.06775451 -0.24325219 -0.19372058
000230 19 30 5b bc e4 ef 82 be 2c 6c 1f 3c e8 c8 2a be
       -0.013378167 -0.25573647 0.00973038 -0.16678202
000240 b4 48 3f bd 85 11 06 bc 3b 03 2a be 23 0a 17 be
       -0.046700194 -0.008182888 -0.16602795 -0.1474996
000250 58 50 3b bd e3 1a 83 be dc df 47 be 72 27 0e bd
       -0.04573092 -0.2560645 -0.1951899 -0.034705587
000260 09 30 34 3d 3f 78 a9 bd a0 be ea bc cc db 89 3c
       0.043991122 -0.08274888 -0.02865535 0.01682844
000270 2c 53 ff bd c3 12 d5 bd 58 84 68 be 5d 1d 30 be
       -0.12467036 -0.10403969 -0.22706735 -0.17198701
000280 d7 2c d8 3c 65 32 84 bd dd fb 58 be 9a 24 68 be
       0.026388569 -0.064549245 -0.21189828 -0.22670212
000290 c9 97 6e 3d 82 d7 6a be a6 41 dc bd 33 49 4e 3b
       0.058250222 -0.22933772 -0.10754709 0.0031476736
0002a0 e2 f0 71 3d 1c c0 e3 bd 9d 30 7f 3d bd e8 76 be
       0.059067614 -0.11120626 0.06230222 -0.2411222
0002b0 b1 94 31 be bd b3 85 be 7c fa 9c bd c9 a5 c5 bd
       -0.17341878 -0.26113692 -0.076649636 -0.09650762
0002c0 e5 4f e7 bd 72 6d 51 bc ba ff 9f bd 7d 91 c0 bb
       -0.112945355 -0.012782441 -0.07812448 -0.0058767186
0002d0 8b bf 09 be 50 bc 05 be 27 6b 1e be 0c dd 36 bd
       -0.13451974 -0.13060117 -0.15470563 -0.0446444
0002e0 dc 27 a6 bc 2d c4 e8 bd 59 8c ae 3c b2 83 93 bc
       -0.020282678 -0.113655426 0.021307157 -0.018007133
0002f0 ea 4f d5 bd 3b c1 8e bd 9a 2c c1 bc e8 cb 08 be
       -0.10415633 -0.069704495 -0.023580838 -0.13359034
000300 7d d0 54 bd ee 3d 44 bd 27 0f 0b be cc 38 32 be
       -0.051956642 -0.047910623 -0.13579999 -0.17404479
000310 36 d8 d4 bd f9 4e 35 bd f5 91 6a be 5c e5 b8 bd
       -0.103928015 -0.044264767 -0.2290724 -0.09028122
000320 20 83 5b bc 86 ac 88 bc 14 39 20 bd 4a ca 9f bd
       -0.013397962 -0.016683828 -0.039116934 -0.078022555
000330 d5 f8 23 be 31 8e 01 be c7 c1 17 be 79 dc 9a bb
       -0.1601289 -0.12651898 -0.14820014 -0.0047259894
000340 ea 18 c7 bd 60 9a be bd 6b fe 21 be a9 40 13 bd
       -0.09721549 -0.093067884 -0.15819709 -0.035950337
000350 da fc 13 bd 70 e3 04 bd 65 8c 32 bd fc 58 5b bd
       -0.03612981 -0.032443464 -0.043590922 -0.05355166
000360 07 9b 9a bc f1 38 5b b9 df eb ba 3d bd 18 0b be
       -0.01887275 -0.0002090668 0.0912702 -0.13583656
000370 b3 19 bb 3c d0 d1 e7 bd 76 d4 c8 bc 96 25 35 be
       0.022839403 -0.113193154 -0.024515372 -0.17690119
000380 d8 12 8d bb 0b c1 e7 b9 f4 79 90 bc 19 45 12 be
       -0.004305225 -0.00044203582 -0.017636277 -0.14284171
000390 1c 33 a5 3d c2 83 ff bd bd 29 35 be 5a 7c d3 bd
       0.08066389 -0.12476303 -0.17691703 -0.103264526
0003a0 a0 82 56 3d 1d 11 37 bc cb 79 eb bd 61 e1 5e be
       0.052370667 -0.011173514 -0.114978395 -0.21765663
0003b0 17 4a 2e 3b a4 69 36 be d8 19 7a bd 90 f6 dc 3c
       0.0026594454 -0.17813736 -0.061059803 0.026973039
0003c0 2c fb d4 bd 3b f5 f7 bc 7d e5 cc bd de 79 c0 bd
       -0.1039947 -0.030268302 -0.10004709 -0.09398244
0003d0 8f 6b b1 bd c9 b5 07 3d 60 45 6a bd 9e 19 33 bd
       -0.08663093 0.03313235 -0.057195067 -0.043725602
0003e0 c4 e4 c4 bd 9b c6 12 be e5 f5 a3 3c e3 4d ba bd
       -0.09613946 -0.14333574 0.020014713 -0.09096887
0003f0 86 36 c8 bb 87 6a d7 bd 48 29 cc bd c1 9d ac bd
       -0.0061100153 -0.10518365 -0.09968811 -0.08428527

fc3.bias f4 [6]
000000 26 4f 1a 3d 78 64 04 40 59 5c 38 bf 97 56 08 bf
       0.037673138 2.0686321 -0.7201591 -0.53257126
000010 62 c0 89 be 5d 29 4d bf
       -0.2690459 -0.8014124

fc4.weight f4 [128, 1280]
000000 94 88 28 3d 21 00 f6 bc c4 14 ea bc bd 3b 15 3c
       0.041145876 -0.030029358 -0.028574355 0.009108481
000010 36 4e ce bc db 30 03 3c 61 da 13 bc b0 56 de 3c
       -0.025183778 0.0080072535 -0.009024234 0.027140945
000020 dc db ba 3d aa a7 69 3d ea db 1a bd 96 54 32 3d
       0.09123966 0.057044663 -0.037807383 0.0435377
000030 08 14 16 bb 44 e1 a0 3b e9 04 ba bc 59 61 32 3d
       -0.0022900123 0.0049096663 -0.02270742 0.04354987
000040 3f ff 1f 3d fa 55 24 3c 49 34 07 bd 7f 93 a1 3c
       0.03906178 0.010030264 -0.033008847 0.019723652
000050 3a 0d de bc b0 27 97 bd 31 2a 1a bd 70 78 e7 bc
       -0.027105916 -0.07380617 -0.037637893 -0.028255671
000060 94 62 2a bc 86 5e b0 bb d8 35 fd 3c 2f bf 88 bd
       -0.010399479 -0.005382362 0.030909464 -0.066770904
000070 c6 5a cf bc 1d 4a 52 bb 87 e0 b1 3c 47 8e 71 bd
       -0.025311839 -0.0032087632 0.021713508 -0.058973577
000080 30 3d c1 3c e0 b8 43 3d a2 e7 27 bd 7e 84 96 3d
       0.023588747 0.047783732 -0.040992387 0.0734949
000090 21 17 e3 bc a5 8f 83 3d 72 54 e4 bc 60 77 03 bd
       -0.02772099 0.064238824 -0.027872298 -0.032096267
0000a0 9a 11 1d 3d f0 60 18 bd 9a 96 1b 3d 09 11 74 3c
       0.038346864 -0.03720182 0.03798542 0.01489664
0000b0 ec 78 54 bc 6e 03 a7 bc c4 fb 6a bb 32 46 57 3d
       -0.012968283 -0.020387378 -0.003585563 0.052557178
0000c0 7a eb 57 bd c1 91 b7 bc d9 a5 d9 3c 07 da 5e 3d
       -0.052714802 -0.022408368 0.02656834 0.054407146
0000d0 60 b4 ef 3d 1b dd 8f bd 3e 61 87 3a 43 a1 5a bd
       0.11704326 -0.070245944 0.0010328663 -0.053376447
0000e0 3b d4 64 3c ed 3a 41 3d 5e 60 ce 3c 10 24 1e 3d
       0.013966615 0.047175337 0.025192436 0.03860861
0000f0 82 0e ac 3c c3 bc 22 bd d1 46 32 3b ef cc 04 3d
       0.021003012 -0.0397308 0.0027202854 0.032422002
000100 4f fb 4a 3d b9 46 01 bc 2b b9 ae 3c 27 8d 71 bc
       0.049556073 -0.007890397 0.02132853 -0.014743126
000110 0b 3c a5 3d 03 a1 83 3c d4 a3 a1 3d 8b 54 a3 bd
       0.08068093 0.016067987 0.07892576 -0.0797511
000120 c8 5b 91 bd 6d 2d 9a bd e2 6a 0d bd 61 79 7c 3d
       -0.07097584 -0.075281955 -0.03452576 0.061639193
000130 b9 a7 0c 3d 9e ae fd bc 74 fd 1c 3c c6 07 cd 3c
       0.03433964 -0.030967053 0.009581912 0.02502812
000140 a4 af 4b bd 72 25 20 bd d5 b2 53 3d ef eb 63 bc
       -0.04972805 -0.03909821 0.05168422 -0.013911231
000150 30 16 b5 bc 19 6d 23 bd 94 8f e5 3b 7f ed 10 3a
       -0.022105306 -0.039898966 0.0070056412 0.0005528554
000160 81 9a 2e bd 40 f0 8f bb c2 c5 b0 3c fa bb cf 3c
       -0.042627815 -0.0043926537 0.021578673 0.025358189
000170 7d 3d 7f 3d 27 e6 04 bd 87 03 44 3d 1d ec 51 3c
       0.0623145 -0.032446053 0.047854926 0.012812641
000180 95 8b 74 bd 24 e1 25 ba 9f d6 e2 3c 9c fb 27 3d
       -0.05970343 -0.0006327799 0.02769023 0.041011438
000190 62 44 98 bb fc 48 40 bd fa d8 9e bc eb 54 7a bd
       -0.0046468237 -0.046944603 -0.019390572 -0.06111614
0001a0 17 d2 9d bb 29 d0 86 bd 0b 33 6d 3c 69 55 2c bd
       -0.0048163044 -0.06582672 0.014477502 -0.04207364
0001b0 a2 d3 f9 3c 8e f6 3d bd ad 26 a0 bc 44 ee 51 bd
       0.030496422 -0.04637771 -0.019549692 -0.05125262
0001c0 04 97 85 bb 19 62 c7 bc 84 87 cb bc 59 37 3a bc
       -0.0040768404 -0.024338769 -0.024844892 -0.011365735
0001d0 2f f8 4f bc 74 56 a5 3c c4 86 0a bd e2 b8 01 3d
       -0.012693449 0.020182826 -0.03381993 0.03167046
0001e0 25 b3 b2 bc 4a 73 a3 3c 40 88 a2 3d eb 19 09 bd
       -0.021813938 0.019952435 0.07936144 -0.033471983
0001f0 1b b9 3b 39 52 13 f7 3b d4 90 32 bd 82 d4 9e 3c
       0.00017902667 0.007540145 -0.04359515 0.019388441
000200 8c 8a 03 3c 94 1e 5c bd 5b 46 16 bd dc cb 61 3d
       0.008028638 -0.0537401 -0.03668819 0.055126056
000210 12 62 d5 bc 07 85 0b bd d1 68 92 3c d4 86 b3 bb
       -0.02604774 -0.03406241 0.017872246 -0.0054787192
000220 4d ed 05 3d 31 71 5a bd 2a 06 97 3c 52 8a 91 3d
       0.03269701 -0.053330604 0.018435556 0.07106461
000230 31 58 a9 3c e4 f9 da 3c b1 2c 0c 3d 20 3f 77 bb
       0.020671936 0.026730485 0.03422231 -0.0037726834
000240 40 6d b0 bd ff 14 93 bd a7 a3 0a bc 26 18 c1 3c
       -0.08614588 -0.07181739 -0.008461869 0.023571085
000250 52 ba 5a bc 1f de 7d 3d ca 04 56 bb 98 38 b2 3c
       -0.013350086 0.06197941 -0.0032656663 0.021755502
000260 8e 98 0c bd 2c 5a 84 3a f7 30 b2 3c 38 2d 8e ba
       -0.034325175 0.0010097674 0.021751864 -0.0010847216
000270 f9 6e 78 3c 7f cc de 39 d3 6e 38 bd a8 9a 8d 3c
       0.015163177 0.000424955 -0.045027565 0.01728566
000280 9a 25 c0 3c 92 03 6e bd a5 63 83 bd 29 30 4e 3c
       0.02345543 -0.058108874 -0.0641549 0.012584724
000290 4a dc 03 3c 42 4d b0 bc 06 95 c9 3c dc dc 0b 3d
       0.0080481265 -0.021521214 0.024607193 0.034146175
0002a0 fd a4 bf bb a5 05 10 3d f5 8f 64 bc b7 a4 7f bd
       -0.0058485256 0.035161633 -0.013950338 -0.062412944
0002b0 58 7f 48 bd b8 06 be 3a 9f a6 6c 3b 43 7e 9b bd
       -0.04894957 0.0014497852 0.0036110056 -0.07592442
0002c0 e3 75 3e bc 40 45 71 3c 84 69 c3 bb bd 66 a2 bc
       -0.011624786 0.014725983 -0.005963506 -0.01982438
0002d0 d4 73 14 3d 0f 84 46 3d d4 f5 4c bd 78 74 38 bd
       0.036243275 0.048465785 -0.050039127 -0.04503295
0002e0 6f ec d2 3c 47 ee 27 3d 6e 54 07 3d 33 18 3c bd
       0.025747506 0.040998723 0.033039503 -0.045921516
0002f0 77 a0 0a 3d 4f 57 51 3d 85 83 50 bc 3c f3 ae bc
       0.033844437 0.051108655 -0.012726669 -0.021356218
000300 b9 c8 12 bd 22 25 31 bd 09 02 3a 3c 93 fa 5f 3c
       -0.035835955 -0.043248303 0.011353024 0.013670581
000310 e1 41 3f 3c af 33 5a bc 54 63 2b bd 2a 6d 62 3c
       0.011673422 -0.013317986 -0.041842774 0.013819972
000320 2c e4 45 3d b3 c5 a3 bc eb b7 34 bd f7 f4 f4 3b
       0.048313305 -0.019991731 -0.04412071 0.007475491
000330 e4 f3 46 bc 45 fd da bc eb 68 d9 3c db 0c b0 bc
       -0.012143109 -0.026732096 0.026539287 -0.021490505
000340 f5 c9 69 bd 97 7d 3f bc eb 7c ba bb 64 61 96 3a
       -0.057077367 -0.011687658 -0.005691161 0.0011473116
000350 7b 87 8d bb a9 7f 8a 3c 4d 41 12 bd 5a 3b 88 3d
       -0.004319129 0.016906576 -0.035706807 0.066519454
000360 76 60 e8 3c 2c 95 00 3d ca d7 0b 3d 3b 50 24 3d
       0.028366309 0.03139226 0.03414134 0.040115576
000370 f3 d6 a0 bd 7e 75 ba 3c 3a 02 4a bc 26 b5 d6 3c
       -0.07853498 0.022761103 -0.012329632 0.026209425
000380 29 4e 80 bc f8 88 1e bd 66 aa 1c bc fc 4e cd bb
       -0.01566227 -0.038704842 -0.0095621105 -0.006265519
000390 f2 d5 ac 3c 45 fe 86 bb 08 aa 6f bc 12 00 94 bc
       0.02109811 -0.0041196668 -0.014627941 -0.01806644
0003a0 2a ac 57 bd f8 d8 09 bd cb 2a 23 3d 75 4c 69 3c
       -0.052654423 -0.033654183 0.039835732 0.01423942
0003b0 2c 3b a1 3c fc 0a 04 3b f7 a6 05 3d f4 a2 f2 bc
       0.019681536 0.0020148149 0.032629933 -0.029618718
0003c0 a8 e7 33 bd 56 9e ce 3c a0 bf a0 bd 92 d7 d4 bc
       -0.043922096 0.025221985 -0.078490496 -0.025981698
0003d0 76 44 52 bd eb 73 b1 3c e8 2c 1e bd 43 dc 80 3b
       -0.05133482 0.02166172 -0.038617045 0.0039325072
0003e0 9d 18 d9 3d 85 d6 b2 3c 78 5b 1b bd 93 0e e0 3c
       0.10600398 0.021830807 -0.03792903 0.0273507
0003f0 5e 40 70 bd d3 10 f6 bb f0 a6 c3 3c 18 2a e6 bc
       -0.058655135 -0.00750933 0.023883313 -0.028096244

fc4.bias f4 [128]
000000 2a b1 16 3d 2c 67 ac bc c5 fd 92 bc 09 ad 63 bc
       0.03679005 -0.02104529 -0.017943272 -0.013896235
000010 8e a4 05 bd 73 ec b9 bd 7e 58 db bc 2c 60 86 bd
       -0.032627635 -0.09078302 -0.026775595 -0.06561312
000020 97 43 07 3d 80 3b 2e bd 33 aa 65 3d 62 11 3d 3b
       0.033023443 -0.042537212 0.056070518 0.0028849472
000030 dc d3 b5 3c b6 f4 0e bd f9 cf 30 3d e2 ff 71 ba
       0.022195749 -0.034901343 0.04316709 -0.000923155
000040 4c d6 7b 3d 7c 20 26 bc 52 0a a9 3c 50 54 0f bd
       0.061483666 -0.010139581 0.020634804 -0.034992516
000050 28 36 20 bd 89 38 82 3a 3a 5f 01 bc 86 08 69 3d
       -0.039114147 0.0009935062 -0.007896239 0.056892894
000060 23 f9 81 3c 0d 38 9b bb 54 2d 93 3c e9 cd 31 bd
       0.015865868 -0.0047369064 0.01796595 -0.04340926
000070 59 8f 40 bd 57 51 07 bc 4e ab fb 3c f2 ee dd 3c
       -0.047011707 -0.008259139 0.030721333 0.027091477
000080 5d 5e 46 bd fb ae 17 bd 00 37 97 bd fd 0e 94 3d
       -0.048429836 -0.03703211 -0.07383537 0.07229421
000090 d8 c0 7b bc 69 e8 b3 bd a5 21 40 3d 6e 18 b7 3b
       -0.015365802 -0.08784563 0.046907086 0.005587629
0000a0 c8 31 a9 bc d5 0f ea bb 7f 0b f6 bd ad 02 81 bc
       -0.02065362 -0.0071430006 -0.120139115 -0.015748346
0000b0 71 7f a2 ba 31 11 93 3c 10 a1 04 3c 4c c8 27 bd
       -0.00123976 0.017952533 0.008095041 -0.040962502
0000c0 61 6f 01 3d 02 47 43 bd 73 31 bf ba a8 43 42 bd
       0.03160036 -0.04767514 -0.001458688 -0.047427803
0000d0 d7 bd cc bc 13 64 94 ba db b1 ca bc c7 2a 31 bd
       -0.024992866 -0.0011321328 -0.024743011 -0.043253686
0000e0 cb fd 19 bd 0b d4 af 3c 10 fc 02 bd 7d c1 a6 bc
       -0.03759555 0.021463415 -0.031978667 -0.020355934
0000f0 42 ea e6 3c 4d 25 3d ba 01 58 ed 3c 89 a8 ab bd
       0.028187875 -0.0007215336 0.028972628 -0.08381755
000100 fd 99 f7 3b e4 19 d8 bb 8f 35 0e bc 0d 2d d3 bc
       0.0075561986 -0.0065948833 -0.008679762 -0.025778318
000110 d6 54 80 bd 03 67 f9 3c 25 2d d8 bd e9 c1 f1 3c
       -0.06266181 0.030444628 -0.10555486 0.029511409
000120 d3 be 31 bd b6 a8 4b bd 03 cd 71 3d 46 e4 0b 3d
       -0.043394875 -0.049721442 0.059033405 0.034153245
000130 80 52 aa 3a 46 1d 6d bd 3d 7e 51 bc 39 a4 bd bb
       0.0012994558 -0.057889245 -0.012786445 -0.005787399
000140 1c 0b 83 bc b6 dc f9 3a ed 89 93 3c 20 05 25 bc
       -0.015996508 0.0019062969 0.018010104 -0.010072023
000150 37 fd c7 bc 57 6b 86 bd 21 1f 07 bd 48 5d 15 3d
       -0.024412734 -0.06563442 -0.03298867 0.036465913
000160 83 52 15 bc 71 46 1e 3d 9a 51 94 3d 85 10 3e 3d
       -0.009113911 0.038641397 0.07242127 0.046402473
000170 ed 71 3f 3c 1a 0c 61 bd ad 8f 1a bd df 84 9b bc
       0.011684877 -0.05494318 -0.037734676 -0.018984256
000180 79 40 59 bd 40 49 14 3c 4c 24 98 bd bd fc a5 bc
       -0.05304 0.009050667 -0.07428798 -0.020262117
000190 cb dc 37 bd 54 0f 87 3c 76 ad 1c bd 14 63 b4 bc
       -0.0448883 0.016486801 -0.038251363 -0.0220199
0001a0 bd a5 1c bd d4 75 b2 3c f3 05 3b bc 57 5d 07 bd
       -0.038243998 0.0217847 -0.011414993 -0.033048
0001b0 a8 a3 3e 3c 4f 0a 6f bc 43 c8 83 bb b3 91 84 bd
       0.011635698 -0.01458986 -0.004021676 -0.064731024
0001c0 79 44 57 bd 6d b4 1a bd 84 24 d6 bd db e3 4e bc
       -0.052555535 -0.037769724 -0.104561836 -0.012627567
0001d0 f0 a3 2c bd 1d 3c b8 3a 46 e3 83 3b 1d 47 59 3c
       -0.04214853 0.0014056001 0.004024896 0.013261584
0001e0 a2 75 2c bd e4 55 85 bd f7 e9 16 bd cc c8 bb bc
       -0.04210437 -0.06510523 -0.03684422 -0.022922896
0001f0 34 33 e7 3c 68 e2 b7 bb 07 ab f8 3c 49 19 15 bd
       0.028222658 -0.0056117065 0.03035499 -0.036401067

fc5.weight f4 [64, 128]
000000 c5 d4 e2 bc 99 b5 9a bd 30 0b 79 bc 55 76 48 bd
       -0.027689347 -0.07554168 -0.015200421 -0.048940975
000010 46 07 8f 3d 74 c0 1e 3e 20 da 11 bc 89 8e e9 bd
       0.06983809 0.15503103 -0.008902103 -0.114041395
000020 30 ce 4c bd 15 06 e5 bd de 1f 0d be 70 bf c3 3c
       -0.050001323 -0.11182801 -0.13781688 0.023894995
000030 75 16 d4 3b a1 90 1d be f5 d5 d8 bb 9f 57 2d 3d
       0.0064724036 -0.15387203 -0.0066173025 0.04231989
000040 9b bc 4f bd 3f 63 84 bc df 1d 12 bc a2 b3 30 bd
       -0.050716978 -0.016160605 -0.008918255 -0.04314006
000050 45 98 3c 3d cd 50 72 3d 39 e6 c0 3c 93 e4 03 bd
       0.046043653 0.05915909 0.023547279 -0.032200407
000060 97 b2 2b bd af 13 7f bd 82 e1 37 bb bb 85 f7 bc
       -0.041918363 -0.06227463 -0.0028057997 -0.030215135
000070 87 6f 54 bd 89 8a ff bd fc d9 48 bd 38 ac 7e bd
       -0.051864173 -0.12477595 -0.04903601 -0.06217596
000080 bf 0c 71 bc 40 e5 51 bd 32 d9 98 bc c2 02 07 bd
       -0.014712512 -0.05124402 -0.018658254 -0.032961614
000090 13 69 37 3d 39 d5 c8 bd d2 74 50 bd 19 cd a3 3c
       0.04477794 -0.09806294 -0.05089266 0.01999526
0000a0 d7 b4 2b bd f8 aa d9 bc 3b a4 da bd 5a e0 da 3c
       -0.04192051 -0.026570782 -0.10675856 0.026718307
0000b0 66 9a 04 3d 99 eb a8 bc be a7 c6 3d 43 47 f9 bd
       0.03237381 -0.020620154 0.09699963 -0.12171795
0000c0 62 0b 16 bc 7f 94 2f bd 26 96 c8 3c 8a c3 d3 bd
       -0.009157987 -0.042866226 0.024485659 -0.103400305
0000d0 a9 13 89 3c 5c 40 07 3d 6c 23 14 3d 3f e3 aa 3c
       0.016733008 0.033020362 0.036166593 0.020860313
0000e0 d1 5f bf 3d d7 42 09 bd e6 89 94 bd 37 31 72 bb
       0.093444474 -0.03351101 -0.072528645 -0.0036955604
0000f0 c3 ed da bd 34 35 a1 bd 56 1e c8 bc d0 e5 fa 3b
       -0.10689881 -0.07871476 -0.024428528 0.0076567903
000100 dc d7 6c bb 5a d2 bd 3c b9 7d 85 3d d2 00 95 3c
       -0.0036139404 0.023171593 0.0651812 0.018188868
000110 90 e0 c9 3d c8 c2 6e bd a0 70 89 bd 0c 47 7b bd
       0.09857285 -0.058291227 -0.06710935 -0.061347052
000120 ad e1 81 3d df f3 05 bd 6e f9 a7 bd 7a 6a 5d bd
       0.06341872 -0.032703277 -0.08201872 -0.054056622
000130 80 36 7f bd 23 e0 b0 bd 4a 44 8a 3d 9f d4 6f bd
       -0.062307835 -0.08636501 0.06751306 -0.05855238
000140 63 fc d9 3d 9f 4d 13 3d 02 4e cb 3d 47 a3 f6 bc
       0.10643842 0.035962697 0.09926988 -0.030107154
000150 8b a9 2b be 7c c0 c3 3c a1 d4 a4 bd 16 f1 30 be
       -0.16763894 0.023895495 -0.08048368 -0.17279467
000160 6e 4d 82 3d c6 05 45 bd 7b 11 14 3c 82 bd 7e 3c
       0.06362425 -0.04810121 0.009037371 0.015548112
000170 ad b9 c6 bd 90 c3 b2 bd 0b c3 ed 3d 26 6f 51 bd
       -0.097033836 -0.08728707 0.11609467 -0.05113139
000180 19 61 e5 3d dc 6f 7a bd 0e 7a b5 3d 7a 7f 3b bd
       0.112001605 -0.061141834 0.08861171 -0.045775868
000190 f5 31 e5 3d d8 13 23 3d 7e 87 fd bd b3 d1 3b 3d
       0.11191169 0.039813846 -0.12379359 0.04585428
0001a0 4f ee c3 bd 6e ab 8e 3c ba 40 03 3e 95 97 66 bd
       -0.09566938 0.017415728 0.1281766 -0.056296904
0001b0 4b 9d 1f bd 07 af c2 bd 26 44 fd bc 2f 83 08 3e
       -0.038968366 -0.0950604 -0.030916285 0.13331293
0001c0 15 a0 97 bd 73 a6 a9 bd a0 ef e9 3d c7 fe be 3d
       -0.0740358 -0.08283701 0.11422658 0.09325939
0001d0 e2 db d8 3d 1d 79 80 bd f7 e2 04 bd 2d e9 eb 3c
       0.10588814 -0.062731005 -0.032443013 0.02879771
0001e0 f4 c1 c5 bd 99 03 e7 bd 61 da 1d bc eb cf 63 bd
       -0.09656134 -0.11279983 -0.009634585 -0.055618208
0001f0 d4 ac 49 bd d6 27 b0 bd 64 89 3f bd 0d e8 48 bd
       -0.049237087 -0.08601348 -0.046761885 -0.049049426
000200 7e b9 05 3e 86 03 43 3c 48 47 5e bc c6 42 34 3d
       0.13059041 0.0119026955 -0.013566799 0.044008993
000210 dc b0 4c bc 98 ea f3 bd dd 90 a4 bd b9 e4 8b b8
       -0.012493338 -0.119099796 -0.08035443 -6.6706394e-05
000220 6d 85 84 3d d5 2f 39 3d d6 25 32 3d 90 89 45 3d
       0.064707614 0.04521163 0.043493114 0.048226893
000230 72 9d ae bb 24 c5 c3 bd 23 e7 b4 3c 2d 7b 06 bd
       -0.0053288275 -0.09559086 0.02208287 -0.032832313
000240 14 86 f7 3d c6 04 fb 3d ec 9f 91 bd 01 60 2c bd
       0.1208612 0.1225677 -0.07110581 -0.042083744
000250 13 72 3f be 4e 0c aa bd 72 9e 01 bd 4c df e3 3d
       -0.1869586 -0.08303128 -0.031645246 0.11126575
000260 88 e1 15 bd 7e fe b0 3d 0d ea 47 3d eb d2 b3 bd
       -0.036592036 0.086422905 0.048807193 -0.08780464
000270 7b f7 3c 3d a1 e2 4c 3b 19 da 28 3d e4 a7 33 3d
       0.046134453 0.003126301 0.04122362 0.043861285
000280 9b b4 12 be 0a 63 d8 3c f5 2f 10 be f8 a2 73 3e
       -0.14326708 0.026414413 -0.14080794 0.23792636
000290 8f 39 06 3e f9 56 ac bd 4c 8a ea 3d 45 ed 1a bd
       0.13107894 -0.08415026 0.11452159 -0.037823934
0002a0 36 ac 04 bd 61 f0 eb 3d 79 a2 d4 bd cf 7e e7 bd
       -0.032390796 0.11520458 -0.10382552 -0.11303484
0002b0 21 27 d2 3c d9 5d 62 3c 65 74 9b 3d b4 ca 1f 3d
       0.025653424 0.01381632 0.0759056 0.039011672
0002c0 4c a9 d0 3c d3 f4 59 bd 27 7e 83 bd 9b 86 c7 bd
       0.025471352 -0.053212 -0.06420546 -0.09742471
0002d0 85 b1 7f bc 32 9b e8 bc ea 2a d1 3b 46 80 2c 3e
       -0.015606289 -0.028394315 0.0063832896 0.16845807
0002e0 91 2c 07 bd 73 26 a1 3d 2a d1 f3 3d 49 ca de 3d
       -0.033001486 0.07868662 0.11905129 0.108784266
0002f0 c2 b7 95 3d 01 cb ab 3d 55 4f 1f be e2 c4 e7 bd
       0.0731044 0.08388329 -0.15557607 -0.11316849
000300 93 38 0f 3d e7 18 0d bd 34 ab ad bb 9c 16 fc 3c
       0.034966063 -0.034447577 -0.00529995 0.0307725
000310 65 bc 3e bd 47 b0 d5 3c 6f 77 6b bd 47 1b 97 3d
       -0.046566386 0.026085032 -0.057486948 0.073782496
000320 28 d3 21 be c8 de da bd 54 ad bf 3d 64 0f 04 be
       -0.15803206 -0.106870234 0.093592316 -0.12896496
000330 bd a4 61 bd 49 c1 0a 3d 00 84 e9 3c d0 c0 a9 3c
       -0.055088747 0.033875737 0.028505325 0.020721823
000340 86 fe d4 bc 87 8f 41 bc 23 46 3a 3d ca 12 fb bc
       -0.026000272 -0.011814005 0.045477044 -0.030648608
000350 69 0e 1f 3d 99 0a 20 bd d1 07 0b 3e 3d ee 4c 3e
       0.038832102 -0.039072607 0.135772 0.20012756
000360 73 2f d3 3d d3 93 a4 3d 43 b3 2c 3e 01 15 36 bd
       0.103117846 0.08036008 0.16865258 -0.044453625
000370 63 23 fd 3d c4 84 82 3c a8 22 ff bd 7b b7 15 3e
       0.12360265 0.015932448 -0.12457782 0.14620773
000380 d4 9a cd bd 75 b6 73 3d 19 cd 75 bd 94 b4 0d 3e
       -0.10039297 0.059500176 -0.06001005 0.13838416
000390 36 7c 1e 3b 2f 8a bd bc f2 16 93 bc d1 53 44 3d
       0.0024182922 -0.02313718 -0.017955277 0.047931496
0003a0 06 61 94 bd be 51 a0 3d 1c a9 3a 3d 36 38 e1 3c
       -0.07245068 0.07828091 0.04557143 0.027492624
0003b0 a2 2c 4d 3c b3 27 84 3d 75 48 8c bd 88 08 9a bd
       0.012522848 0.064528845 -0.068497576 -0.075211585
0003c0 c3 a8 3e 3e 79 c2 92 3c d8 8c 87 bd cc 8c fd 3c
       0.18619065 0.017914997 -0.06618661 0.030950926
0003d0 f2 f0 22 bc 44 5e 20 bd 23 2c 49 bc a3 3b d9 bc
       -0.009945141 -0.0391524 -0.012278589 -0.026517695
0003e0 0a 2c cd 3d de d5 a3 bc a5 85 fb bd 38 dd 07 bd
       0.100181654 -0.01999944 -0.1228135 -0.033169955
0003f0 52 d2 80 3d db ee 64 bd 8b 1e 9a 3c 56 db a7 bd
       0.062901154 -0.055891853 0.018813392 -0.08196132

fc5.bias f4 [64]
000000 89 53 a2 bd 37 70 b2 bc af 19 df 3c 1c 72 87 3d
       -0.07926089 -0.021782024 0.027233927 0.066135615
000010 d0 a5 0b bd 64 57 df 3d 77 d1 a3 3d 2f 17 55 bd
       -0.034093678 0.1090534 0.079989366 -0.052024063
000020 62 dc 67 3d a9 78 12 3d 02 c5 a1 ba f7 1d 05 bc
       0.056606658 0.0357596 -0.0012342038 -0.00812482
000030 51 63 e1 ba 78 e8 87 3d 0e c6 6f 3c 13 03 aa bd
       -0.0017195736 0.06636137 0.014634622 -0.083013676
000040 4d 23 93 3d e0 03 56 3c bd 0d 9a 3b 72 e6 02 3d
       0.071844675 0.013062447 0.0047013448 0.03195805
000050 61 92 01 3d 96 42 b1 bd a7 80 c3 3c 74 03 95 bd
       0.03163374 -0.086552784 0.023865057 -0.07276049
000060 80 29 06 3e 0f c4 35 3d f5 cf 91 3d 6f 88 13 3d
       0.13101768 0.04437643 0.07119743 0.036018785
000070 29 d8 a4 3d a5 9b 1b 3d 3c 39 31 bc 2f ec bb 3c
       0.08049042 0.03799023 -0.010816868 0.02293977
000080 23 fa 63 3d 3f 81 cc 3d 9f 83 84 bd 40 1a 85 3d
       0.05565847 0.09985589 -0.06470417 0.064991474
000090 0b b0 0b bd 6a 41 fe bc 9f c1 ee 3a 80 f5 44 bd
       -0.034103435 -0.031037051 0.0018215663 -0.04808569
0000a0 9f 48 5d 3c 72 99 ea 3c 9e be ad ba e8 ba 57 3b
       0.013506084 0.028637622 -0.0013255661 0.0032917801
0000b0 e9 a8 be 3d b9 79 3a 3c 0a 1c a0 bd df a7 04 3d
       0.09309561 0.01138156 -0.07817848 0.032386657
0000c0 52 8e b9 bd 39 eb 16 3c f6 a7 67 3d 99 33 b3 3c
       -0.090603486 0.009211355 0.056556664 0.02187519
0000d0 4b 2c a3 3c 49 76 bd 3d 28 e6 c1 b9 53 01 dc 3d
       0.019918581 0.09251077 -0.00036983308 0.1074244
0000e0 04 33 bf 3d 4e 3f a5 bd 82 84 a5 bd 3a 76 81 bd
       0.09335902 -0.08068715 -0.080819145 -0.06321378
0000f0 49 96 3d bd 97 ba 2f bd 6d 40 6e 3d 84 7e 93 bd
       -0.0462859 -0.042902555 0.05816691 -0.07201865
