models/0.6/0.pt (torch, 747117 bytes, 12 tensors)

fc1.weight f4 [128, 36]
000000 ce 22 96 bd c2 fa b9 3c 69 ce d0 bd 24 41 ef 3d
       -0.07330857 0.022702578 -0.101956196 0.116823465
000010 cb 4f ef bd 5e ca 6e 3d a5 da 17 be f0 c9 4b 3c
       -0.11685141 0.05829846 -0.148295 0.012438282
000020 f1 2f 6b bd 07 d5 d3 bd 47 00 c0 3d ea c7 f4 bb
       -0.057418767 -0.10343366 0.09375053 -0.0074701207
000030 a1 a1 2f 3d 4b 73 17 be 04 3c 08 3e 20 81 55 3d
       0.04287875 -0.14790075 0.13304144 0.052125096
000040 0e 8c 4f 3d 6f 84 9d bd a6 89 1a bd 53 09 14 be
       0.050670676 -0.07691275 -0.037728928 -0.14456682
000050 cf 37 60 bc b0 6c 88 be b3 ef ba 3d d5 d3 af be
       -0.013685181 -0.26645422 0.0912775 -0.34341303
000060 c6 0a 1d 3e ed d6 c5 bc 1e 69 95 bd 0b 51 fd bb
       0.15336141 -0.024150336 -0.0729544 -0.0077306083
000070 2e a4 b2 3d 09 e6 ef 3d c6 ac cc 3a d3 db ff bd
       0.08722721 0.117137976 0.0015615455 -0.124931
000080 28 ab cb bb fb c2 04 bf 97 3e 09 3d 9e a5 15 3e
       -0.006215472 -0.51860017 0.033506956 0.14613959
000090 4b 05 16 be b2 50 1c 3e af a9 bf 3d 8f ff 64 3d
       -0.14650457 0.15265158 0.093585365 0.055907782
0000a0 3c 06 44 3d fd bc 1b 3e a3 b5 0e 3e e3 e0 70 3d
       0.047857508 0.15208812 0.13936476 0.05880822
0000b0 9d 70 ea bd 3a 15 d2 3c 59 88 0c bd d3 d5 31 be
       -0.114472605 0.025644887 -0.03430972 -0.17366724
0000c0 ca 08 ab bc fc ab 33 3d b8 d7 e9 3b 1e 29 ff 3d
       -0.020878214 0.04386519 0.0071363114 0.12459014
0000d0 a4 e9 ff 3a 36 25 7f bd 92 eb 1d bd e3 df c9 bc
       0.0019524586 -0.062291346 -0.038554735 -0.02464289
0000e0 ee 74 28 3d 81 07 09 be b5 4e b3 3d 1c d2 a2 bd
       0.041127138 -0.13381769 0.087552465 -0.079502314
0000f0 aa bd 8e bd 1a f2 01 be d2 c2 94 3c 66 4e 46 bd
       -0.06969769 -0.1269001 0.018159304 -0.04841461
000100 39 e1 0c bd 6a 4a d4 3d 49 44 ff 3d 86 f1 33 3d
       -0.034394477 0.10365756 0.12464196 0.043931507
000110 bd 54 1c be e3 bb 8c be de 3e 01 3e ba 89 ff bd
       -0.152667 -0.27487096 0.12621638 -0.12477441
000120 93 01 e4 bd be b0 cf 3d 57 c6 04 3e 5c 99 aa bd
       -0.11133113 0.10141133 0.12966286 -0.08330032
000130 c5 71 9d 3d 15 76 2d bb bd 9c b8 3d 58 56 cd 3d
       0.076877154 -0.0026468087 0.090142705 0.100262344
000140 20 5c 27 be 4a 01 51 3e 23 29 61 3d 64 ef 71 bc
       -0.16343737 0.20410648 0.05497087 -0.014766548
000150 68 5e f2 bd 8b 9b 26 3c ff c4 e6 3d ef fc 40 3e
       -0.11834413 0.01016892 0.11268043 0.18846487
000160 1e 20 7b bd fb 7c 75 3d f0 62 b9 bd e3 ce bd 3d
       -0.061309926 0.059933644 -0.09052074 0.09267976
000170 36 a9 1c be 51 42 5e bd 08 9c 96 3d 11 24 15 3c
       -0.15298924 -0.054262463 0.07353979 0.009102837
000180 1b b8 f8 3d 84 e9 da 3d 4e 43 93 3d 05 c5 2f bd
       0.1214449 0.10689071 0.07190572 -0.0429125
000190 52 89 26 bd 0e ce 52 be 77 f5 1e be 30 57 33 3d
       -0.040658303 -0.20586416 -0.15523325 0.04378432
0001a0 60 cc d7 3d 27 56 7f be d8 6b 9e 3d 57 b1 63 3d
       0.10537028 -0.24935208 0.07735413 0.055589046
0001b0 c7 35 e3 3b f6 23 b4 3d 40 c6 f1 3d bf 3b 26 be
       0.006933901 0.087959215 0.11805391 -0.16233729
0001c0 81 90 a8 bd 3d 93 73 bd 20 31 da bc 29 e6 0a 3e
       -0.08230687 -0.05946659 -0.026634753 0.13564362
0001d0 75 39 e4 bd a8 85 0a bf d3 8b 91 be 4b 2c bd 3e
       -0.111437716 -0.54110193 -0.2842699 0.36947855
0001e0 e8 65 7e 3d a4 4d 13 3d 23 07 1c be 9d a9 92 be
       0.062108904 0.035962716 -0.15237097 -0.2864503
0001f0 f6 f0 95 be e9 d7 b9 3d 86 fa d8 3d 7f 74 43 bd
       -0.292854 0.09074385 0.105946586 -0.04771852
000200 7a c7 a2 bd 1b 6d d4 bd ef 30 8d bd c7 45 b4 bd
       -0.079482034 -0.10372373 -0.06894099 -0.088023715
000210 01 cb a4 bd dc 3c 15 3d 64 07 3a 3d e1 13 d7 bb
       -0.080465324 0.036434993 0.045417204 -0.006563649
000220 c2 5b 26 bd c9 6d 0a bd 43 2e ad 3b 7a d3 82 bd
       -0.04061485 -0.033796106 0.005285056 -0.06387992
000230 44 39 c1 3d 37 f7 16 3c 11 37 0f bd e3 75 a3 3c
       0.09434751 0.009214214 -0.034964625 0.019953674
000240 14 3f 59 3d a0 ab 69 bb 5e 58 97 3d 0b e3 10 3e
       0.05303867 -0.0035655275 0.073899016 0.1414911
000250 fe f5 a5 3d 09 f4 8c bd 1d 03 fe 3c 9b c8 b9 bd
       0.0810356 -0.068824835 0.031007344 -0.090714656
000260 91 5c e2 bd c5 a0 15 3c 1b b3 0f be 20 7b 82 3d
       -0.11052812 0.009132569 -0.14033167 0.063711405
000270 f9 3a 1c be 61 2c 19 bd f4 b8 2e bc 55 63 b1 bd
       -0.15256871 -0.03739584 -0.010664213 -0.08661524
000280 da c0 11 be b7 0d 68 3c 80 55 2a be 3f b7 d5 bd
       -0.14233723 0.014163426 -0.16634178 -0.10435342
000290 25 30 44 3d 88 de fe 3d 14 47 a5 bc ba b8 ed 3d
       0.047897477 0.12444788 -0.020175494 0.116074994
0002a0 6d ea 15 3e f2 f9 1f 3e cf 3b 7e bd 6d 19 a4 3c
       0.14640208 0.1562269 -0.062068757 0.020031655
0002b0 90 77 63 bc d1 92 c0 3d 95 87 84 3d 49 13 83 bd
       -0.013883486 0.09403003 0.06471173 -0.06400163
0002c0 a4 ae 9d bd 42 f7 86 3d a1 fa e9 3d 7f 4e eb bc
       -0.07699326 0.065901294 0.11424757 -0.028723953
0002d0 c2 20 7f bc 39 17 f7 bd e7 bc d5 bb 58 9d 5e bc
       -0.015571775 -0.12064976 -0.006522763 -0.013587318
0002e0 d2 99 54 bc 33 d5 e4 bc 34 8a 8b 3b 2a 5f df bc
       -0.012976127 -0.027933693 0.0042584185 -0.027267057
0002f0 07 2b 12 3e 44 78 16 3e 92 d2 fb bd 12 ae b1 3d
       0.14274226 0.14694315 -0.122960225 0.086757794
000300 51 92 20 be de 0c e3 bd 85 4e da 3c 42 a2 72 bd
       -0.15680815 -0.110864386 0.02664877 -0.059236772
000310 77 ab c4 3d c8 06 7f 3d fd 44 e1 3d ed a6 05 be
       0.09603017 0.062262326 0.109994866 -0.13051958
000320 14 05 25 3d 01 e4 52 bb 82 53 e3 bd 53 f6 53 be
       0.040288046 -0.0032179358 -0.11099912 -0.20699434
000330 ce 51 ee 3d 3d 64 0d be e8 8e 9e 3d 4e 69 8a bd
       0.11636697 -0.13807769 0.07742101 -0.067583665
000340 e5 b3 a1 bc 03 00 25 3e cf 09 a0 bd 72 84 f5 bd
       -0.0197391 0.16113286 -0.07814371 -0.119881526
000350 7a 57 de 3b 1a e1 27 3e ca c9 c8 bd ab 76 b5 3d
       0.0067853304 0.16394463 -0.09804113 0.08860525
000360 17 f0 a0 3c ba 2f b7 3c a5 f8 53 3d df 9e 99 3e
       0.019645734 0.022361625 0.051750798 0.30004022
000370 a1 52 01 bd 7d 44 b1 3d 41 6e 89 3d 87 5e 05 be
       -0.03157294 0.08655641 0.067104824 -0.1302434
000380 79 a0 69 3d 29 c6 ca bd dd dc c2 3d 28 2b 95 3c
       0.057037804 -0.09901077 0.095147826 0.018209055
000390 a2 44 08 be 23 e8 0b be 51 42 e2 3c b4 cf bf 3d
       -0.13307431 -0.13662772 0.027619513 0.09365788
0003a0 f3 04 d6 bd 91 9d fa bc 91 a7 a9 bc 17 a3 23 be
       -0.10450163 -0.030592712 -0.020709785 -0.15980183
0003b0 49 df 2b 3c c8 84 a8 bd de 5f 25 3d 42 72 93 bd
       0.010490247 -0.08228451 0.04037463 -0.07199527
0003c0 00 13 e8 3d 34 aa fe bd be a3 ff bd 7d 69 00 be
       0.11331749 -0.124348074 -0.12482403 -0.1254024
0003d0 fd 58 04 be 2b 47 cc 3d a1 e4 11 3e e8 79 f2 3d
       -0.12924571 0.09974512 0.14247371 0.11839658
0003e0 93 f1 1f bc e7 62 3f bd 92 ee 09 be b3 fa ed bd
       -0.009762186 -0.04672518 -0.13469914 -0.11620083
0003f0 aa 13 18 be 4d 8a a4 3d e2 fd bd bd 4c 65 ce 3c
       -0.14851251 0.08034191 -0.0927694 0.025194786

fc1.bias f4 [128]
000000 1d db bc bd 3c 73 5b 3e bf c5 7e 3d 0e 9c cb 3d
       -0.0922148 0.21430677 0.062200304 0.099418744
000010 a3 41 4f 3d 04 e5 39 be 76 06 41 be ae 9f f3 3d
       0.050599705 -0.18153769 -0.18850121 0.11895691
000020 84 43 44 3e 71 a5 3b 3e 40 d8 b7 bd c7 bc e0 bd
       0.1916638 0.1832483 -0.08976793 -0.109735064
000030 59 37 f3 bd f5 5f 3f 3c ed 65 74 bc 23 50 03 be
       -0.11875791 0.011680593 -0.014916879 -0.12823538
000040 b2 f5 1b 3e d0 57 17 3e ea aa 27 3d 9b f2 97 bd
       0.15230444 0.14779592 0.04093448 -0.0741932
000050 6f 09 90 bd d9 5d 3b 3d 0f a1 1b 3e 63 4e 16 be
       -0.07033049 0.045743797 0.15198158 -0.1467834
000060 78 9e f5 bd d4 d5 00 be 87 af fe 3d 87 52 f5 bd
       -0.11993116 -0.12581569 0.12435823 -0.119786315
000070 f5 48 0f be 64 a5 df 3d 72 2e d1 3d b9 b4 fc 3d
       -0.13992675 0.10920218 0.10213937 0.123391576
000080 a4 b6 db 3d 66 63 05 3e 43 16 05 be 57 6e 93 3d
       0.10728195 0.13026199 -0.12996773 0.0719878
000090 9f a2 05 3e ed 1f e4 bd b4 9a 2a be 9c c5 ae bd
       0.13050316 -0.11138902 -0.16660577 -0.08533785
0000a0 2b f9 85 bd 1c 4e 11 3e ee 30 08 be db 4a 60 3e
       -0.06541666 0.14189953 -0.13299915 0.21903555
0000b0 c4 01 fa bd 82 b8 aa 3e 51 49 3b 3e 28 7d c1 3d
       -0.12207368 0.33343893 0.18289687 0.094477
0000c0 b3 5b e0 bd 6c 88 15 3e 32 df b3 bd aa 47 1c 3e
       -0.1095499 0.14602822 -0.087828055 0.15261713
0000d0 a3 13 da bd 32 39 00 be 9d 3a 1d 3d 12 d8 32 3b
       -0.10648277 -0.12521818 0.038385976 0.0027289432
0000e0 2a a4 8d bd 78 05 a0 3b 45 0f b6 3d c5 a3 9f 3d
       -0.069160774 0.0048834644 0.08889631 0.077949084
0000f0 7e 20 1a 3e 4f 52 e4 3d 51 8f c8 3d 3a c0 33 3e
       0.15051457 0.111485116 0.097929604 0.17553797
000100 e8 d5 37 3e a2 93 fd bd 68 85 21 be 4f c5 83 3d
       0.17952693 -0.12381674 -0.15773547 0.06434118
000110 65 fa 52 be 04 d3 52 be 2b 68 eb 3d ba 79 89 3e
       -0.2060333 -0.20588309 0.11494478 0.26850682
000120 af e5 99 3d 17 20 0b be 79 6d 1d be d3 10 da bd
       0.07514512 -0.1358646 -0.15373792 -0.1064774
000130 40 15 09 be 52 60 57 be d0 dd ec bd cc a3 2a be
       -0.13387012 -0.21032837 -0.11565745 -0.16664046
000140 6b 0e b5 bd 2d 81 40 be 03 70 c8 bb 63 e3 8b 3d
       -0.08840641 -0.18799277 -0.0061168685 0.0683048
000150 8c ed 29 be 10 83 a9 3c 1e d0 04 3e 48 82 cb 3d
       -0.16594523 0.020692378 0.12970015 0.099369586
000160 16 03 8f bd ba 9e f9 3d 3f 9f f6 3d 3d 69 f6 3d
       -0.069830105 0.12188478 0.120420925 0.12031791
000170 4a 8d 97 3d df 38 e1 bd 7c 6c c9 3d 71 35 c7 3d
       0.073999956 -0.109971754 0.09835145 0.0972699
000180 42 81 51 bb f3 74 b4 bd f4 c5 9e bd f1 12 81 be
       -0.0031967913 -0.08811369 -0.077526 -0.25209764
000190 14 cd 05 be c8 48 06 3d 6d c9 e9 3d 22 7d dc bd
       -0.13066512 0.032784253 0.11415372 -0.10766055
0001a0 2c aa 3e be f1 ca c0 bd 3e b7 ce bc 68 42 76 3d
       -0.18619603 -0.09413708 -0.025233861 0.060121924
0001b0 9d 3b 07 be 1f 72 e6 3a af a0 3d 3e 54 34 e4 3d
       -0.13206334 0.0017581618 0.18518327 0.11142793
0001c0 2b b5 17 be 7a 55 94 3d ec 0f 5d be b1 db bd 3e
       -0.14815204 0.07242866 -0.21588105 0.37081674
0001d0 52 2b 95 bd 99 ef a1 3d 2a ea 04 be ca a6 c8 3d
       -0.07283653 0.07907028 -0.12979952 0.097974375
0001e0 2b 03 29 be 92 c8 51 3d 85 c7 ff 3d 2a d2 39 3e
       -0.16505115 0.05121667 0.12489227 0.18146577
0001f0 3b 85 b2 3d bd a2 11 3e 70 17 31 be a1 87 25 3d
       0.08716818 0.14222236 -0.17294097 0.04041255

fc2.weight f4 [64, 128]
000000 60 62 83 3d 36 91 dd bb 7e d6 bd 3c ff 2f 2c bd
       0.06415248 -0.0067616953 0.023173567 -0.04203796
000010 8b 70 1c 3d 76 cb 84 bd fd 0c c1 bd cf 08 0e 3d
       0.038193267 -0.064841196 -0.094263054 0.03467637
000020 86 b1 ad bd 44 1b 91 bd 24 aa 44 3d 8f 97 75 bd
       -0.084811255 -0.07085279 0.04801382 -0.05995899
000030 e3 6b 01 3d f8 ee 1b bd f3 81 33 bd 4a be 06 bd
       0.03159703 -0.038069695 -0.0438251 -0.032896318
000040 20 6e 93 bd 28 99 7d bd 31 53 eb ba 24 ac 28 3c
       -0.07198739 -0.06191364 -0.001795387 0.010294948
000050 c6 3f 9b 3d 50 53 6e bd 91 b9 f2 3b 78 d5 89 3d
       0.07580523 -0.05818492 0.007407375 0.06730169
000060 c5 8f aa 3c 85 de 6a bd b7 f0 2e 3d 52 77 58 bd
       0.020820508 -0.057341117 0.042710032 -0.052848168
000070 69 68 a1 3b 53 a2 0b 3d 51 0b 31 3d 8a f4 89 3d
       0.0049257767 0.03409035 0.043223683 0.06736095
000080 5f ba a8 3b 14 14 a6 bd bd f4 84 3d 09 2d 9b bd
       0.0051491703 -0.08109298 0.064919926 -0.07576949
000090 78 a7 a1 bc fb 99 fc 3c 4a 45 65 3d 16 e5 7e 3d
       -0.019733176 0.030835142 0.055974282 0.062230192
0000a0 76 8e 86 bd f6 9b 9f 3c e5 36 20 bd bf a2 99 bd
       -0.06570141 0.019483548 -0.03911485 -0.075017445
0000b0 93 e6 1e bd 85 6a 72 3d 7f c1 4c bc 3c 08 1e 3d
       -0.03879411 0.059183616 -0.012497305 0.03858207
0000c0 ef e4 be 3a 12 09 4b 3d 7e 82 28 3d b5 e5 62 3d
       0.0014564077 0.049569197 0.041140072 0.055394847
0000d0 f2 b5 df bb 70 88 35 bd 76 69 8e 3d 39 1d 8c bd
       -0.0068271095 -0.04431957 0.06953709 -0.06841511
0000e0 05 55 7e 3d e1 4f 86 3d ba b6 05 3d ca f0 b6 bd
       0.0620928 0.065582044 0.032644965 -0.089326456
0000f0 b3 9f a1 bc 6b 5f 27 3d 0d 4e 3b 3d 9f 93 ef 3c
       -0.01972947 0.040862482 0.045728732 0.029245196
000100 2b 5b 26 3d 85 db 0d 3d d9 94 6a 3d df c6 78 3b
       0.04061429 0.03463318 0.05727086 0.0037960333
000110 bb 8e 29 3d 28 fb 82 bd 5e 03 54 bd 36 f2 c1 bd
       0.041395884 -0.063955605 -0.051761024 -0.09470026
000120 6e 74 a5 bd 48 67 06 3b 71 fc 79 bd 8c eb 32 3d
       -0.08078848 0.0020508338 -0.061031763 0.043681666
000130 26 46 5f 3d be 3f 3a bd c7 24 08 3d ee 74 94 bd
       0.05451026 -0.045470946 0.0332382 -0.07248865
000140 a0 48 39 3d e7 d5 7a bd 9b 00 80 3d 93 6e 93 bd
       0.045235276 -0.06123915 0.062501155 -0.07198825
000150 54 58 b3 3c 2f 45 98 3d af 90 c2 bc b2 72 b9 bd
       0.021892704 0.07435071 -0.023750631 -0.090550795
000160 30 a4 9a 3c e6 56 49 bb 78 8a 6b 3a 0f 7b ba 3c
       0.018877119 -0.0030721962 0.0008985172 0.022763757
000170 03 1c 07 bd 3c 95 7c 3d ab d9 a5 bd e1 a4 bc bd
       -0.0329857 0.06166576 -0.080981575 -0.09211136
000180 d1 ff a1 3c 9f 97 ac bc 80 1c a9 bd ae a6 33 3d
       0.019775303 -0.021068392 -0.08257389 0.04386013
000190 9f 52 9e 3b fe 7d 20 bd ac 80 2b 3d 65 55 84 bd
       0.0048316265 -0.039182656 0.041870758 -0.064616
0001a0 91 5b 5c 3b ae 57 c2 bc d5 2a bc bd 5f 53 27 3c
       0.0033623914 -0.02372345 -0.09187857 0.010212748
0001b0 32 21 87 bd cb 7f d2 3c 7c 85 05 bd 3d 74 a9 bd
       -0.065981284 0.025695702 -0.032598004 -0.08274124
0001c0 ea a5 7d bc cf 7d 2a bd 48 73 b3 bc 3d 32 41 bd
       -0.0154814515 -0.041623887 -0.021905556 -0.04716705
0001d0 2a 78 88 3d 11 b0 9f bd e2 85 1d 3d 90 74 a3 3c
       0.066635445 -0.07797254 0.03845776 0.019953042
0001e0 87 96 78 3d 79 52 b3 bd 55 7b de 3c b8 31 44 bd
       0.06069043 -0.08755965 0.027158419 -0.047898978
0001f0 ab 6c b0 bc 03 9e 9e 3d dc 4d 2b bc 1b f0 90 3d
       -0.021536192 0.07744982 -0.010455575 0.070770465
000200 ca 6f 1d 3e ac d3 5f 3c 49 55 69 bc 88 53 25 3d
       0.15374675 0.013661306 -0.014241525 0.040362865
000210 5d 41 c6 bd 61 92 60 bb 0b 98 13 3d 1f cc 19 3e
       -0.09680436 -0.0034266936 0.03603367 0.15019272
000220 3a 7d 00 3e 95 7d 58 3d e9 5d 9a bc 21 ae 3c bd
       0.1254777 0.05285414 -0.018843608 -0.0460645
000230 6e 85 01 3e c4 d0 83 3c 52 be 6b 3d bb 67 9f bc
       0.12648556 0.016090758 0.05755455 -0.019458642
000240 54 d1 ce 3d 15 87 cd 3c 0d 26 db 3d 06 71 de ba
       0.1009852 0.025088826 0.10700617 -0.001697094
000250 39 41 6a 3d 2d 0d 68 3d fa 84 2b 3d 07 f3 c5 3d
       0.057191107 0.05665319 0.041874863 0.096654944
000260 9d c2 06 3c 0d b2 7d 3d 9b 1d 40 3e 70 fa 1c 3e
       0.00822511 0.06193738 0.18761294 0.1532991
000270 e8 ab a0 3d e7 e0 e3 3d 34 bc 87 3d 20 b4 83 bd
       0.078452885 0.11126881 0.06627694 -0.064308405
000280 38 f2 d6 3a 5d 23 0d 3e 14 53 cf 3d fb 91 9b 3d
       0.0016399091 0.13783021 0.10123268 0.07596203
000290 9c 06 4c 3d 0b 15 23 3d 31 4d 5f 3d 3e b8 b1 3d
       0.04981099 0.03981499 0.054516975 0.086777195
0002a0 a3 97 28 3e ea 88 ef 3d e4 00 42 3d f7 4c e8 38
       0.16464095 0.11696036 0.04736413 0.00011076958
0002b0 4e 4a b5 3d a4 f1 90 3b 01 5a 0b bc b7 ff ce 3c
       0.08852063 0.004423337 -0.008505345 0.025268419
0002c0 71 d2 f9 3c 18 3d df 3d 0f 3d 69 3d e5 b0 5f 3e
       0.030495854 0.109003246 0.056942996 0.21844824
0002d0 e0 cf 92 3d e9 2b 22 3d 1c 33 f2 bc 78 08 f8 bc
       0.07168555 0.039592657 -0.029565386 -0.030277476
0002e0 10 43 41 3d 0b 58 8b bd da 40 0a 3e 7d 8f 8a bc
       0.047183096 -0.06803902 0.13501301 -0.016914124
0002f0 0a 91 2f 3e 34 e0 8e 3d 1f 35 19 3d 0e c8 c7 bc
       0.17145172 0.06976357 0.037404176 -0.024387386
000300 be ae db 3d 99 4a a3 3d 65 ed 35 bd 1e 01 2d 3c
       0.10726689 0.07973213 -0.04441585 0.010559348
000310 eb 59 c6 3c fb b2 f9 3d d0 9d 5e 3d 88 3a 20 bd
       0.024212798 0.12192341 0.05434972 -0.03911832
000320 74 4f d1 bc d5 e4 03 bd da 4b 81 3d 8a 82 8a 3d
       -0.025550582 -0.032200653 0.06313296 0.067631796
000330 df 41 fa 3d 3d 2e de 3d 04 81 0d 3e 3d fd c9 3d
       0.12219595 0.10848663 0.13818747 0.098627545
000340 cf a2 10 3e 75 3f 85 3d 90 95 d4 bc 17 3e be 3d
       0.14124607 0.06506244 -0.025950223 0.092891864
000350 22 1e c4 3d 49 81 1a 3e fa 27 1d bd 07 d9 0b 3d
       0.0957606 0.15088381 -0.038368203 0.03414252
000360 a8 72 e2 3d 8b 76 30 3e 67 7a 01 3e a3 2a 5a 3e
       0.11057025 0.1723272 0.12644349 0.21305327
000370 5c 31 11 bd df f8 77 3d 2c 8d 03 bb e8 a5 0d 3d
       -0.035447463 0.060540076 -0.0020073159 0.03458205
000380 2c 98 b3 bd 60 85 ad 3d 5e 4f dd 3d fa 8a 9e 3d
       -0.08769259 0.08472705 0.10806154 0.077413514
000390 75 de 35 3d dc 6c a1 3c cc 6c b3 3b 84 01 86 3c
       0.044401605 0.019705229 0.005475616 0.016358145
0003a0 8a e0 79 3d 95 18 be 3c a4 f7 52 3d 41 3d b8 3d
       0.061005153 0.023205081 0.0515057 0.08996058
0003b0 49 54 d2 3d 7d 47 15 be 66 3e e0 3d 42 00 ef 3d
       0.10269982 -0.14578052 0.109494016 0.11669971
0003c0 a4 8a 9a 3d 35 92 96 3c 28 e9 2b 3e f9 4e dd bd
       0.07545975 0.018380264 0.16788161 -0.108060785
0003d0 50 69 10 3e 30 2b 57 3d e8 d4 0a bc fa 49 b1 3d
       0.14102674 0.05253142 -0.008473612 0.08656688
0003e0 4c af 10 3d 4a 09 a3 3c ca 96 90 3d 82 04 78 bd
       0.035323426 0.01990189 0.07060011 -0.060551174
0003f0 7c b1 8e 3c 03 64 10 3c 34 cf 70 3d 76 7a 80 3d
       0.017418616 0.008812907 0.058791354 0.062733576

fc2.bias f4 [64]
000000 e3 e3 3e bd 71 44 b6 bd b0 77 8c 3d 70 26 db bb
       -0.04660405 -0.08899773 0.06858766 -0.0066879317
000010 c6 36 b2 bd c8 f9 50 3b b2 b4 20 be 22 15 11 3e
       -0.087018535 0.0031887162 -0.1569393 0.14168218
000020 81 a2 69 bd 59 72 1c be 37 8c b2 3e e0 49 3b 3c
       -0.05703974 -0.15277995 0.348726 0.011431187
000030 c8 98 3d be 5c cd 60 3e 3e 4b 51 bd 3c d3 17 be
       -0.18515313 0.21953338 -0.051097147 -0.14826673
000040 08 77 ab bd 2d f0 bd bd d6 42 15 be e1 4a 58 3d
       -0.08372313 -0.092743255 -0.14576277 0.052805785
000050 76 71 83 3e 62 5e 68 3e 59 8f 09 be d2 e6 3c 3c
       0.256725 0.22692254 -0.13433589 0.011529641
000060 ad 33 9f bd a7 8f 52 3e 07 91 a4 3d 26 bc 92 bd
       -0.07773528 0.20562612 0.08035474 -0.07164793
000070 74 d0 78 3d 99 cc 33 be 07 8b 25 3e 4a 32 67 bc
       0.06074567 -0.17558517 0.16166316 -0.014111111
000080 12 d9 44 3b 9c 28 ae 3d e3 83 7d 3d 37 95 f0 bd
       0.003003661 0.085038394 0.061893355 -0.117472105
000090 4f 9d 99 3e cc 07 63 3e aa 08 b8 bd 4e f4 c4 3d
       0.3000283 0.22170943 -0.089860275 0.0961691
0000a0 59 fe 5c bd 4b f4 78 bd 5b 22 c1 bd db 81 1a be
       -0.053953502 -0.06077985 -0.09430381 -0.15088598
0000b0 6e e6 72 3e 97 3c 95 3d 20 ac 1c be cd 39 6d bd
       0.23720714 0.07286947 -0.15300035 -0.05791645
0000c0 03 09 57 3e 5e 26 9a 3e 22 27 07 be ed 82 75 3e
       0.20999531 0.30107397 -0.13198522 0.23975725
0000d0 0e 8a 9a bd 3b 82 54 3e 8b 69 a8 bd 2a b5 90 3e
       -0.07545863 0.20752804 -0.08223256 0.28263217
0000e0 f2 fc dc 3e 14 46 af bd 0f a5 34 3d 6e f8 e7 bd
       0.43161732 -0.08558288 0.044102725 -0.11326681
0000f0 67 c9 87 bc e8 18 3e be 48 a7 44 3e 1c 4b 69 bd
       -0.016575528 -0.18564188 0.19204438 -0.056956396

fc3.weight f4 [6, 64]
000000 6c 8e 0d bd 8e ed 23 3f 09 a7 c5 bd 53 a7 f5 3e
       -0.034559652 0.64034355 -0.09651 0.4797922
000010 78 16 0d 3f fd 93 24 3d e0 47 36 3f 9e b6 98 3e
       0.5511241 0.040180195 0.7120342 0.29826826
000020 18 8a ff 3e 0c d1 10 3f b0 65 aa be c9 18 73 bd
       0.49910045 0.5656898 -0.33280706 -0.05934981
000030 28 f5 38 3f ca e5 bd be bb 01 b1 3e d3 2a 36 3f
       0.7224908 -0.37089378 0.34571633 0.71159095
000040 27 5d c4 3d dc 4c 19 3f 4c 85 44 3f 24 43 b4 3e
       0.0958808 0.59882903 0.76765895 0.35207474
000050 d9 8d 6e be e5 81 d6 be 7f 91 1b 3f 62 fc 05 be
       -0.23296298 -0.41895977 0.60768884 -0.13084558
000060 60 2a 0b 3c 30 8a 97 3e fd 97 b6 3d ba 30 13 3f
       0.00849399 0.29597616 0.08915708 0.57496226
000070 d2 2f 01 bd 65 dc 45 3f 90 57 3c 3e 9b cf 01 3e
       -0.031539746 0.7728942 0.18392777 0.12676851
000080 c8 a2 0c bb f1 29 f4 3d 81 69 de 3c b4 92 96 3e
       -0.002145933 0.11922062 0.027149918 0.294088
000090 7c 9e e4 be e9 eb de 3c 15 24 1c 3f 25 25 48 be
       -0.44652164 0.0272121 0.60992557 -0.1954542
0000a0 98 c3 34 3f 01 46 15 3f a3 b3 28 3f 3f 83 35 3f
       0.7061095 0.5830994 0.65899104 0.7090339
0000b0 d7 ef ab 3e 72 09 71 be 34 51 1e 3f 07 e0 41 3e
       0.3358142 -0.2353876 0.61842656 0.18933116
0000c0 ce 9a bc bd 01 6f 8d 3e 88 91 3c 3f 67 4e d3 be
       -0.09209214 0.27623752 0.73659563 -0.41270754
0000d0 ae be 25 3f be e5 94 be b7 70 00 bc bb 29 ab 3e
       0.6474408 -0.2908153 -0.007839373 0.33430275
0000e0 b2 42 7c 3e 6c 16 00 3f a2 f4 77 3e 79 fd ec 3e
       0.24634817 0.50034213 0.24214414 0.46287134
0000f0 50 96 93 3e 58 47 32 3f f3 2a a5 be 75 99 7b bc
       0.28825617 0.6964011 -0.3225933 -0.015356411
000100 52 bd b1 3d 81 2c aa be 12 18 ef 3e 36 62 ec be
       0.08678688 -0.3323708 0.46698052 -0.4616868
000110 86 69 c5 be 2f 21 29 bc 1c 6c a7 be 92 b2 63 3e
       -0.3855707 -0.010322853 -0.32699668 0.22236088
000120 8b 2f 03 bf ad d6 e6 be 43 8d 52 3f d3 0f f4 bd
       -0.5124442 -0.4508566 0.822468 -0.11917081
000130 bb f5 99 be f7 30 32 3f a2 cf f2 be 5d e3 92 be
       -0.3007029 0.69605964 -0.47424036 -0.2868909
000140 7c 14 2f bd 92 35 15 be d0 96 19 be c0 11 b8 be
       -0.042744145 -0.14571217 -0.14998937 -0.35951042
000150 86 cb 1e 3f 6d d5 33 3f b7 3b b5 be 7a 3f e5 bd
       0.620293 0.70247537 -0.3539712 -0.11193748
000160 f0 4c 0b 3d c3 3d 95 3e 09 71 82 3d 2e 1e a9 be
       0.03400892 0.29148683 0.06369216 -0.33030838
000170 4e c8 8f 3e 54 34 30 be 11 46 7a 3e 2b 68 14 be
       0.28082508 -0.17207462 0.2444079 -0.14492862
000180 4a f7 d5 3c 23 3b cd 3e a2 15 6c be 99 ad a0 be
       0.026118893 0.4008418 -0.23055127 -0.31382445
000190 d7 59 20 3f 6d 36 94 3e 8d 38 bd be f2 c5 df 3e
       0.62637085 0.28947774 -0.36957207 0.43705708
0001a0 c0 61 9c bd 8e 03 e9 3d 12 db 4f bd 8e 70 98 be
       -0.07635832 0.11377631 -0.05074603 -0.29773372
0001b0 00 c5 a3 3e 50 30 7f 3e 26 70 a2 be 97 a5 e7 bd
       0.31986237 0.24920774 -0.31726187 -0.11310881
0001c0 76 f9 37 3f ca 30 79 3e e2 c6 94 be 79 c9 37 3f
       0.7186502 0.24335018 -0.29057986 0.717918
0001d0 70 c8 c8 bd 16 d1 16 3f 14 18 41 3c c7 95 a2 3e
       -0.098038554 0.5891279 0.011785526 0.31754896
0001e0 ae 9f 4f 3e be 64 b2 be b8 a2 ff be 44 3d ea be
       0.20275757 -0.34842485 -0.49928832 -0.45749867
0001f0 0f 45 00 bf 83 0a b9 be 08 a7 17 3f 38 d6 1a bd
       -0.50105375 -0.36140832 0.59239244 -0.03780195
000200 5f 44 6a 3d 68 46 90 bd a8 72 0e 3b 57 d8 dd bd
       0.05719411 -0.07044679 0.002173582 -0.10832279
000210 42 d2 e8 bd 0a b3 d2 3d 0c 68 24 be f7 7e 98 be
       -0.113682285 0.10288055 -0.16055316 -0.29784366
000220 c5 01 d7 bd 0b b7 9c bd bb f4 86 be 43 d9 26 bc
       -0.104983844 -0.076521 -0.2635859 -0.010183635
000230 39 e2 e6 bd 21 4d 58 be 6a 1e bd 3c 4a 0c 35 be
       -0.11273617 -0.21123172 0.023085792 -0.17680469
000240 48 34 e2 bd 98 b2 cf bd 40 82 de bd a7 df 9d 3b
       -0.11045128 -0.10141486 -0.10864687 0.004817921
000250 cd ad 35 be 27 cd 19 3d c8 11 57 be bb 4b 09 3d
       -0.17742081 0.037549164 -0.21002877 0.033519488
000260 69 35 e3 3d 97 1d 81 be aa 1f 03 be ff 8e 48 be
       0.110941716 -0.25217888 -0.12805048 -0.19585799
000270 77 23 3d be 06 5a 16 be d1 d5 c7 bd 27 63 00 bd
       -0.1847056 -0.14682779 -0.09757579 -0.03134456
000280 cd 40 20 3c e2 57 a6 bc 3c f4 9a bd f5 1b a1 bd
       0.009781075 -0.020305578 -0.07566115 -0.078666605
000290 0b 6f 3c be a2 b3 46 be b8 69 7d be 1e b3 4f bd
       -0.18401735 -0.19404462 -0.2474736 -0.05070793
0002a0 dd bf 32 be 82 3d 62 be 3d 98 29 be 66 98 4d be
       -0.17456003 -0.22093776 -0.1656198 -0.20077667
0002b0 30 47 94 be 40 1d 0c 3d 2c d3 8f be fe d8 89 bd
       -0.28960562 0.034207582 -0.280908 -0.06730841
0002c0 da 13 1b be 5e b8 7c be 35 13 34 be 17 54 78 bd
       -0.15144292 -0.24679706 -0.17585452 -0.06062707
0002d0 24 9f 61 be 93 ee 25 3c c5 e5 b3 bd bd 20 86 be
       -0.22033364 0.010127681 -0.087840594 -0.26196852
0002e0 4b b6 8c be 98 d5 28 bd e9 6c be 3b 8f d8 1f 3c
       -0.27482828 -0.041219324 0.005811323 0.009756221
0002f0 5b 21 0d be a8 31 73 be 65 d7 2a be f9 f4 73 3d
       -0.13782255 -0.23749411 -0.16683729 0.059559796
000300 98 b5 fa 3d 26 3a 4e bd 42 27 ca bd 38 11 13 be
       0.122416675 -0.050348423 -0.09870769 -0.14362037
000310 a6 a0 33 be e6 89 a1 bd d4 83 4e be 5d 9e 68 be
       -0.17541751 -0.0788763 -0.20167476 -0.22716661
000320 48 7e 1b be b8 2a b1 bd bd 74 05 be d7 75 f8 3d
       -0.15184891 -0.08650726 -0.13032813 0.12131851
000330 7f 6d 3e be 29 02 1f b9 83 58 28 bd 0d 49 43 bb
       -0.18596457 -0.00015164226 -0.041100036 -0.002979818
000340 4a c0 95 bd 3e 3c 41 be 9c e7 41 bd b1 38 82 bd
       -0.07312067 -0.18870637 -0.04734002 -0.06358469
000350 d4 91 07 be 50 f6 1b bd 28 9f 6d bd b6 5e dc 3c
       -0.13239223 -0.0380767 -0.05801311 0.02690063
000360 d2 c5 e6 3d 76 60 47 be ec fa 1e 3d 37 40 e4 bc
       0.112682 -0.1947039 0.038813516 -0.027862651
000370 53 ab 1c be 62 7b d2 bd 04 68 49 3c e1 7b 93 3d
       -0.1529973 -0.1027744 0.012292866 0.072013624
000380 c3 e6 5d 3d f0 d0 1a bd e5 b5 70 bd 27 49 3b 3d
       0.05417515 -0.037796915 -0.05876722 0.04572406
000390 13 b3 f5 bc 4a 3b 44 be 59 92 b0 bc 63 ed e0 bd
       -0.029992616 -0.19163242 -0.021554159 -0.10982778
0003a0 e5 90 7f bd 21 39 21 be 86 e7 a1 3c 72 d3 b4 bd
       -0.06239404 -0.15744449 0.01976372 -0.088293925
0003b0 fd 6f 54 be 5a ad aa 3d 29 a1 2f be 3e 77 19 3d
       -0.20745845 0.083338454 -0.17151321 0.037467234
0003c0 f7 78 c8 bb 24 e3 95 bd 57 c0 0a bd 7a 06 f3 bd
       -0.0061179358 -0.07318714 -0.033874836 -0.1186647
0003d0 a5 18 86 bd b4 8e 18 bd 77 d4 22 bc 23 ef 3c be
       -0.06547669 -0.037245467 -0.009938351 -0.18450598
0003e0 0f 6e 81 be 84 72 8e bd d8 d3 42 3d bc 2e 5c bc
       -0.2527928 -0.06955436 0.04756531 -0.013438877
0003f0 51 ce 2c 3d 67 e7 4c be 03 e9 ad ba 38 05 8f bc
       0.042188946 -0.20010148 -0.0013268295 -0.017458543

fc3.bias f4 [6]
000000 dd 62 03 be 4e 9b e8 3f 3a fa 82 bf fe d8 05 bf
       -0.12830682 1.8172395 -1.0232613 -0.5228423
000010 96 91 74 3f 26 3a 93 bf
       0.95534647 -1.150212

fc4.weight f4 [128, 1280]
000000 c2 c0 12 3c 91 6a d8 bc a7 62 45 bb 75 a6 07 bd
       0.00895709 -0.026418002 -0.0030118616 -0.03311773
000010 48 23 93 bc f2 0f 8d bc e8 36 de 3c d2 93 92 ba
       -0.01796116 -0.017219517 0.02712579 -0.001118297
000020 82 27 b2 3b 8f 62 07 bd f8 a6 f5 bb 11 34 0f bd
       0.0054368386 -0.033052977 -0.007496711 -0.034961764
000030 17 1f 32 3d 99 36 a7 bc c3 a7 a1 3c da d8 84 bb
       0.04348668 -0.020411776 0.019733315 -0.004054171
000040 fe 78 c0 bb 6e 9a 9a 38 6e 69 0a b9 91 41 09 bd
       -0.0058737984 7.372057e-05 -0.00013199981 -0.033509795
000050 67 1e 65 bc 6b ea f2 3c 61 3b dc 3c 48 9a 03 bd
       -0.013984299 0.029652795 0.026883783 -0.032129556
000060 05 f1 ad bb 34 14 96 3c 79 66 79 bc ac d9 75 bc
       -0.005308273 0.01832018 -0.015222185 -0.01500551
000070 64 11 6d ba b6 8b cc 3c 76 e1 9c 3c e0 02 e2 bc
       -0.0009043424 0.024968963 0.019150477 -0.027589262
000080 32 91 b4 3b 18 15 aa b9 f6 f0 a2 bc 4b f5 ab ba
       0.0055104727 -0.00032440643 -0.01989029 -0.0013119368
000090 86 d4 fa 3b d3 3c c0 bc fe 90 64 bc cb 9c 59 bb
       0.0076547293 -0.023466503 -0.013950584 -0.0033205028
0000a0 88 16 0d 3b cc 80 dc bc e5 26 cb bb 75 29 82 3c
       0.0021528322 -0.026916884 -0.006199705 0.015888909
0000b0 3c 69 8a 3c 57 c6 85 bc 45 14 a1 3b 3c a5 21 3c
       0.016895883 -0.016329927 0.0049157464 0.009866055
0000c0 83 f7 ee 3c fc e0 5e 3c bd 95 25 3d a4 57 e3 3c
       0.029170757 0.013603445 0.040426005 0.027751751
0000d0 ff 46 4a ba a6 44 23 3c 31 05 6e bc c2 5d 9e 3b
       -0.0007716268 0.0099650975 -0.014527605 0.004832954
0000e0 86 4c c5 3c 7f 35 ca 3b 12 1b 90 3c 99 f9 b6 bc
       0.02408434 0.006170928 0.017591033 -0.022335814
0000f0 23 5a 98 bc e1 0f 2c bc 4f 83 e5 3c e9 84 4b 3c
       -0.018597668 -0.010501833 0.028016714 0.012421825
000100 00 bc 72 3b 69 f4 00 bc aa 8a 0d bd e6 19 a0 bc
       0.0037038326 -0.007870772 -0.03455607 -0.0195436
000110 35 ab 9f 3c a5 0e cc bc 93 79 83 bc 2b b1 f5 3b
       0.019490818 -0.024909327 -0.016049182 0.0074979267
000120 83 2b 92 3c dc c6 d7 3c b5 f0 ed 3c be 00 3f 3c
       0.017843014 0.02633994 0.029045442 0.011657892
000130 7b 8a 00 3d ac c1 40 bc f6 a8 1b bd a7 64 eb bc
       0.031382065 -0.011764925 -0.03800293 -0.028734518
000140 f9 ec 26 bc 41 84 c8 3c d8 b6 47 bc 73 ee e4 3b
       -0.010188335 0.024477126 -0.012189589 0.006986433
000150 9b b5 2d 3c 35 e0 13 3d e4 ce 12 bd d6 e0 8d 3c
       0.01060238 0.036102492 -0.035841838 0.017319124
000160 01 40 7f 39 ac e5 df bb b7 84 71 3b 09 d4 d9 bb
       0.00024342538 -0.006832799 0.0036852786 -0.006647591
000170 e7 9c 5b bb ea 6b 87 3c ad c7 c3 bc 0f c5 f2 3c
       -0.003351027 0.01653095 -0.023898924 0.02963498
000180 fe 90 21 3d ec 2e d5 3b af ad 73 3b 0f c7 e7 bb
       0.039444916 0.0065058377 0.003718238 -0.00707329
000190 40 ca a8 3c 5b 64 69 3c 12 29 12 3d d1 52 19 3c
       0.020604253 0.014245118 0.0356837 0.009358124
0001a0 6a 4a a6 bb 4d cf 02 bd 68 28 ac bb 02 c8 ee bc
       -0.005074789 -0.03193598 -0.0052538402 -0.029148106
0001b0 4c 64 eb bc 5b 35 11 bc 31 7b 40 bc a6 25 2f bc
       -0.028734349 -0.008862819 -0.011748121 -0.010690128
0001c0 8f a6 d4 3c 66 56 bd 3c c7 98 c0 3c 03 88 80 bc
       0.025958328 0.023112487 0.02351035 -0.015689855
0001d0 da 85 fd 3c ef 4e 60 3c fb 4b cd bc 6e c4 7d 3c
       0.030947614 0.013690694 -0.025060644 0.015488727
0001e0 74 ec f8 3c c3 24 04 3d b6 5c 76 3c 35 15 12 3d
       0.030386187 0.03226162 0.015036752 0.035664756
0001f0 f5 37 0f bb 37 96 82 3b ae 10 9e bb f8 a9 a2 3b
       -0.0021853421 0.003985192 -0.0048237657 0.0049641095
000200 a6 85 c8 bc 4d e7 d0 3c 9f bd b0 3c aa d7 9c 3c
       -0.024477791 0.025500918 0.021574793 0.019145805
000210 6e f6 c3 3c a4 9e b8 3c 0c 28 ba bc 01 7c 22 3d
       0.023921218 0.022536583 -0.022724174 0.03966904
000220 f8 63 c0 3c a2 19 68 3b 10 7c 0d 3d 60 e9 c2 3c
       0.023485169 0.003541567 0.034542143 0.023792922
000230 fc 15 62 bc 72 1b 85 bb d2 24 75 bc 86 ed 05 3d
       -0.013799187 -0.0040621096 -0.014962392 0.032697223
000240 fc 86 0f 3d 0b e3 84 bc 7c 03 09 bb 1c 99 e1 bc
       0.03504084 -0.016221544 -0.0020906618 -0.027538829
000250 d6 a6 ae bc 2e 4e 8c 3c c2 c7 c7 bc 6c 12 66 3b
       -0.021319788 0.017127123 -0.024387244 0.0035106195
000260 dd 78 42 3c 3f ea 6e bc 07 68 a5 3c da d6 87 bc
       0.011869636 -0.014582216 0.020191206 -0.016581941
000270 8c d8 c8 3b 80 1e 2e 3c cb 06 5a 3c a0 c7 86 3c
       0.00612933 0.010627389 0.013307284 0.01645261
000280 25 8c 40 bb 8b d5 ad 3c 06 90 6b 3c c8 1c 92 3c
       -0.0029380408 0.02121999 0.0143776 0.01783599
000290 5b 8e 1e bc 07 9d 60 3c ce 42 a9 3c ac 73 21 3c
       -0.009677495 0.013709313 0.020661738 0.0098542385
0002a0 25 b4 f9 bc 5e b3 19 3b 01 1b ec bb 11 6d 70 3b
       -0.030481407 0.0023452858 -0.0072053676 0.0036686102
0002b0 cb ff f3 bc ac 92 81 bc 2b 28 2e 3a cb 1f bd bc
       -0.029785058 -0.015817009 0.0006643559 -0.02308645
0002c0 aa d3 d9 3c 2f 05 0b 3d 50 ec 69 bc 82 08 be 3c
       0.026590187 0.03394049 -0.014277533 0.023197416
0002d0 cb 9b 09 bc bf b2 49 bc 0e 87 de 3a 33 7d 41 bc
       -0.00839896 -0.012310683 0.0016977505 -0.011809635
0002e0 6c ef 5d bc 81 cb 4a 3c 34 f2 3b bb a5 ff a1 3c
       -0.013545852 0.012377621 -0.00286783 0.019775221
0002f0 49 8f 74 bc e6 a6 a6 3b f9 9b 3e 3c fe 2f 86 3c
       -0.01492674 0.005085814 0.0116338665 0.016380306
000300 19 c1 c2 3b 85 66 67 bc bf 6a d3 bc 85 62 f6 3c
       0.005943429 -0.014123564 -0.025807736 0.030076275
000310 56 20 85 bb bb 1f 1e 3a 23 4a b5 3b 2e 68 12 3d
       -0.0040626926 0.000603195 0.0055325194 0.035743885
000320 9b 70 e8 bc ba 28 06 3d 97 0c a0 bc c7 be 36 bd
       -0.028374007 0.032753684 -0.019537253 -0.044615533
000330 10 a7 c4 bc 80 9f 6a bc eb 97 b0 bc ab 58 ce bc
       -0.024005443 -0.014320254 -0.021556815 -0.025188765
000340 f8 27 23 bc 14 e5 a8 bc 93 84 bc bb 3b fb 9f 39
       -0.00995826 -0.020617045 -0.0057531088 0.00030514025
000350 df ee ad 3b 1b ff 02 3d fd a1 a6 3c e7 71 97 3c
       0.0053080167 0.03198157 0.020340914 0.01848693
000360 bc e4 3d 3c 8f ea d3 bc 55 f6 e5 3c 11 8c 2e 3c
       0.011590179 -0.025868682 0.028071562 0.010653512
000370 6f 88 49 3c fc 9f 82 bb 8e f1 a1 3b 6f 1d 76 bc
       0.012300595 -0.003986357 0.0049421256 -0.015021666
000380 74 37 85 3c 3f 62 1b 3c e9 cb ce 3c 3f 9e de 3b
       0.016261794 0.009483873 0.025243716 0.0067937667
000390 68 2f f4 3b 4d 0d 03 bd 4e fe d5 3b e3 7f 8a 3c
       0.0074519403 -0.031995106 0.0065305596 0.016906684
0003a0 d7 17 04 3a 97 95 b1 3c 58 c9 05 3c b0 7d 35 bb
       0.0005038953 0.021677775 0.00816568 -0.0027693324
0003b0 e9 7a 00 3c 33 15 0e 3c f4 60 cc bb c1 ef 89 bc
       0.007841804 0.0086720465 -0.0062371437 -0.016837956
0003c0 30 cd 51 3c ac 4c cb 3c f7 b0 72 3b 38 c6 5f bc
       0.012805268 0.024816833 0.0037031749 -0.013658099
0003d0 ed 92 16 bc 72 85 f5 bc be ad 38 bc ac 18 ef 3c
       -0.009190303 -0.029970858 -0.011271892 0.02918657
0003e0 e7 33 a7 bc ab 69 0e 3c 44 e9 e4 3b 80 64 b7 3b
       -0.020410491 0.008692185 0.0069858152 0.0055966973
0003f0 33 08 c4 3b 4a d2 12 bc d2 97 63 3c c3 03 86 bc
       0.0059824227 -0.00896127 0.013891177 -0.016359216

fc4.bias f4 [128]
000000 1d c6 bc 3c 8e bf 8b 3b 15 af 8c bd 15 b4 1b 3d
       0.023043687 0.0042647785 -0.06869332 0.038013536
000010 a3 74 78 bc 14 2b 06 bd 2e a1 c3 bb 73 17 81 38
       -0.015164527 -0.032755926 -0.005970142 6.155567e-05
000020 ba 5c f7 3a 89 8e 77 3d 61 f3 54 bd 9b 82 72 3d
       0.0018872239 0.060438666 -0.051989917 0.059206586
000030 c7 48 eb 3b ca 36 45 bc ab ec b5 bc 85 b6 00 bc
       0.0071803066 -0.0120369885 -0.022207579 -0.007856016
000040 60 55 99 3c 8f 2c 7d bc c8 d8 e5 bc 4e 8a 43 3d
       0.018717468 -0.015452518 -0.02805747 0.04773932
000050 f9 27 1b bc da 8e 90 3d 09 5d a5 3c 98 9e 72 3c
       -0.009469979 0.07058497 0.020185964 0.0148083195
000060 08 ff 10 bd ac 7d db bc bb 97 3f bd 29 ce 02 bd
       -0.035399467 -0.026793323 -0.04677556 -0.03193489
000070 0f df 5a 3c 83 59 0c bb ff 62 f3 bc 95 0f 31 3d
       0.013358845 -0.0021415658 -0.029710291 0.04322775
000080 6f 26 f6 bc 08 97 93 bc 0e 9d 44 3d f8 bf 46 3d
       -0.030047623 -0.018016353 0.04800134 0.04852292
000090 11 3d 9b bc fd a3 70 bb 2f 9c 06 3d f4 94 5f 3b
       -0.018950017 -0.0036718838 0.032863792 0.0034115883
0000a0 a5 83 13 3d 04 5f e9 3b cd 4b e7 bc e4 71 2d 3d
       0.036014218 0.0071219224 -0.028234387 0.042344943
0000b0 41 5f 41 3b 9f c4 1e bd 22 ec 0c bd 7c e5 ba bc
       0.0029506239 -0.03876173 -0.03440488 -0.022814505
0000c0 2b 6e 8a 3b 1c 31 04 3d 2d 94 1c 3d 71 e9 28 bd
       0.004224559 0.032273397 0.03822725 -0.041238252
0000d0 d4 7e 8a 3c 39 fd 9f 3b f4 da b5 bc 82 59 d5 3c
       0.01690618 0.0048824814 -0.022199132 0.026043657
0000e0 bc db d4 bc 42 82 c8 bc c7 8e 31 3d 9d 4b d5 3c
       -0.025983684 -0.024476174 0.043349054 0.026037032
0000f0 5a f3 3b 3d 3d 02 eb bc e8 ce 21 bd a3 98 cd 3c
       0.045886375 -0.02868759 -0.03950396 0.025097197
000100 ee 61 96 bc a9 91 08 bc 17 a3 d7 bc 22 0b 5f 3c
       -0.018357243 -0.008335509 -0.026322884 0.013613494
000110 a0 cc 15 3d 58 2c 4f bd 38 f6 7d bc 04 65 33 bb
       0.0365721 -0.0505794 -0.015500598 -0.0027373442
000120 c5 cb 38 3d 92 69 56 3b 0e b4 96 bb 72 a7 ce 3b
       0.045116205 0.0032716733 -0.004599101 0.006306582
000130 1d 57 d3 bc 70 bd ee 3b a0 ac 96 bc 8f 55 a0 bd
       -0.025798375 0.0072857663 -0.01839286 -0.07828819
000140 07 e5 ed 3c fd 6c 0a 3d 02 9f 90 bd 60 62 f8 3a
       0.029039873 0.033795346 -0.07061578 0.0018950216
000150 0b bb a8 ba 7d 4a c7 3c 06 c6 41 3d ca 19 e9 3b
       -0.0012873126 0.024327511 0.04730799 0.00711367
000160 85 67 00 3c da 22 cd 3c 82 51 18 3d 65 65 7a bc
       0.007837181 0.025041033 0.037187107 -0.015282963
000170 b9 6a 01 3d dd 5d ba bc 8b 04 c2 bc be 56 34 3c
       0.03159592 -0.022749836 -0.023683807 0.011007009
000180 a6 f1 9d 3c d7 c8 b8 3c df c8 72 bd 0a ab 13 bc
       0.019280266 0.022556705 -0.059273597 -0.009012947
000190 76 ba 72 3c 03 81 c9 bc 15 0b 6b bc a5 22 bf 3b
       0.014814964 -0.02459765 -0.014345904 0.0058329874
0001a0 52 22 a5 bc 20 06 9a bd 63 12 14 bd 47 03 46 3b
       -0.020157967 -0.075206995 -0.036150347 0.0030214356
0001b0 39 d1 a4 bd 99 92 07 3d 07 b6 e9 bc d6 fd 12 bd
       -0.080477186 0.03309879 -0.02852918 -0.035886608
0001c0 64 e2 7a 3c 08 20 be bc 83 d2 e6 bc 84 bd 0b bc
       0.015312765 -0.023208633 -0.028176552 -0.008529071
0001d0 37 62 1e bb 78 2c a8 3c c6 99 a0 3b 17 2d c4 bb
       -0.0024167427 0.020529017 0.0049011437 -0.0059868204
0001e0 d4 72 49 3c 1b 33 b2 3b 57 ea 08 bc 9d fb 21 bd
       0.012295444 0.005438221 -0.008356652 -0.039546598
0001f0 8a a3 47 bd a6 6e ac 3c 21 75 0e bc fe cc cc 3c
       -0.048739947 0.021048855 -0.008694918 0.025000092

fc5.weight f4 [64, 128]
000000 6c e8 67 bd 1e cc 9c bc 01 ae 0c be d4 60 c8 bb
       -0.05661814 -0.0191403 -0.13738252 -0.0061150584
000010 c7 d9 a3 3d ea 25 e0 3d bb 72 77 bd 21 2c e2 bc
       0.08000522 0.109447315 -0.06041215 -0.027608933
000020 53 15 1b be 81 2d 90 3c af a3 9c 3c f7 03 2d bc
       -0.15144853 0.017599823 0.01912102 -0.010560027
000030 c6 e3 5d 3d cb b5 1e bd c7 a7 77 3d b8 4c 86 bd
       0.0541723 -0.03874759 0.06046274 -0.06557602
000040 3f e8 3c 3d 81 7d 62 bd ce 8f 8e bd 64 cc 86 bd
       0.046119925 -0.05529547 -0.06961022 -0.06581953
000050 28 93 27 bd 35 16 34 3d 81 ab e6 bd 99 b8 b8 bc
       -0.040911824 0.04396649 -0.112631805 -0.02254896
000060 f8 55 11 3d 4c 30 05 bd 4a c8 7b bd 86 40 86 3d
       0.035482377 -0.032516763 -0.061470307 0.065552756
000070 80 18 8f 3d 35 bf 67 bd fe 6c 95 3c 64 fa e8 bd
       0.06987095 -0.056578834 0.018240448 -0.11375883
000080 6f ca 10 bd 4c e1 06 3d ca 8f c2 3d 5f 71 8e bd
       -0.035349306 0.032929704 0.09500082 -0.069552176
000090 08 b2 f2 bd 7f f7 12 be e6 82 98 bd cc 54 cd 3d
       -0.11850363 -0.14352225 -0.07446842 0.10025939
0000a0 0d 04 8e 3c a5 9b be 3d 85 89 6a 3d aa 7a 37 3e
       0.017335916 0.093070306 0.057260055 0.17917886
0000b0 69 8e 93 3d 41 79 70 bc d6 d3 21 3d d9 8f 8c 3d
       0.07204897 -0.014677347 0.039508663 0.06863374
0000c0 8f ae 8a 3d 5a 8f 9a 3d 82 88 c3 3d cc aa 3a bc
       0.06771576 0.075468734 0.09547521 -0.01139326
0000d0 7b 45 9c 3d c1 64 0a 3e f3 4e 1a bd 2c 27 f5 3b
       0.0763044 0.13514997 -0.037672948 0.0074814763
0000e0 88 08 41 3d 9b 1b 4c 3c 6f 61 71 bb 58 55 85 bd
       0.047127277 0.0124577535 -0.0036831757 -0.06510419
0000f0 6e ea 78 3c c0 87 e3 3c 61 f2 d2 3d bf 77 b6 bd
       0.015192611 0.027774692 0.10300136 -0.089095585
000100 a7 7d a3 bd ca 89 51 3c 97 90 e4 3c 51 26 7e 3c
       -0.07982951 0.012789199 0.027900977 0.015512065
000110 ce 40 b1 3b d8 4e a4 bd 9d 4e e0 3d ed e6 02 3e
       0.0054093366 -0.08022851 0.10952494 0.12783404
000120 49 d8 0e 3d e4 43 13 be 32 83 e8 bd bf 2f 98 bd
       0.034874234 -0.14381367 -0.113531485 -0.07430982
000130 08 d0 c5 3d 34 38 d5 3d e9 e6 8e bc 82 e5 e1 bd
       0.096588194 0.104111105 -0.01744409 -0.11030103
000140 e9 14 dd 3d 8a d8 0b bc 49 83 c2 bd 19 dd 79 bd
       0.10795004 -0.008535514 -0.09497697 -0.06100187
000150 4a 31 8c 3d 2a 9e 1a 3d 44 5c 30 be e7 e3 8c bd
       0.06845339 0.037748493 -0.17222697 -0.068794064
000160 9a 0e d7 bc fd f9 82 bd c3 6c 95 3d 23 82 93 3d
       -0.02625208 -0.06395338 0.07296135 0.07202556
000170 3f 1b 82 bc f5 ec ba bd 22 e0 18 bd 7e 2d 79 bd
       -0.015882133 -0.09127227 -0.037323125 -0.0608344
000180 ae 5d f6 bd 41 ed c4 bd 7a 02 a7 bd 36 33 1a 3e
       -0.12029587 -0.09615565 -0.08154769 0.15058598
000190 e1 8c 88 bd 0e 0e 45 3b 51 f8 12 3d 47 d0 a6 3d
       -0.066674955 0.0030068192 0.035881344 0.081451945
0001a0 e4 71 7d 3c a5 2f 12 be 88 b9 a8 3d fe 1c 9e 3c
       0.015469048 -0.14275987 0.08238512 0.019300934
0001b0 b9 89 33 be 1d 3d fe 3d 0c 06 43 bc 4f d5 a2 bd
       -0.17533006 0.12414 -0.011903297 -0.07950842
0001c0 09 a6 2e 3d 90 93 7a 3e 0e 56 86 bd 6d ca 53 be
       0.042638812 0.24470353 -0.065593824 -0.20682688
0001d0 3b 4f 22 3e fb c7 dd bd f2 f2 18 be ee d1 04 3d
       0.15850537 -0.10829159 -0.14936426 0.032426767
0001e0 cf 4a 63 bd 51 05 79 3c 6f d0 25 3b 34 91 2c bc
       -0.055491265 0.015199021 0.0025301238 -0.010532666
0001f0 92 bf 7d 3c e1 09 ac 3d 50 86 ba bd e7 19 8a 3c
       0.015487568 0.08400322 -0.09107649 0.016858054
000200 9d ab 9e bc 64 74 0a 3d 42 67 60 bc 9c a8 be 3c
       -0.019368941 0.033802405 -0.013696494 0.023273759
000210 c2 a5 75 bd 07 92 0d 3d 2d 21 ad bc e6 6b 7a bd
       -0.059972532 0.03456309 -0.021133984 -0.061138056
000220 e7 02 47 3d b5 95 9a 3e 4c 43 05 3d 5e 25 9d 3d
       0.048586752 0.30192342 0.032534882 0.07673143
000230 6d cf 2c 3d a9 84 21 3c 1a ae 0a 3d 2c 0b e3 bd
       0.042190004 0.009858289 0.033857442 -0.11086115
000240 de d9 25 bd 7b 73 df bc df c5 21 bd dd 3d 3b 3d
       -0.040490977 -0.027276745 -0.039495345 0.045713294
000250 fd f6 de bd f8 bc 60 3e 34 4a 18 be 83 93 89 bd
       -0.10886953 0.21947086 -0.14872056 -0.06717589
000260 5b 33 05 3d 74 7d d3 bc dc 21 68 3e 03 3a e6 3a
       0.03251968 -0.025816657 0.22669166 0.0017564896
000270 12 61 0f 3e 17 69 8b bd e6 76 b2 bc a7 77 c8 3c
       0.14001873 -0.06807154 -0.02178521 0.024471117
000280 2a 4a 3d 3e ef 7d 6f bd 92 06 95 3d e8 bd 24 3d
       0.18485323 -0.05846971 0.07276644 0.04022017
000290 98 29 aa bd 8a f4 6e bd b3 f3 51 3b 59 98 a2 3d
       -0.08308715 -0.05833868 0.0032036125 0.07939214
0002a0 40 40 52 bd a1 9b 4a bd 55 77 83 bc ee 10 af 3d
       -0.051330805 -0.049464826 -0.016048113 0.08548151
0002b0 03 55 4e bd 09 3e e2 3c 42 f4 22 3d f5 d6 e7 3c
       -0.050374042 0.027617471 0.039783724 0.028300742
0002c0 13 98 c8 3c 57 ff 73 3d dc a6 d7 3d 4c 89 d7 3c
       0.024486577 0.059569683 0.10529873 0.026310585
0002d0 b8 cc ba 3d 46 ad 00 bc 70 4d d5 3c 30 ac 96 3b
       0.09121078 -0.007853812 0.026037902 0.004598163
0002e0 29 53 c1 bd 50 34 92 bd 38 d3 40 3d e9 43 a9 3d
       -0.0943969 -0.07138884 0.047076434 0.08264906
0002f0 39 7f ab 3d 5d 7c fa 3d cf 68 a3 3d 7b e8 02 3e
       0.08373875 0.12230752 0.07978975 0.12783997
000300 be c3 7e bd fa 71 42 3c f2 82 18 be 61 be bb 3d
       -0.062198393 0.011867994 -0.14893702 0.09167171
000310 5a c1 7f 3d a3 4b b0 bd 8e 92 05 3e 17 4e 95 3c
       0.062440254 -0.086081766 0.13044187 0.018225713
000320 74 b4 a0 3d 01 7b 8f 3b 81 53 dc 3d 15 b2 8e 3d
       0.07846919 0.004378677 0.107581146 0.0696756
000330 ee cb 6f 3c 6f 7c 85 3d d6 e9 5d bd 13 df b3 bd
       0.014636023 0.065178744 -0.05417808 -0.087827824
000340 64 06 cd 3d 39 9e 2d bc 88 e3 b6 bd 65 ad 02 bd
       0.100109845 -0.010596805 -0.08930117 -0.031903643
000350 33 2e a4 3d 05 b1 0c 3e cc 38 79 bd b4 0f 59 bd
       0.08016624 0.13739403 -0.06084518 -0.05299349
000360 a3 2a e2 bb 09 ec df bd 7d 7f 1c 3d fe e2 76 3d
       -0.0069020553 -0.10933692 0.03820752 0.06027507
000370 de 88 2c 3e 40 3f 93 3d 5e 36 5f 3d e2 80 a4 3c
       0.16849086 0.07189798 0.054495208 0.020080987
000380 3d 8b 74 bd b6 0e 1b be 74 81 1a be 87 c9 c8 3c
       -0.0597031 -0.1514233 -0.15088445 0.024510158
000390 ec 69 46 bd 4c 83 94 3d 5e cf 77 bd 14 0e c9 3d
       -0.04844086 0.072516054 -0.060500495 0.09817138
0003a0 08 05 a6 3d 7b a7 67 bc 50 09 08 3d 9d 1c 9e bd
       0.081064284 -0.014139052 0.033212006 -0.07720301
0003b0 10 2b c5 bd 4f 02 28 3d f3 08 cb bd bb 1d 0d be
       -0.09627354 0.041017827 -0.09913816 -0.13780873
0003c0 06 55 4c bd 08 4c 52 3e 66 31 10 be 97 4c cd 3d
       -0.049885772 0.20536816 -0.14081344 0.10024374
0003d0 50 73 3a 3e 37 a9 26 bd fc 26 85 3d 59 d4 a1 3d
       0.1820805 -0.04068872 0.06501576 0.0790183
0003e0 be 2d c2 3d a4 f6 e1 bd 7d a2 9e 3c e4 99 f1 3d
       0.09481381 -0.11033371 0.01936459 0.117969304
0003f0 44 1e b3 bd 52 b7 4f 3d 11 77 9b bd b7 56 1b bd
       -0.08746007 0.050711937 -0.075910695 -0.037924495

fc5.bias f4 [64]
000000 f5 ec eb 3c f3 46 21 bd fa 0c 0f bc 07 90 77 3d
       0.028799513 -0.039374303 -0.008731121 0.06044009
000010 db 7d 40 bb 0b 01 ae 3d 17 79 d9 bc 8e e6 98 3d
       -0.002937189 0.08496293 -0.026546998 0.0746585
000020 eb 3d 08 bd 82 32 c0 bd a9 a2 6d bd 32 98 30 3c
       -0.033262175 -0.093846336 -0.058016453 0.010778474
000030 99 12 37 bc f3 f3 8d bd 2a 3c 65 bc ed 11 43 bd
       -0.011173868 -0.06931295 -0.013991395 -0.047624517
000040 8f ce c2 3b 8c 51 5f 3c 7c 65 8f 3d 60 f1 8f 3d
       0.005945034 0.013630282 0.070017785 0.070284605
000050 66 9d 95 3d dc 4c 7f 3c 67 98 d9 3c ce 28 76 bd
       0.07305412 0.01558229 0.026561929 -0.060097508
000060 13 e4 c9 3d e4 ad 3b bd 7b 7d df 3c 09 b2 87 bc
       0.09857955 -0.045820132 0.027281513 -0.016564386
000070 d2 c1 d1 3c ce ea 81 bd 61 dd 27 3d c9 4d de bb
       0.025605116 -0.063436136 0.040982608 -0.006784175
000080 ed f5 c3 3d 20 08 aa 3d 39 3a 21 bd 19 03 fe bb
       0.09568391 0.08302331 -0.039362166 -0.007751834
000090 45 f8 83 bd 13 8d ad 3c ad 0e ec 3d 98 62 e0 3d
       -0.06443838 0.021185433 0.11526237 0.10956305
0000a0 8b c7 c6 bd bd d4 87 bc 83 df 64 ba ba 40 32 bd
       -0.097060286 -0.016580934 -0.00087308156 -0.04351876
0000b0 42 c7 f2 3c df e6 a0 3c 6c e2 4a bd 06 e0 5d 3d
       0.02963603 0.019641338 -0.04953234 0.054168724
0000c0 e0 33 00 bd 04 74 47 bd a6 87 94 3c 01 04 82 bc
       -0.03129947 -0.048694625 0.018131088 -0.01587105
0000d0 62 05 bd bd e4 de 00 bd af 81 b7 3b d5 36 6e 3d
       -0.09229542 -0.031462565 0.0056001763 0.05815776
0000e0 e1 85 7e bd 4e 5d 8d 3d 05 76 be bb 52 81 ce 3d
       -0.062139396 0.06902562 -0.005812409 0.1008326
0000f0 35 4f b2 bd 7d 6a 9e bd f1 5f aa 3c 3b 39 49 ba
       -0.08706514 -0.07735155 0.020797702 -0.00076760695
