models/0.1/0.pt (torch, 747117 bytes, 12 tensors)

fc1.weight f4 [128, 36]
000000 99 35 41 bd dd fb 28 3d 07 0f f0 3d ba 7b 82 bc
       -0.047170255 0.04125582 0.11721616 -0.015928138
000010 58 76 25 be d0 fc 57 3c f9 e3 0a 3d 18 7b 18 be
       -0.16158426 0.013182834 0.033908818 -0.14890707
000020 fa 5d 88 bd 89 88 f8 bd 25 95 28 be 81 e4 50 3d
       -0.066585496 -0.12135417 -0.16463144 0.05099917
000030 ee 8a b2 bb 41 69 41 bd bb 6c 99 bd c4 09 0a 3e
       -0.0054486906 -0.04721952 -0.07491442 0.13480288
000040 2d 0c 1c be 96 ad 22 be c1 8a b6 3c 15 3e 60 bc
       -0.1523902 -0.1588653 0.02228296 -0.0136866765
000050 e9 c2 99 bd b1 c7 de 3b d6 c8 cb 3c f9 f4 1a be
       -0.07507879 0.0067987074 0.02487604 -0.15132512
000060 a7 b8 f2 bd 8e 5a 99 3d 76 f4 16 3e 39 ff 29 bd
       -0.11851626 0.07487975 0.14741692 -0.041503165
000070 4f 73 23 be 6e 70 e9 bd c7 b5 66 bd d7 a4 a3 bd
       -0.15961955 -0.113983974 -0.0563257 -0.07990425
000080 a3 f6 0f be 98 49 2c be 5e 49 24 be ef d9 09 be
       -0.14058928 -0.16824949 -0.16043612 -0.13462041
000090 aa b1 bb bd 21 9b fb 3d 07 84 db 3b 00 49 65 3d
       -0.09164746 0.12285448 0.0066990885 0.05597782
0000a0 35 6a 26 be 22 c3 c6 bd dd 2d df bd dd 19 e2 bd
       -0.16251452 -0.097051874 -0.108974196 -0.11040089
0000b0 48 6c d8 3d 96 b5 da bd 1a 31 2b 3e f5 ac 39 3d
       0.10567528 -0.10679166 0.1671795 0.04533096
0000c0 f4 fa fd 3d 55 cf 92 bb 73 e3 91 3c ed 8c 9a 3d
       0.12401381 -0.0044802823 0.017808652 0.07546411
0000d0 a1 83 db 3c 45 b9 19 be 0d 57 de bd ad c9 04 3e
       0.026796164 -0.15012081 -0.10856447 0.12967558
0000e0 33 44 ea bd e6 d9 88 bd 32 37 83 bd 26 ea 11 be
       -0.11438789 -0.06682186 -0.06407012 -0.14249477
0000f0 fc a7 fd bd f2 c6 b7 bd 29 e2 9c bb 30 2e ce bd
       -0.12385556 -0.08973493 -0.0047877026 -0.10067403
000100 bb e0 09 3d be 1c 6b bd 8f 19 e7 3d 5a 06 d4 3d
       0.033661585 -0.057400458 0.11284172 0.10352774
000110 be 64 db bd 44 11 5d b9 a5 97 8b 3d fa a9 92 3d
       -0.107125744 -0.00021082634 0.06816033 0.07161327
000120 f3 14 f4 bd a7 84 d1 3d 32 e1 9e 3d 37 c8 25 3e
       -0.11918058 0.102303796 0.07757796 0.16189657
000130 7d 09 d4 3d 36 8c 1b be 72 ae e1 3a a2 fa 9c 3d
       0.10353372 -0.15190205 0.0017218126 0.07664992
000140 d1 88 9b bd 19 74 31 3d 67 9b fc bd 9a 05 1e be
       -0.07594455 0.04332361 -0.12334328 -0.15431824
000150 78 8c 1e be d6 95 ff bc 51 ce 4c 3d aa 0f dd bd
       -0.15483272 -0.031199377 0.050001446 -0.10794003
000160 02 e4 18 be 75 99 21 be e0 1e cb bc 6c c6 bf bd
       -0.14930728 -0.15781195 -0.024794996 -0.09364018
000170 4b 38 11 be c0 63 27 be 41 94 b3 bd d1 6f 01 3d
       -0.1418163 -0.16346645 -0.087685116 0.031600777
000180 e2 73 ad 3d c4 ab 1a be 0b ca 71 bd f4 65 f4 3d
       0.084693685 -0.15104586 -0.059030574 0.119335085
000190 8c a0 a9 3c c3 7f 04 bd b3 3f b8 bc 2e 29 f0 3d
       0.020706438 -0.032348406 -0.022491312 0.117266044
0001a0 3e e6 0c be 28 cb c9 bd e2 fb 05 3e b1 06 1b 3e
       -0.13759705 -0.09853202 0.13084367 0.15139271
0001b0 ff ea fc 3d b7 76 45 3d 00 7a 82 bd 89 b3 00 3e
       0.123495094 0.04820892 -0.06370926 0.12568487
0001c0 95 4e f5 3d 12 92 10 be c6 f9 07 3e a0 8e 0e be
       0.11977879 -0.14118221 0.13278875 -0.13921595
0001d0 ad 08 0f 3d ba f9 a7 bc 00 d3 ec bd a1 3f e5 3d
       0.034920383 -0.020504821 -0.115636826 0.11193777
0001e0 d3 81 a2 bd ba 4b b4 3d b5 61 b5 3d 1a 8d f3 bc
       -0.07934918 0.08803506 0.08856527 -0.029730368
0001f0 22 07 02 be 78 e4 12 3d 3c 60 b3 3d 6a 33 cb 3c
       -0.12698033 0.035862416 0.087585896 0.02480479
000200 af 3b 52 bd 70 62 2b be d2 68 0d be 29 96 f6 3d
       -0.05132645 -0.1673677 -0.13809517 0.120403595
000210 09 12 23 bd 54 14 19 3d 4b a6 21 3e 5f c7 0a 3e
       -0.03981212 0.037372902 0.15786092 0.13552617
000220 ea 87 95 3d ba f0 99 3c 2c 40 a9 3c 04 b9 91 3d
       0.07301314 0.018791545 0.020660482 0.07115367
000230 b9 1a 12 be 34 8a 16 3d 1b 4f b4 3d d7 f8 af bd
       -0.14268006 0.036752895 0.08804151 -0.08592384
000240 f9 f3 f8 3d ee 6a 6f 3d 1c e9 52 3d e3 ee 2f be
       0.12155909 0.058451585 0.05149184 -0.17180972
000250 00 4a 69 bd a8 b9 0e 3d 4d ac b3 3d 82 09 72 bd
       -0.056955338 0.034845024 0.08773098 -0.0590911
000260 e2 65 26 be f2 7c 2c be 1b e1 0b be ad 7a 16 3e
       -0.16249803 -0.16844538 -0.1366009 0.14695235
000270 43 77 0d be e7 8b be bc fc cb ef bd 2a f5 0c 3e
       -0.13815026 -0.02326007 -0.11708829 0.13765398
000280 03 b7 14 be cf 96 07 3e c1 91 d6 bd c5 ff 10 be
       -0.14522938 0.13241123 -0.10477019 -0.14160068
000290 79 0c 7f 3d 19 34 68 3d 89 9c 1b be e2 f8 68 3d
       0.062267754 0.05669031 -0.15196432 0.05687798
0002a0 97 19 b6 3d 56 a5 0e be db 46 0d 3d 37 62 2c bc
       0.088915996 -0.13930258 0.0344914 -0.010521463
0002b0 cc 36 01 be 30 b8 4e bd bb 42 24 3e 14 b2 22 be
       -0.1261856 -0.050468624 0.1604108 -0.15888244
0002c0 e9 ef 96 3c 0e 6e 8e bc fd 5d 0a be 90 cf 14 3c
       0.018424945 -0.017386463 -0.13512416 0.00908269
0002d0 7c a4 21 be 1b 1b d1 bc 24 28 e6 bd 13 e7 ad 3c
       -0.15785402 -0.02552562 -0.11238125 0.021228349
0002e0 37 af 97 bd 03 1c 1d bd ce fe 11 3d 09 5b 74 bd
       -0.074064665 -0.038356792 0.03564339 -0.05965713
0002f0 ce 21 e3 bd d6 e1 20 be a0 79 e4 bd 8b ec a1 bb
       -0.11090432 -0.1571115 -0.11156011 -0.004941528
000300 9e 63 16 3e 1b 90 01 3e a4 07 dc bd 33 69 73 3a
       0.14686438 0.12652628 -0.10743645 0.000928539
000310 09 e8 1f be ac c0 81 bd dd 24 1d 3e 87 60 2a 3d
       -0.15615858 -0.06335577 0.15346093 0.041595962
000320 ad ff d3 3d ac 54 1c 3e 14 17 93 3d fa 76 f2 3c
       0.10351501 0.15266675 0.07182136 0.029597748
000330 b5 30 8e bd b3 72 15 3e 9d 48 2d bd 7e 9d e7 bd
       -0.06942884 0.14594536 -0.042305578 -0.11309336
000340 f9 97 fa bd 63 78 21 3c 0e 03 b9 bd 66 0c bf bd
       -0.12236018 0.009855363 -0.09033786 -0.09328537
000350 7d 0b bd 3b 02 bd 78 bc fe 9c ce bd 8a 33 72 3b
       0.005769192 -0.015181782 -0.10088538 0.003695699
000360 b9 45 1c bd 92 26 9d bd 3f cd d9 bd d1 90 5d 3d
       -0.03815243 -0.07673372 -0.10634851 0.054093186
000370 b6 e7 a6 bd de 3f 0f be ac e7 21 be c7 74 de bc
       -0.08149664 -0.13989207 -0.15811032 -0.027155293
000380 4c 7d 18 bd f4 7d 48 bd ca 84 bb 3d a0 42 f6 3d
       -0.037228867 -0.048948243 0.09156187 0.120244265
000390 f8 39 88 3d b1 93 18 3e 43 9d 92 bd d8 84 28 3d
       0.06651682 0.1490009 -0.071589015 0.041142315
0003a0 3c 38 ba 3c cb ce f0 3d 47 c9 16 3e 8f f5 02 3d
       0.022731893 0.11758193 0.14725219 0.031972464
0003b0 75 86 5a bd 05 20 44 3c 45 da 33 3d f8 78 21 be
       -0.053350884 0.011970525 0.04390933 -0.15768802
0003c0 2f a1 2a be ad 3d a9 bc 19 75 97 3d b6 6d 18 be
       -0.16663049 -0.020659292 0.073953815 -0.14885601
0003d0 91 7d 0e 3e 1e fa 1e be 7a 40 0a be d8 54 27 3e
       0.13915087 -0.155251 -0.13501158 0.16340959
0003e0 17 03 fe 3d 2e 65 1e be c7 4a 9c bd 3a 48 eb 3d
       0.12402933 -0.15468284 -0.0763145 0.114883855
0003f0 c6 dd 9b bd 69 d5 12 3e 6d 17 05 be dc c5 c6 bc
       -0.07610659 0.14339222 -0.12997217 -0.024264269

fc1.bias f4 [128]
000000 d7 6e ab bc c2 62 51 bd 7a 69 27 3e 7d 55 f9 bc
       -0.020926876 -0.051119573 0.1634883 -0.030436272
000010 dc 97 13 3e bd ff 27 bd bd 3d 2a be 91 f9 90 bd
       0.14413399 -0.041015375 -0.16625114 -0.07078851
000020 2b 10 45 3e 85 f2 a7 bd 04 c5 f6 3c 95 04 06 be
       0.19244449 -0.08200554 0.030123241 -0.13087685
000030 57 8a 83 bd 0b f7 e7 3d 18 83 80 3e 5f be ec 3d
       -0.064228706 0.113264166 0.25100017 0.11559748
000040 60 75 84 3e 87 95 ca 3d 6f 2c 25 3e 43 da 9f 3d
       0.258708 0.09891801 0.16130231 0.07805302
000050 7b a5 84 bd eb 14 ae bd cf b8 bf bd d5 92 46 3e
       -0.064768754 -0.085000835 -0.09361421 0.1939195
000060 42 93 07 3e bc 08 da 3d 21 b5 64 bd 83 15 d1 3d
       0.13239768 0.10646197 -0.0558368 0.10209181
000070 79 b2 14 be d3 4c 82 3e 76 f5 63 3e f2 1a cf 3d
       -0.14521207 0.25449237 0.22261605 0.10112561
000080 49 aa 1b 3e be 21 86 bc b2 f0 89 3e 3c 17 b9 3d
       0.15201677 -0.016373511 0.26941448 0.09037635
000090 3c 15 bf bd b6 9a ad 3e 6e 8b ab 3d ca fb 51 3d
       -0.09330222 0.33907098 0.083762035 0.051265515
0000a0 ba 37 68 3e 75 a2 bf 3c 3b 19 ec bd 11 2c 8e 3e
       0.22677508 0.023392895 -0.1152825 0.27767995
0000b0 69 ca aa bd 6e 6c 57 3e eb f6 cc 3c e3 26 0a 3e
       -0.08339388 0.21037456 0.025020083 0.13491397
0000c0 59 0f 03 be 95 b0 b0 3e 10 92 0b be 80 e6 dc bc
       -0.12798823 0.3450972 -0.13629937 -0.02696538
0000d0 6d ad d1 bc 0f ae 5d 3e f2 b7 4b bb 35 49 3d bd
       -0.025595391 0.2164843 -0.0031084982 -0.046212394
0000e0 50 e2 5f 3e e0 0a 15 3e ee 6a 19 bd 27 74 c7 bd
       0.21863675 0.1455493 -0.03745549 -0.09738951
0000f0 f4 0c 54 3c 86 e4 98 bd c9 89 df bd 83 06 2c 3a
       0.012942541 -0.074654624 -0.10914952 0.00065622496
000100 a9 07 23 3e 75 14 6a 3e 95 50 17 3e 04 d1 ea 3d
       0.15920891 0.22859366 0.14776833 0.11465648
000110 94 e8 64 3e 3e 01 ea 3d 36 f6 b6 bd ef ff f9 bd
       0.22354347 0.11426018 -0.0893368 -0.122070186
000120 54 77 d8 3d 8b 97 12 3e 51 ea 6f 3e a5 67 9d bc
       0.10569635 0.14315622 0.23429228 -0.01921446
000130 d7 b7 a7 3e 09 03 a8 bd 09 f7 0f be 5b 0a 35 3e
       0.32757446 -0.08203704 -0.1405908 0.17679732
000140 bd 85 6c bd ab f5 60 3e f7 63 86 3e 68 8c 7e 3d
       -0.05774473 0.21968715 0.26248142 0.06214562
000150 4b 60 46 bd c3 c7 10 3e aa 32 2a bd a5 ca 85 3e
       -0.048431676 0.14138703 -0.041552223 0.26131168
000160 a1 a7 4a 3e 51 a7 e4 bd bd 70 21 bc 90 8a 04 be
       0.19790508 -0.111647256 -0.009853539 -0.12943482
000170 8d a1 2f bd 5a 74 83 3d 25 c4 59 bc d5 d4 b9 3d
       -0.042878676 0.06418677 -0.013291393 0.090737976
000180 ca aa 88 bd 68 f1 fe 3d 6a b8 3b 3e b6 be e5 bd
       -0.066732004 0.12448388 0.18332067 -0.11218016
000190 68 11 9f 3d 9e 1e 54 3e 64 e5 dd bb 4b 90 14 3e
       0.07766992 0.20714805 -0.0067717303 0.14508168
0001a0 e8 63 c4 bd 0d 3f 88 3d 69 99 b0 3e fa eb 92 3d
       -0.09589368 0.06652651 0.34492043 0.07173915
0001b0 b0 01 8f 3d c0 6e 11 be 8f ba 72 3e 45 fd d9 3d
       0.06982744 -0.14202404 0.23703979 0.106440105
0001c0 c5 d9 93 3e 7d cb 89 3e 0f ee 34 bd 12 74 48 bd
       0.28877082 0.26913062 -0.044172343 -0.04893882
0001d0 e9 26 06 be 2e 38 84 bd 51 5e 35 3e 04 68 b0 3d
       -0.1310078 -0.06456028 0.1771176 0.086135894
0001e0 2b 17 94 3d 79 17 77 3e ba d4 99 bd 13 cc ca bd
       0.072309814 0.24130048 -0.075112775 -0.09902205
0001f0 6f 34 4b bd 6f ba bc 3d 3b 5b 2a be bc fe 4b 3e
       -0.04961055 0.09215247 -0.16636364 0.19921392

fc2.weight f4 [64, 128]
000000 5e 2d 0b 3c 08 c0 bf 3c 30 6f 82 3d 3a 54 9f 3d
       0.008494703 0.023406997 0.063688636 0.07779737
000010 19 a6 b4 3d bb b6 c2 3a 06 54 69 bd c7 81 be 3d
       0.08820743 0.0014855483 -0.056964897 0.09302097
000020 b2 78 62 3a 14 0d c9 bc 94 87 ac 3d d9 45 c2 3d
       0.0008639201 -0.024542369 0.08424297 0.09485979
000030 4a 0a 01 3d bc 43 31 bc 6a 38 5f 3d 54 cb cf 3d
       0.031503953 -0.010819372 0.05449716 0.10146204
000040 45 73 da 3d 95 39 48 3d d9 40 e3 3c da 22 3d 3d
       0.10666517 0.04888304 0.027740883 0.046175815
000050 fb b8 48 bd ed bf 56 bc 8e 5f 3d bc cf 39 b7 3d
       -0.049004536 -0.013107282 -0.011558427 0.08946573
000060 8c 41 80 bc cf 59 07 3d 4b bd 52 3d 67 93 8b 3d
       -0.015656255 0.033044633 0.051450055 0.06815224
000070 3d f0 ac 3c 0a 39 73 3d f6 0a f9 3d 0c 7d c8 3d
       0.021110648 0.05938057 0.12160294 0.09789476
000080 21 b6 21 3c 7e 46 c7 bc 64 3a 5b 3d 16 48 ed 3c
       0.009870083 -0.024325605 0.053522483 0.028965037
000090 a3 08 b5 3d dc a6 2e 3d bc 0e 36 bd d1 ac 43 bd
       0.08839538 0.0426396 -0.044447646 -0.047772232
0000a0 c3 15 c0 3d 00 87 94 3d 9d 0b d8 bc 67 b6 e1 3c
       0.09379151 0.07252312 -0.026372725 0.027552797
0000b0 d9 45 9d 3d b1 2c e2 36 2f 08 b1 3d 35 dc 99 bc
       0.07679338 6.7405276e-06 0.08644139 -0.01878176
0000c0 8f 6a 27 3c 41 62 98 3d 5f 29 f5 3c 6e 0f 8f 3d
       0.010218277 0.074406154 0.029926954 0.06985365
0000d0 29 45 8b 3d e4 28 3e 3d 4d 8c a0 3d 52 65 1a 3d
       0.06800301 0.046425715 0.0783926 0.037694283
0000e0 c0 1b 48 3c f4 cc 1d bb 20 34 7c 3d 64 0a 02 3d
       0.012213647 -0.002407846 0.061573148 0.03174819
0000f0 65 d7 a5 3d 34 74 b3 3d cf 07 ab 3d 59 5e 96 3d
       0.08097724 0.08762398 0.08351099 0.07342214
000100 34 8c b3 3d 36 3d d5 3d 4e ff ec bc f5 43 6d bc
       0.08766976 0.10412066 -0.028930333 -0.014481534
000110 0e 11 a9 bc 09 58 c7 3d c1 6c 32 3d 7f 10 10 bd
       -0.020638015 0.09733588 0.043560747 -0.035171982
000120 0f bc e2 3c ff 49 a1 3d 87 a0 0f bd 55 6b 48 3d
       0.027677564 0.07875442 -0.0350652 0.048930485
000130 6a ce 11 3e 12 f2 2d 3c c6 9c bf 3d a5 a2 27 bd
       0.14238897 0.010616796 0.09356074 -0.040926594
000140 91 e2 e1 bc f2 a7 83 3d 4d 0d f1 3d 90 40 76 3c
       -0.027573856 0.064285174 0.11770115 0.015030041
000150 ca 64 14 3b df a3 cc 3d f0 53 18 3d c6 1e 9f 3c
       0.0022643083 0.099921934 0.037189424 0.019423854
000160 1f 1d 4d 3d 1f bf c0 bc df e4 a3 3c 57 d2 db bc
       0.0500766 -0.023528634 0.020006595 -0.026833696
000170 b0 6c c2 3d 21 7c 28 3b 58 44 c0 bc ec 4d df bc
       0.09493387 0.0025708752 -0.023470089 -0.027258836
000180 3f 80 d1 3d b2 16 7f 3d 05 b2 ab 3d 2c 5e 0f bd
       0.10229539 0.062277503 0.08383564 -0.03500192
000190 e1 45 85 3d da 06 0b 3d 68 7d d6 3d 63 7a 8f 3d
       0.06507469 0.03394208 0.10473138 0.07005765
0001a0 d3 02 d9 3d 89 2a 98 bc 11 06 f3 3d 11 6b 87 ba
       0.10596242 -0.01857497 0.118663915 -0.0010331591
0001b0 0e be 48 bb 5a 12 26 bc e0 46 d9 39 d1 8b 55 3d
       -0.003063086 -0.010136211 0.0004144227 0.052135292
0001c0 a3 70 d2 3d 80 7b d2 3d ad 6b 35 bd 09 b7 bd 3d
       0.1027539 0.10277462 -0.04429214 0.09263427
0001d0 39 93 9f 3d 83 31 8e bc 43 ab 0c 3b 4f 95 92 3d
       0.07791752 -0.017357593 0.0021464385 0.071573846
0001e0 1a e1 50 bd 36 b5 5e 3c 7e c0 7d 3d 33 5d c8 3d
       -0.050995924 0.013593009 0.061951153 0.09783401
0001f0 48 e2 4f 3d 58 57 62 3d c2 08 49 bd cd 57 81 3d
       0.050752908 0.05525908 -0.049080618 0.06315575
000200 b2 72 5d 3c fd 4c a6 3d 0a cb 0a 39 ca 4d 27 3d
       0.013516115 0.08120153 0.00013236344 0.04084567
000210 2b d4 28 bd 1c f0 cb bc 28 f9 66 bc 8e 00 7e 3d
       -0.041217964 -0.024894767 -0.014097489 0.062012248
000220 89 03 6a 3d a1 b6 74 3d 3a a0 dc 3b 84 75 4c 3c
       0.057132278 0.05974448 0.0067329677 0.01247919
000230 15 06 24 3d ce 39 19 3d 77 48 81 3c 21 8d 5b bd
       0.040044863 0.037408642 0.015781624 -0.053601388
000240 79 c4 b8 bc f2 a5 a2 bd 43 59 58 bd 75 e4 1c 3d
       -0.022554623 -0.07941808 -0.0528195 0.03830381
000250 c5 68 8c bd 98 4c 92 3d 5d 76 a0 3c 52 c0 a3 bc
       -0.06855921 0.07143515 0.01958769 -0.019989166
000260 5c 0a a3 3c 1f 82 f0 bc 85 9c 00 bd f2 d5 0c bd
       0.0199024 -0.029358922 -0.03139927 -0.03438372
000270 c5 e6 34 bd e1 ba 4b bc 3b a8 12 bd 79 04 9b bd
       -0.04416539 -0.012434692 -0.03580497 -0.075692125
000280 8d ac 5f 3d 77 e0 05 bd 27 53 0f 3d cc 36 87 bc
       0.054607917 -0.03268477 0.03499141 -0.016505621
000290 fc 62 5f 3d 85 4a 43 3d fa e6 8c 3c 6a b1 d9 3c
       0.05453776 0.04767849 0.017199982 0.026573855
0002a0 0f bf 14 bd e0 04 52 3d e4 3d 95 bc 1d 02 60 37
       -0.03631502 0.05127418 -0.018217988 1.33519325e-05
0002b0 c8 73 21 bc 14 30 33 3d f4 33 4b bd eb f4 10 3d
       -0.009854265 0.043747023 -0.049610093 0.035389822
0002c0 51 82 4a 3d 26 88 89 bd 67 15 af bb 6f 35 81 bd
       0.049440686 -0.067154214 -0.0053431275 -0.0630902
0002d0 6a cd e4 3c 3a 4e 8c 3b 47 41 d2 3c 75 1b 93 3c
       0.02792998 0.0042817863 0.025665892 0.017957428
0002e0 3b 13 8d 3d 54 3d 50 3d 37 59 ba 3c a8 07 93 3c
       0.068884335 0.050839737 0.02274762 0.017947987
0002f0 d9 01 3c bb 47 63 9b bc ec ee 36 bc 4b 1b 5a bd
       -0.0028687625 -0.018968238 -0.011165362 -0.053248685
000300 4e 7e 5c 3d bb c2 0a 3d 34 b0 fb bc c7 0a a5 bc
       0.05383139 0.033877116 -0.030723669 -0.02014674
000310 32 f5 a7 bd 7a 98 69 bd e9 3c 8e bd 65 7f 33 bd
       -0.08201064 -0.05703018 -0.069452114 -0.043822665
000320 e2 12 83 3d 78 1d 0e 3d 4c 9d ee 3c 59 c5 09 3d
       0.06400086 0.034696072 0.02912774 0.03363547
000330 27 f7 93 3d 68 65 86 bd 3f f0 4a 3c bd 38 6c bd
       0.07224875 -0.065623105 0.012386381 -0.057671297
000340 66 95 7d 3b d2 03 a4 3d a4 06 c7 3c 0c f1 9a 3d
       0.0038693785 0.08008541 0.024295159 0.07565507
000350 01 a0 9d bd 7d d1 3c bd 1b 31 b7 bd 77 19 f0 3c
       -0.07696534 -0.04609822 -0.08944913 0.029309018
000360 95 19 86 bd 68 f8 dc 3c c7 f4 2a bb e8 0e df 3c
       -0.06547848 0.026973918 -0.002608584 0.027228788
000370 ef fa a8 3d 17 a3 98 bd b9 89 8c 3d 5f 53 c7 bc
       0.08250987 -0.07452982 0.06862206 -0.024331747
000380 6a ef 67 3d fa 9c a6 3d 0d 90 69 3d 15 9f 09 bd
       0.056624807 0.0813541 0.057022143 -0.033598978
000390 5b 4d 8f 3c e0 0e 63 3d ea 95 82 3c 39 37 92 bd
       0.01749294 0.055434108 0.015940625 -0.07139439
0003a0 62 fe 4b 3b ad 39 24 3d 90 a9 cc 3c 0d a7 1f bd
       0.0031126966 0.040094066 0.024983197 -0.03897767
0003b0 c7 ce f8 bb 42 d1 92 3d 5a e6 81 3d 42 aa 65 3d
       -0.007593009 0.07168819 0.06342764 0.056070574
0003c0 aa 5d 7c 3c dd ba 4c 3d 68 9a 30 bd 6e 36 5a bc
       0.015403191 0.049982894 -0.043116003 -0.013318641
0003d0 ef f3 23 bd 13 c0 72 3d 6a 93 6b 3d c1 ef 62 bd
       -0.040027555 0.059265207 0.057513632 -0.05540443
0003e0 2b 35 12 3d 4a 94 ab bd 11 34 5c 3d 6b 57 a8 3d
       0.035695236 -0.08377893 0.053760592 0.08219799
0003f0 98 f6 a6 bd cb 74 c9 3c c5 bf b4 3c a4 1b 74 bd
       -0.08152503 0.024591824 0.0220641 -0.059596673

fc2.bias f4 [64]
000000 d3 cf 37 3e 8f 20 a0 3d 5d 0c 8b bd ef 47 42 bd
       0.17950372 0.0781871 -0.067894675 -0.047431882
000010 09 7a 19 bd c9 46 8d 3c 9b 35 52 3e 22 b4 5e bd
       -0.037469897 0.017245667 0.20528261 -0.054371007
000020 8b 0c 74 bd 74 01 ef bc 91 43 3e 3e d7 9a bd 3c
       -0.059582274 -0.029175498 0.18580462 0.023145122
000030 55 d0 98 bd 55 f1 7f bd 5a 99 f2 3d 32 24 14 3d
       -0.07461611 -0.06248601 0.11845656 0.03616733
000040 ee 5f 23 bd 8a d9 01 3e 35 19 a4 bd cb 7b e1 3c
       -0.039886408 0.12680641 -0.0801262 0.02752485
000050 8f b9 ab bc 7d c5 56 bd 69 76 85 bd 0d c7 1c 3e
       -0.020962505 -0.052434433 -0.065167256 0.15310307
000060 be 61 97 3a 75 74 67 3e 6f 20 01 bd 13 c2 72 3e
       0.0011549515 0.22603019 -0.03152507 0.23706846
000070 a4 25 8e 3d 0b 3f fb 3c 96 7d 24 3e c0 80 7d 3e
       0.06940773 0.03066971 0.16063532 0.24756145
000080 ba ae 24 3e 86 ad 2f 3e 3a f7 0f bd 43 ca 8a 3d
       0.16082278 0.17156038 -0.035147883 0.067768596
000090 ff 59 db 3d 7e 9b 5a 3d 84 e3 24 3e 5b 09 dc bc
       0.10710525 0.053370945 0.16102415 -0.02685993
0000a0 89 57 16 3e ab c6 65 3e 17 fd 42 3e c9 20 59 3d
       0.1468183 0.22439067 0.19041859 0.053009782
0000b0 ec 1f 4b 3e cb 28 e7 3c ac 08 5f 3e 84 a9 1d bd
       0.19836396 0.028217694 0.21780652 -0.03849174
0000c0 c1 98 18 3e 86 67 77 bc 1b 01 fd 3d 87 3b 92 3e
       0.14902021 -0.0151003655 0.123537265 0.2856104
0000d0 44 3b 85 3e bc ea 7f 3e 60 f9 07 3e 6a 20 06 3d
       0.2602178 0.24991888 0.13278723 0.032745756
0000e0 2f 99 d4 3d 8b 54 97 3d 5f a7 16 3e 99 7f 9c 3d
       0.1038078 0.07389172 0.14712285 0.07641525
0000f0 d6 ad 43 3e 0e 43 51 bb 80 da b5 bd 21 45 d8 3d
       0.19109282 -0.0031930837 -0.08879566 0.1056006

fc3.weight f4 [6, 64]
000000 22 ac db 3e ed 84 85 3d ec c5 c1 3d ae f7 02 3e
       0.42904764 0.06519494 0.09461579 0.12789795
000010 ae 3e 27 bc 8a 18 cb 3b 45 8c d1 3e 9b 66 e4 3c
       -0.010207815 0.0061979936 0.4092733 0.027880957
000020 1f 51 2e bd 04 2c 09 bd 78 65 b0 3e 0a 78 8b bd
       -0.04255783 -0.033489242 0.34452415 -0.06810005
000030 ce 15 c7 bd ff ad 5d bd b5 8d cc 3e d4 fe 97 bd
       -0.09720956 -0.054121014 0.39951864 -0.074216515
000040 5d 99 e8 bc 7d 9b 9d 3d 52 9e 04 3d d6 11 c0 bd
       -0.028393442 0.07695673 0.03237755 -0.09378402
000050 c4 d9 9c bd 69 7f f6 3a b1 e7 e4 bd 52 e8 8b 3e
       -0.07658723 0.0018806282 -0.11177004 0.27325684
000060 45 7f c1 bd 02 cf da 3e c1 e4 b2 bd e5 07 a0 3e
       -0.09448103 0.4273606 -0.087350376 0.31256023
000070 56 1e 98 bc b0 08 74 bd 05 13 fc 3e 3e dd dc 3e
       -0.018569153 -0.059578598 0.4923326 0.43137544
000080 fe 1c b6 3e 04 49 df 3e 74 cc 56 bd 33 a1 5f 3e
       0.35568994 0.43610394 -0.052441075 0.21838836
000090 32 8c 39 3e ee 81 a7 3e fb 88 96 3e 92 34 d5 bd
       0.18119887 0.32716316 0.29401383 -0.104104176
0000a0 9e 6e 94 3e d0 5c c7 3e b9 3f ac 3e 0f f2 83 3e
       0.28990644 0.38937998 0.33642367 0.25770614
0000b0 69 bb a2 3e 60 f1 7d bd a7 ad db 3e c2 18 c8 bd
       0.31783608 -0.06199777 0.42905924 -0.09770347
0000c0 c5 2e ce 3e 20 2c 25 3d b9 22 b8 3d d6 cf fe 3e
       0.40270057 0.040325284 0.08990998 0.4976794
0000d0 23 b5 e9 3e c9 eb c4 3e d9 e6 60 3e 68 fc 92 bd
       0.4564601 0.3846114 0.21963061 -0.07177049
0000e0 d3 93 c4 3e 6b 7a 0b bc b9 5e e5 3e 05 cb c7 3e
       0.3839403 -0.008513073 0.4479883 0.3902208
0000f0 1c 13 86 3e ef 2f ec 3c 47 bc bf bd a7 53 e4 3d
       0.26186454 0.02883145 -0.09362083 0.11148768
000100 ea 11 a4 bd 77 f6 85 3d 8d 03 2d bc a3 20 14 bd
       -0.08011229 0.0654115 -0.010559929 -0.036163937
000110 fa 1b bb 3c 9a 20 60 3d 87 b8 f7 bc 09 d4 db 3d
       0.022840489 0.05471859 -0.030239357 0.10733802
000120 d4 18 27 bd 0e f2 c6 3d 40 4f 10 be 46 35 c3 3d
       -0.040795162 0.09714137 -0.14092731 0.095316455
000130 e5 59 90 3d a0 cd e4 bd f2 d9 25 3c 7b c2 c5 bc
       0.07048396 -0.11172032 0.010122763 -0.024140587
000140 c0 58 90 bd 13 95 be bd 21 3f e9 3d 1c a7 aa 3d
       -0.07048178 -0.093057774 0.11388994 0.08332655
000150 d6 a8 66 3d f2 7f f8 3d 04 74 f5 bd e5 d5 b2 3d
       0.05631336 0.12133779 -0.11985019 0.087322034
000160 ec 24 db bd 84 81 70 3c c4 7b 6d bd 46 7b 1e be
       -0.10700402 0.014679316 -0.05797936 -0.15476713
000170 a4 ff c9 3c 15 7f ac 3d 4d 45 e2 bd 22 2f 58 bc
       0.024658032 0.084226765 -0.11048374 -0.013194831
000180 07 af 1c be 62 5e 97 bd 20 f3 f9 bc d7 13 0c be
       -0.15301143 -0.07391049 -0.030511439 -0.13679443
000190 fe 38 b9 3d 95 62 db 3c 39 82 93 bb 48 0e b0 3d
       0.090440735 0.026780406 -0.0045016077 0.08596474
0001a0 e4 5d 07 3d 87 de 57 3d f7 24 84 bd be 9e a5 bd
       0.033048525 0.052702453 -0.06452363 -0.08086918
0001b0 1a 7d d8 3b c6 9c fd ba fc 38 53 bd 6a ac 5d bc
       0.00660671 -0.001934909 -0.051568016 -0.013529876
0001c0 96 28 8c 3d 25 ac 02 be 6b 0b 27 bd b1 af ed 3c
       0.06843679 -0.1276098 -0.040782373 0.02901444
0001d0 ca 75 08 be 12 2d a7 bd 6a c6 98 3c 04 6d 58 3d
       -0.13326183 -0.08162893 0.018649299 0.05283834
0001e0 2a a2 93 bd f0 89 f5 3c 16 72 e0 3b bd cc de bd
       -0.07208665 0.029973 0.0068495376 -0.108788945
0001f0 0c 8b 90 bd 9b 29 8f 3d 00 89 1e 3c 54 47 3a 3d
       -0.07057771 0.069903575 0.009676218 0.04547818
000200 cc 7a b7 bd e4 df 26 3d c6 86 ac 3d fb 31 bb 3d
       -0.089589685 0.040740862 0.084241435 0.091403924
000210 0c 08 8a bd 74 7a 30 3d 34 bc 1d be 3a ca 01 bd
       -0.06739816 0.04308553 -0.15403825 -0.031687
000220 c1 35 9e bd 0e 44 df 3d be 42 7c 39 1f 53 f3 3d
       -0.077250965 0.10901652 0.00024057456 0.118810885
000230 a2 26 bd 3d 68 86 3b 3d 17 ed 51 bc 9b 37 ea 3c
       0.09235884 0.045782477 -0.012812874 0.028590968
000240 76 2a 95 3d 7c df a4 bd 48 39 99 bd 75 1f fe bc
       0.072834894 -0.08050439 -0.07481629 -0.03102086
000250 e6 95 24 3d ae 6d f6 bd d9 9c a9 bd 7f d1 0c be
       0.040182017 -0.120326385 -0.082818694 -0.13751791
000260 8e 8e 24 bd 01 6d 11 bd c0 4c c0 bd b2 01 44 be
       -0.040175013 -0.035504345 -0.09389639 -0.19141272
000270 d6 f6 eb bd 2e 1d f3 bc 32 d8 ab bd 94 76 55 bd
       -0.115216896 -0.029677 -0.08390845 -0.052115038
000280 01 12 48 be 0a 74 07 bc f4 7f dc bd dc 38 18 bc
       -0.19538118 -0.008267412 -0.107665926 -0.0092909
000290 f2 a2 94 bc d9 29 a1 3c a0 cc 06 be 31 9a 7c 3d
       -0.018144105 0.019673275 -0.13163996 0.061670486
0002a0 fe aa 05 be 26 e4 00 be 89 74 16 be 84 a9 c7 bd
       -0.1305351 -0.12587032 -0.14692892 -0.097491294
0002b0 2d be 8b bd ce d2 3c bd 59 b3 8b bd fa 89 45 bd
       -0.068233825 -0.046099477 -0.06821317 -0.048227288
0002c0 82 20 fc bb 75 96 67 3d 44 12 b3 bd 8a 34 19 be
       -0.007694305 0.05653997 -0.08743718 -0.14961448
0002d0 d5 83 e0 bd 4d ab c1 bd bb c1 c6 bd 73 42 47 3d
       -0.10962645 -0.09456501 -0.0970492 0.048647355
0002e0 0a 33 ee bd 6e 49 94 3d 4e 16 c3 bd 67 80 e9 3c
       -0.11630829 0.07240568 -0.09525739 0.02850361
0002f0 ce 94 e2 bd 0b 8f 10 3d 23 c4 48 3d 03 3d 89 3d
       -0.110635385 0.035292666 0.049015176 0.0670109
000300 ea 48 96 bb ef 4f f8 bc ee 32 ff bd 27 db 8c bd
       -0.0045863288 -0.030311553 -0.12460886 -0.068777375
000310 e6 55 a7 3d 06 3a b5 bd cc 85 b2 bd 4d 7b b3 bd
       0.08170681 -0.08848958 -0.08716926 -0.08763752
000320 3e e1 c8 3d 7b 67 3b 3d b8 b4 33 bd 11 f7 a7 3d
       0.098085865 0.045752984 -0.04387352 0.08201421
000330 b9 ec 2a 3d 99 4d 19 3d 84 c0 cb bd 72 58 dd 3d
       0.041729663 0.03742752 -0.09948829 0.10807885
000340 a1 95 b4 3d fa 59 f9 bd 71 26 eb 3d a1 04 0c bd
       0.08817602 -0.12175365 0.114819415 -0.034184102
000350 1f e5 fa 3d 33 61 93 3d c9 d1 54 bc cc b0 74 3d
       0.12250733 0.07196274 -0.01298947 0.05973892
000360 94 bf 58 3d d1 71 15 bd 29 a0 cd 3d ba ec 45 bd
       0.05291708 -0.036485497 0.10040314 -0.048321463
000370 4a de a2 bc 77 f8 c1 bc 7d 98 93 bd 70 e3 ca bc
       -0.019881386 -0.023678048 -0.07206819 -0.024766654
000380 12 be 73 bd 6e d5 26 3c 3f 80 f1 3d 08 57 a6 3c
       -0.059507437 0.010182722 0.11792039 0.020305172
000390 69 fe 8b bd b8 ae 45 3d b3 c1 27 be bf 25 84 3d
       -0.06835634 0.048262328 -0.16382484 0.06452512
0003a0 c0 bc a5 3d af 91 e3 bd 5a 15 88 bd 68 66 e6 bd
       0.08092642 -0.11111771 -0.066446975 -0.11250001
0003b0 a2 c2 02 bd d3 c9 c3 bd 27 3c d6 bd a1 23 c5 bd
       -0.031923898 -0.09559979 -0.10460692 -0.09625936
0003c0 45 88 16 be 1c 21 fe bc db 73 98 bb e0 f7 47 3c
       -0.1470042 -0.031021647 -0.004652483 0.012205094
0003d0 5e a7 19 bd 5e c5 19 be eb ed 07 be eb 97 5b bd
       -0.03751313 -0.15016696 -0.13274352 -0.053611677
0003e0 af 34 a8 bc b6 7e 15 bd 1c 50 72 bd 24 ac f2 3c
       -0.020532934 -0.036497794 -0.05915843 0.029623099
0003f0 a8 54 16 be 1d 50 9e bd 6a 4c c0 bd 50 2b a4 bd
       -0.14680731 -0.07730124 -0.09389575 -0.08016074

fc3.bias f4 [6]
000000 72 b9 74 3f 56 0a 97 3d 81 19 8b be 21 23 20 be
       0.9559547 0.07375018 -0.27167895 -0.156384
000010 80 0a b0 3c 1c 65 9a be
       0.021489382 -0.30155265

fc4.weight f4 [128, 1280]
000000 0f a8 c8 3c 3d 38 d0 bc 6c 87 9a b9 c4 c3 d2 3b
       0.0244942 -0.025417442 -0.00029474066 0.0064320285
000010 cc d9 5e 3c 6d 06 ae 3c d7 36 d2 3c 75 2a ca 3c
       0.0136017315 0.021243298 0.025660915 0.024678448
000020 e2 53 b4 3d 5a c0 67 3c 88 08 fb bc 1a 7b 9f 3c
       0.08805062 0.014144981 -0.030643716 0.01946788
000030 db da b4 bc 50 79 2c 3d 56 7b 47 bc 24 84 19 3d
       -0.022077015 0.04210788 -0.012175402 0.037479535
000040 88 37 8d 3c 7f e3 ef bc db e7 1a bd 04 aa 5a 3c
       0.017238393 -0.029283283 -0.03781877 0.013346199
000050 5f c2 4b 3c 1a 4b 11 bc 4d 53 df bb 7a 71 b9 bb
       0.012436478 -0.008868003 -0.00681535 -0.0056592794
000060 12 fb bb bc ca ec f1 bb 0e 22 d1 bc 2c 1e 35 bd
       -0.022946868 -0.007382964 -0.025528934 -0.044218227
000070 af ab 02 bd b7 24 b6 bc e8 22 a6 bb 03 0e bd bc
       -0.03190201 -0.022234304 -0.005070079 -0.02307797
000080 b6 cd 15 3d 30 4c 44 3c 6c 37 2f bc 4e fa 62 3d
       0.036573134 0.011981055 -0.010694366 0.05541449
000090 62 96 0e bd b9 13 f5 3c 87 e2 dd 3c 48 f1 b1 3b
       -0.034811385 0.029916631 0.027085556 0.0054303743
0000a0 3a a6 4e bc 9e 56 90 3c a7 c3 a1 3c b2 62 15 3d
       -0.012612874 0.017619427 0.019746615 0.036471076
0000b0 89 45 c3 bc 7c f3 17 bc bd 85 50 bd c9 0b 75 3c
       -0.023836868 -0.00927436 -0.050908793 0.014956423
0000c0 77 86 89 bd 7e f5 b8 bc 76 da 27 bb 83 30 84 bc
       -0.067151 -0.022577997 -0.002561239 -0.016136413
0000d0 05 8a 47 3d 57 c9 12 bd d4 55 87 bc f7 03 3c bc
       0.04871561 -0.035836544 -0.016520418 -0.011475555
0000e0 fc 34 8f 3b 03 b1 59 3d 11 47 f5 3c 53 75 21 3d
       0.00437033 0.053147327 0.029941114 0.03941853
0000f0 62 c7 a4 bc ed f6 6a bc 92 06 73 3c da aa 90 bb
       -0.020114604 -0.014341098 0.014833109 -0.0044148983
000100 ff f0 24 3d ef ee 18 bb 75 48 e5 3c 0d 73 5c bb
       0.040268894 -0.0023335775 0.027988652 -0.0033637912
000110 38 05 bc 3c 90 f9 3a ba 2f 1a 37 3d 10 88 cd bb
       0.022951707 -0.00071325246 0.044702705 -0.0062723234
000120 21 14 93 3b f0 ce 30 bd 6e 0a 41 bc bf b5 a0 3d
       0.0044884835 -0.0431661 -0.011782272 0.07847165
000130 44 f3 32 39 51 fa 1b bc d6 2b be 3b f8 63 2a 3d
       0.00017066026 -0.009520129 0.0058035655 0.041599244
000140 16 79 4b 3c ea 64 94 bb c5 b3 14 3d 8d a8 a6 bc
       0.012419006 -0.0045286315 0.036304254 -0.020344043
000150 9d d3 c2 3c 1e c0 9b bb 4d e4 49 3d d1 3a f1 bb
       0.023782546 -0.0047531268 0.04928999 -0.007361748
000160 aa d8 ce 3c db 69 d9 3c 13 2b ad 3c 34 73 62 3c
       0.025249798 0.026539734 0.021138703 0.013821412
000170 bc 11 4c 3d 44 c3 09 bc 4c 8f ee 3c d7 1b 35 bd
       0.0498216 -0.008408371 0.029121064 -0.044216003
000180 86 6e be bc 20 07 f5 ba ac f2 0f 3b a6 b0 67 bb
       -0.023246061 -0.001869414 0.0021964712 -0.0035353093
000190 0b b3 3a 3d 9e ad b2 bc 8f 22 21 bc 90 ad bd 3b
       0.045580905 -0.021811303 -0.0098349 0.0057885125
0001a0 47 6f 1c 3d 4c 05 05 bb 21 df 94 3c 23 a6 22 bd
       0.03819206 -0.0020297347 0.018172802 -0.03970922
0001b0 bf 52 00 3d 54 51 38 bb 61 ba ab bc ac 96 e0 ba
       0.031328913 -0.0028124647 -0.020962896 -0.0017134747
0001c0 ff bd 98 bc bd 2a 68 bd 4a d1 ad bc c8 c9 22 3c
       -0.018645285 -0.056681383 -0.02121796 0.009935804
0001d0 e9 80 10 bd 9e be 48 3d ae 91 19 3d f1 33 ba ba
       -0.03527919 0.04900991 0.037492447 -0.0014206154
0001e0 69 ae 15 bd be e9 f1 bc 65 df 88 3d 96 63 5b bd
       -0.036543284 -0.029530402 0.06683234 -0.05356177
0001f0 c0 58 ab bb 4d fc 45 3c fa 56 fe bb 8d f0 87 3c
       -0.0052290857 0.012084079 -0.0077618333 0.016594196
000200 fc 72 e2 3c 7a 45 d1 bc e6 88 a9 ba d0 f0 26 3c
       0.02764272 -0.025545824 -0.0012934476 0.01018925
000210 5f b8 b9 3c d6 0e cd bc db 65 04 3c f1 ce 1f bd
       0.022670923 -0.025031488 0.008080925 -0.039015714
000220 13 4c b7 3a 22 12 10 bd b0 ec ca 3c 53 c2 74 3d
       0.0013984464 -0.035173543 0.024771065 0.059755635
000230 db c2 2d 3d 80 95 e1 3c 4a 4b 1e 3d e5 29 09 bc
       0.042422157 0.027537107 0.03864602 -0.008371805
000240 f1 7d 71 bd d4 ba d5 bc 50 17 d7 bb 64 c2 01 bd
       -0.058957998 -0.026090063 -0.0065640584 -0.031679526
000250 15 b1 5c bc 68 28 36 bc 0a c3 3c 3c 35 7f d8 3c
       -0.013469954 -0.011118032 0.01152111 0.026427845
000260 a6 02 79 bd f5 c7 31 3d d9 38 c7 bc 59 7f 40 bc
       -0.06079354 0.043403585 -0.0243191 -0.011749112
000270 33 e5 b5 3c 60 20 06 bd 94 3e 89 bc 48 46 50 bc
       0.022204017 -0.03274572 -0.016753472 -0.012712069
000280 37 21 13 3d c7 03 d5 bc f8 76 46 bc c7 2f a1 bb
       0.035920348 -0.026002778 -0.012113325 -0.0049190256
000290 44 aa e3 ba 25 73 33 3c 04 b1 fc 3c c8 51 86 3c
       -0.0017369469 0.010952746 0.030846126 0.016396418
0002a0 a7 c8 d0 bb ed dd 8c 3c 9c b1 1c 3c c3 b2 25 bd
       -0.006371576 0.017195666 0.00956383 -0.040453684
0002b0 32 0e 1e bd 55 e4 b7 3c d5 ab 1f bc af 61 f8 bc
       -0.038587756 0.022447744 -0.009745558 -0.030320017
0002c0 d4 3f e3 bb d2 e0 83 3c e4 e2 da bc 2d 12 0a bd
       -0.006935099 0.016098414 -0.026719518 -0.03370874
0002d0 05 52 3b 3c c8 16 90 3d 95 a9 05 bd 0c 29 2d bd
       0.011433129 0.07035595 -0.03263243 -0.042275473
0002e0 fc 79 3e 3d 59 2a 6a 3c dc 6d 89 3d 39 76 38 3c
       0.046503052 0.014292323 0.06710407 0.011258655
0002f0 57 71 03 3d 0d 8e 8c 3d b5 8e 06 bd 23 d9 b1 bc
       0.03209051 0.068630315 -0.03285094 -0.021709984
000300 93 83 3d bc 24 ec 1e 3c 6f c6 b2 3b b9 07 00 3d
       -0.011567014 0.009699855 0.005455784 0.031257365
000310 3e 22 05 bc 14 ec 6d bb 36 ed ab bc de 17 0f 3c
       -0.00812584 -0.0036304044 -0.020987134 0.008733718
000320 8a 22 c8 3c da 38 0d bb 6b cc 09 3c 86 6c 8b 3b
       0.024430532 -0.0021548779 0.008410553 0.0042548804
000330 1d 4b 61 3b 49 c5 0a bd 7e f4 a9 3c 45 08 75 bc
       0.0034377046 -0.033879552 0.020746466 -0.014955585
000340 83 03 85 bc c0 5c d1 bc 03 a2 99 bc c6 be ff ba
       -0.016237026 -0.025556922 -0.018754011 -0.0019511811
000350 92 d2 b2 bb d3 4a 34 bb 2e 6d 8b bc 11 19 83 3c
       -0.005457231 -0.002751042 -0.017019834 0.016003164
000360 0f cd 23 bc b0 00 dd 3c 13 0a b7 3c 6a eb 51 3c
       -0.00999762 0.026977867 0.022343671 0.012812475
000370 46 c5 1a 3c 7d 43 31 bc bc f8 9b bc 99 f4 b8 3c
       0.009446448 -0.010819313 -0.019039504 0.02257757
000380 8a 96 30 bc b0 ca ab bc 1d bb f6 bc 75 b6 8a 3c
       -0.010778079 -0.020970672 -0.03011852 0.016932705
000390 bc 1c 87 bb 88 4e 88 3c 7d 6d ba bb e7 06 c1 bc
       -0.0041232985 0.01663901 -0.0056893216 -0.023562862
0003a0 69 d9 c0 bc 67 bf 23 bd a8 ce f8 3c ac a9 73 3d
       -0.02354117 -0.039977457 0.030371979 0.059487984
0003b0 66 ff 56 3b 9e 7c c3 3b a7 85 77 bb f0 42 4d 3c
       0.0032806038 0.0059657833 -0.0037768872 0.012528166
0003c0 b4 8b 8f 3c 5c 40 f3 bb da b1 85 ba 8a a4 72 3c
       0.01752267 -0.0074234437 -0.0010200099 0.014809737
0003d0 95 6e 6b bc 62 88 e2 3c bf 51 0f bd 32 a6 87 bc
       -0.0143696265 0.027652923 -0.03499007 -0.01655874
0003e0 85 7a 81 3d d7 73 91 bc 76 79 97 bc 11 d8 1b bc
       0.06322197 -0.017755432 -0.018490534 -0.009511963
0003f0 36 15 2f 3b 05 5c ce 3c a4 29 1a 3d 2e 03 39 3c
       0.0026715524 0.025190363 0.037637368 0.011292262

fc4.bias f4 [128]
000000 fd 7c 0b bb ef 09 bd bc ec 9e 07 bc 55 d3 3e bd
       -0.0021284216 -0.023076026 -0.008277636 -0.04658826
000010 1c 09 6f 3d a6 d9 de bc 81 e5 20 be 52 80 1c 3c
       0.058358297 -0.027203392 -0.15712549 0.009552078
000020 8e cd 9e 3c 5a ea 23 be 02 93 52 bb 63 60 37 bd
       0.019385125 -0.16007367 -0.003213108 -0.044769656
000030 05 31 80 bd 45 3f 07 bc 78 11 dd bd bc bb a4 bc
       -0.0625935 -0.008254831 -0.107943475 -0.02010905
000040 ff ef 13 3d 1f d7 0c 3b a9 e5 91 bd 1b 92 30 bd
       0.03611755 0.0021490527 -0.07123882 -0.043108087
000050 03 f0 d0 bd f7 d5 30 bd fb f9 92 bd c7 b1 34 bd
       -0.102020286 -0.043172803 -0.07176586 -0.044114854
000060 2a 45 c1 ba 15 3e 93 3c e5 67 f5 3c a1 f5 af bd
       -0.0014745344 0.017973939 0.029956767 -0.08591772
000070 5f a5 05 bd b6 bd 15 bd f1 4c 88 bd 36 f7 83 bd
       -0.032628413 -0.036557876 -0.066553004 -0.06443636
000080 10 1b d2 3c 32 68 a3 bd b5 2e 1b 3a 9a 33 26 bd
       0.02564767 -0.07978858 0.00059197407 -0.040576555
000090 c4 d8 8d bb 63 9e 77 bd 8c 31 c3 bc 26 51 40 bd
       -0.004328819 -0.060453784 -0.023827337 -0.04695239
0000a0 ed 0a 2e 3d 2c f5 70 3b 64 b3 41 bd 2a b9 4b bd
       0.04249089 0.0036767228 -0.04729022 -0.049737133
0000b0 47 66 76 bd 17 3c 40 be 8c db a8 bd 86 76 b0 bd
       -0.060156133 -0.18772922 -0.08245 -0.086163566
0000c0 c1 9a 4d bc fd d6 0a bd 60 8f 3a bd 12 8c b1 bc
       -0.012549103 -0.033896435 -0.04554689 -0.021673236
0000d0 3b 8b 1d bd 73 05 b2 bc 70 b7 52 bc 27 5e 92 bd
       -0.03846286 -0.021731114 -0.012861118 -0.071468644
0000e0 0f f1 5a bd 8f 0d 4d ba c5 00 5c bb 90 44 25 bb
       -0.053452548 -0.000782215 -0.0033569795 -0.0025217868
0000f0 f6 94 43 bc 9e 70 1f bc a7 33 e6 bd 21 50 e7 bc
       -0.0119373705 -0.00973144 -0.11240321 -0.02823645
000100 12 b3 6f 3c 08 13 5c 3d 60 d2 6f bd cb 5f 12 be
       0.014630096 0.053729087 -0.05855024 -0.14294355
000110 fd d4 84 bd cb d0 9e bc 80 4a 7c bd d1 e9 c5 bb
       -0.06485937 -0.01938667 -0.061594486 -0.006039836
000120 6b b5 7d 3c fb ae b1 bc 10 98 d2 bd 35 d8 10 bd
       0.015485148 -0.021689883 -0.1028291 -0.03536244
000130 83 a3 bf 3b 0e 4c f8 3b 88 80 0d bd eb e5 29 bd
       0.0058483495 0.007577426 -0.034546405 -0.041479032
000140 a8 6a 3a 3d 90 66 5a bd 6f d3 a4 bc 8e 07 07 bd
       0.04551187 -0.053320467 -0.02012035 -0.03296619
000150 9f ef 5d 3d d6 93 d2 bc 97 1a 89 bc 49 de 42 bd
       0.0541836 -0.02570526 -0.016736312 -0.04757527
000160 f4 67 c4 bc 07 04 c3 bd 91 b0 f3 3b 64 19 ce 3c
       -0.02397535 -0.095222525 0.00743682 0.025158592
000170 0b d5 bf bc 34 1e 3e 3d 0d 2c 3e 3d 8f 00 da bc
       -0.023417016 0.046415523 0.04642873 -0.026611594
000180 44 9c 55 3d 4c 7a 40 bd a6 0b 76 3b 41 1c 28 bd
       0.05215098 -0.04699163 0.0037543564 -0.04104257
000190 82 a2 84 bc 6e 89 9b 3d 87 1a 0a 3c 02 c9 68 bd
       -0.016190771 0.07594572 0.008429176 -0.05683232
0001a0 dc 37 97 3d e8 df 15 bd bc 17 30 ba 92 d0 0e bd
       0.07383701 -0.036590487 -0.0006717404 -0.034866877
0001b0 13 17 26 bb fc 8d 8d bc d9 2b 03 bd ce 8c 62 3b
       -0.0025343343 -0.017279617 -0.03202424 0.003456879
0001c0 dd 3a 60 3c 61 0b ab bd da 58 04 bd 2b 00 07 bd
       0.013685909 -0.0835178 -0.032311298 -0.032959145
0001d0 d9 ff 8a 3d 12 22 1a bd cb fd 30 bd 7a cb 47 be
       0.0678708 -0.03763015 -0.043210786 -0.19511214
0001e0 3a 41 08 3b 7f 6c 90 bb 86 ae 6e 3c 58 fa 2e 3c
       0.0020790831 -0.004407465 0.014567977 0.010679804
0001f0 89 a2 af bc 9d d0 f1 bc 90 19 07 bc 81 7d 0e bc
       -0.021439807 -0.02951842 -0.008245841 -0.008696915

fc5.weight f4 [64, 128]
000000 f4 18 82 bd b8 4f 80 3c 55 34 6d bd 92 3f 40 bc
       -0.06352416 0.015663013 -0.057911236 -0.011733906
000010 f5 20 2b 3d fe 72 5c bd b6 b3 27 be 45 26 16 bd
       0.041779477 -0.053820603 -0.16377148 -0.03665759
000020 25 75 e2 bd 63 3d 85 bd df be 9f bd b5 d6 fe bd
       -0.110575 -0.06505849 -0.07800078 -0.12443296
000030 63 c2 30 3e 38 37 c7 bd 9d 9b 55 bd a2 12 ae 3d
       0.17261653 -0.09727329 -0.052150358 0.08499648
000040 0f f6 43 3c b1 93 46 3b 91 e7 0f 3d 00 be 8d 39
       0.01196052 0.0030300433 0.03513295 0.00027035177
000050 00 c6 9d 3d 6c 41 04 3d 15 f9 08 3c 6a 4f ab 3d
       0.07703781 0.032288954 0.008360167 0.083647564
000060 be 13 86 bd c7 8f b3 bd c6 59 11 3d 55 81 ab 3d
       -0.06546734 -0.08767658 0.035486005 0.083742775
000070 ca 1e a1 3c b1 25 b3 3c 33 1d f3 3c ce 58 bb 3d
       0.019668002 0.021868559 0.02967701 0.091477975
000080 8f 11 a1 bd 4e f5 9d bd 84 8a 6f ba 3f 86 c2 3d
       -0.07864677 -0.07712804 -0.0009137767 0.09498262
000090 f0 c9 e7 3c e9 bf 0d 3d 83 8e 8c 3d f4 b6 2b be
       0.028294533 0.034606848 0.068631195 -0.1676901
0000a0 ff 4f 96 bd 2a 15 4a bd 1c 9b 87 3c 7e 4a 69 3d
       -0.07339477 -0.04933659 0.016553454 0.056955807
0000b0 64 66 51 3c 8f e4 d4 bd 8a ef de bc cc 1f 31 3e
       0.0127807595 -0.103951566 -0.02721383 0.17297286
0000c0 9e 42 32 3d ed cd 85 3c b5 37 f1 bc c8 47 a0 3d
       0.043520562 0.016333545 -0.029445508 0.07826191
0000d0 c7 07 5c 3d 01 b7 b2 bd 22 42 cc 3c 02 80 26 3d
       0.053718355 -0.087263115 0.024933878 0.04064942
0000e0 00 e4 af bd 07 6a 89 3b 94 e9 c9 3d 40 10 16 be
       -0.085884094 0.0041935476 0.098590046 -0.14654636
0000f0 0c 5a 85 3d 4e 1a 0c be 77 3f 9b bd 17 c8 6c 3d
       0.06511316 -0.1368191 -0.07580464 0.057808008
000100 e0 38 05 be d0 91 1c 3c ff be 22 3d 61 8f 0f be
       -0.13009977 0.009556249 0.03973293 -0.14019538
000110 95 b5 1a 3e b1 a6 6b 3d 68 3e 06 3e 9d 84 de bc
       0.1510833 0.057532016 0.13109744 -0.027162844
000120 cf aa 73 bb 6f 45 94 bd ba d5 14 3e 30 ef 9d 3c
       -0.0037180667 -0.07239806 0.14534655 0.019279093
000130 f8 3f eb 3c 35 c0 8a bd da e5 22 3d e7 64 b9 3d
       0.028717026 -0.06774942 0.039769985 0.09052449
000140 53 79 86 3d 5e 8c 8a 3c d4 10 ca bd a9 01 6f bd
       0.065661095 0.016912635 -0.09866491 -0.058351193
000150 dc be e1 3c f2 d9 dd 3d 66 fa ae 3d 1e 13 82 3d
       0.02755683 0.108325854 0.085438535 0.063513026
000160 b3 9f 1e 3e f2 f0 8b 3c 92 12 b1 bc 09 55 55 bd
       0.15490608 0.017082665 -0.0216153 -0.05208305
000170 f2 4d 42 3d 9f 2d ce bd 1d 44 24 bd 07 36 80 bd
       0.047437616 -0.10067295 -0.04010402 -0.06260305
000180 f5 78 d5 bd 63 a0 d3 3d 55 90 a4 3c a3 62 63 3d
       -0.10423461 0.10333326 0.020088354 0.05551399
000190 26 6c a2 bd f6 2f b8 bd d3 b2 91 3d 04 0f 4c 3e
       -0.07930784 -0.08993523 0.07114186 0.19927603
0001a0 f4 01 1a 3d 4e b3 68 3d 13 51 50 bd 9d 0d ff 3c
       0.03759952 0.056811623 -0.05085857 0.031134421
0001b0 e1 d6 dc 3c 38 d2 ec bd af 8e 39 3d f6 38 50 be
       0.026957931 -0.115635335 0.04530209 -0.20334229
0001c0 1f 37 34 3e 89 2c 71 3e e9 07 f5 3c 37 75 a4 bd
       0.17599152 0.23552145 0.029910998 -0.080301695
0001d0 1b 54 41 3d f0 4e d6 3d 6d 25 d2 bc 5e df 26 be
       0.04719935 0.10464275 -0.025652612 -0.16296145
0001e0 2c 26 63 bd 3a d9 16 bd f4 ff 27 be cc 82 dd bc
       -0.055456325 -0.036828257 -0.16406232 -0.027039908
0001f0 32 23 ef bd 06 7b 00 3e bd 4c 99 3a 8e cd d1 bd
       -0.11676635 0.1254693 0.0011695843 -0.102442846
000200 eb c5 2f bc f6 bb e3 3d 90 aa 79 3d 80 c3 fb bc
       -0.01072834 0.11119835 0.060953677 -0.03073287
000210 c3 06 cf bd 68 51 ae bd b9 4e e0 bd 94 3f 60 3d
       -0.101087116 -0.08511621 -0.10952515 0.054748133
000220 c9 4a e9 bc 5a a9 a1 bd 73 b5 c6 3d 12 d3 21 3d
       -0.028478043 -0.07893629 0.097025774 0.039507933
000230 5f a2 67 3d b5 7b 3c 3e c8 92 07 be 92 ee a2 bd
       0.056551334 0.18406565 -0.13239586 -0.0795566
000240 d7 49 97 3d f3 d2 ac bd e7 df bb bd 46 2b 2d bd
       0.07387131 -0.08438673 -0.09173565 -0.042277597
000250 ef 3a 89 bd f3 70 bc bd 44 0f f3 bd 2a 35 de bc
       -0.06700694 -0.09201231 -0.11868146 -0.02712496
000260 60 00 83 bd f6 41 be bd 84 16 d8 3c fe 77 13 3c
       -0.06396556 -0.09289925 0.026377924 0.009000776
000270 23 66 48 3a 82 8f 0b 3d ab a1 b0 bd df f1 ac bd
       0.0007644614 0.034072407 -0.08624586 -0.08444571
000280 87 e7 b3 bc e3 ee 90 3e e6 79 6a bd 19 e3 a3 bd
       -0.021960987 0.28307256 -0.057245158 -0.080023
000290 c7 66 d3 bd 65 c6 10 be 51 d4 c7 3d 8f 59 62 3d
       -0.103223376 -0.14138182 0.09757293 0.05526119
0002a0 40 0f 14 3d d8 62 46 bd 8f a9 5f bd a4 61 13 3d
       0.036147356 -0.04843411 -0.054605063 0.03598179
0002b0 23 ae fd bd 40 3a 93 bb e4 c6 eb bb a3 2f ae 3b
       -0.123867296 -0.004493028 -0.0071953405 0.0053157373
0002c0 10 8c b1 3d c4 5f 0f bd ff 8d 57 3e 2b b9 d6 3d
       0.08669293 -0.03500344 0.21050261 0.10484537
0002d0 03 af 9f 3d 0b ba 1c bd 8c 06 7e 3b 86 3f f7 bd
       0.07797053 -0.038263362 0.0038761226 -0.12072663
0002e0 05 38 b2 3c e2 4d 0a bc 74 0f a4 bd 0c 08 42 3d
       0.021755228 -0.00844142 -0.0801076 0.047370955
0002f0 45 c5 f8 3d 71 45 e8 3d 61 e8 fc 3d 67 6f 11 3a
       0.12147001 0.1134137 0.1234901 0.0005547911
000300 04 23 12 3d 83 86 9a bc fb be 47 3d 94 1b b9 bd
       0.035677925 -0.018862968 0.048766118 -0.09038463
000310 96 e3 83 3d 63 fd 55 3d f1 2f 4a bd 45 bd 99 3c
       0.06439893 0.0522436 -0.049362127 0.018767009
000320 77 5f 5f 3d 1c 54 b7 3d 29 3b 5c bd 62 65 65 bd
       0.0545344 0.089515895 -0.053767357 -0.05600489
000330 16 ec a9 3d f1 07 a4 bd c0 11 a4 bd b9 71 80 bc
       0.08296983 -0.08009327 -0.08011198 -0.015679227
000340 a7 c7 c5 bd 77 ad 27 bd 69 42 47 bc ae b5 d7 bd
       -0.09657221 -0.040936913 -0.0121618295 -0.105326995
000350 94 49 d7 bd c3 89 56 bc f6 c6 bc 3c 4c 70 69 39
       -0.10512081 -0.013094368 0.02304409 0.00022262445
000360 03 e7 cd bd e6 54 2b be 65 df 63 3d 6e 01 d4 bd
       -0.100538276 -0.16731605 0.055632968 -0.10351835
000370 c8 4a 83 3d 6f 25 d1 3d 81 f0 1b 3c 6a a8 5b 39
       0.06410748 0.10212218 0.00951779 0.00020948207
000380 8f 2c cc bc 91 d1 46 3d 51 a7 eb bc 1f 53 2f 3c
       -0.024923591 0.0485397 -0.028766306 0.01070097
000390 37 3c 42 3e e2 d2 1e be 1e cd ef 3b 3d 15 56 bd
       0.18968283 -0.15510133 0.007318153 -0.05226635
0003a0 21 1f ae bd 1f 0b 0d be 53 27 e6 3d e9 94 24 3e
       -0.08502031 -0.13773774 0.11237969 0.1607243
0003b0 94 f7 57 bd 01 84 b1 3d e1 f1 82 bc 85 bb 9a bd
       -0.052726343 0.08667756 -0.015984477 -0.07555298
0003c0 97 28 d7 bd 6b 6a 6b 3c ea f9 08 3e b0 09 03 3e
       -0.10505789 0.014368634 0.13376585 0.12796664
0003d0 b7 d8 2f be e7 d2 95 3d ee 48 11 bd 1f 42 88 bc
       -0.17172514 0.07315617 -0.03546994 -0.016633091
0003e0 4c ce b8 bc ff 0d 14 be cb 53 f5 bc 79 71 ec 3d
       -0.022559308 -0.14458464 -0.029947182 0.11545081
0003f0 7d 9e 4f be cf fe 61 3d e9 5e 2e bc 8f 01 0b 3d
       -0.20275302 0.055174645 -0.0106427455 0.033937033

fc5.bias f4 [64]
000000 95 02 6a 3d 1a 79 83 bd c1 c5 a7 3d cb 76 58 3d
       0.05713137 -0.06419583 0.081920154 0.052847665
000010 0a 50 46 3d 82 e2 ea 3d da 66 ff bb bd 3b d9 3d
       0.048416175 0.11468984 -0.0077942433 0.10607097
000020 75 e9 a8 3d 8c f6 c1 bd 8c 89 ab bd d5 75 5f 3b
       0.082476534 -0.09470853 -0.08375844 0.0034097333
000030 5c b5 84 3d 06 9d 9c bc 23 1b 59 3d 99 0a b9 3c
       0.06479904 -0.019117843 0.053004395 0.022588061
000040 cd 59 f6 ba 80 1c 9b bd e4 86 3e bc ff 86 ac bd
       -0.0018795073 -0.07573795 -0.01162884 -0.08424186
000050 24 ce 0a 3d b1 25 68 bd 23 f5 af 3d 43 5a 0f 3d
       0.033887997 -0.05667657 0.08591678 0.03499819
000060 a4 a8 53 bd 03 d3 2c 3d d5 15 52 bd 3e ba c8 bd
       -0.0516745 0.042193424 -0.051290352 -0.09801148
000070 b5 aa cf 3d 17 06 16 3c bf 97 98 3d c6 b8 ce 3a
       0.10139982 0.009156725 0.07450818 0.001577162
000080 f6 b9 17 bd 0b 14 fd bc c0 40 6e bc 05 31 e6 3d
       -0.03704258 -0.030893346 -0.014541805 0.112398185
000090 21 2e bb 3d cd 64 00 3e b3 62 a0 3c cc f4 db bc
       0.09139658 0.12538452 0.019578313 -0.026850127
0000a0 93 b3 b0 ba ab dc e4 3d 6f 93 8d 3d 00 8c d8 bc
       -0.0013481252 0.111749016 0.06912886 -0.026433945
0000b0 6d 40 59 3d 52 ec 89 3b fc 14 a3 bb 15 eb ca 3d
       0.053039957 0.00420908 -0.0049768668 0.099081196
0000c0 b3 5a 2c 3c 0b 67 5b 3c 23 f1 51 3d d7 05 b9 39
       0.010519671 0.013391267 0.051255357 0.000352903
0000d0 19 54 28 3d 47 d1 02 3d db 65 83 3d e1 98 28 bd
       0.041095827 0.031937864 0.06415912 -0.04116142
0000e0 9c 62 3a bd 66 7a eb bd 4e 72 30 bb 7c 21 9e 3d
       -0.045504197 -0.11497955 -0.00269236 0.077212304
0000f0 d3 70 50 bd 9d 7b 81 bc a0 84 e5 bb 3d 4f c6 bd
       -0.050888848 -0.015806014 -0.0070043355 -0.09683082
