models/0.7/0.pt (torch, 747117 bytes, 12 tensors)

fc1.weight f4 [128, 36]
000000 2b a3 25 3e a9 b3 f2 3d d6 62 b1 bc fe fe 2d be
       0.16175525 0.11850674 -0.021653574 -0.16991803
000010 c1 41 66 3c b5 12 fb 3d 0b 58 a1 bd 6f 59 f2 3d
       0.014053763 0.122594275 -0.07878121 0.11833464
000020 e5 c6 19 3e f8 49 46 3e 82 f7 93 bd f2 f3 a9 bd
       0.15017278 0.19364154 -0.07224943 -0.08298482
000030 1a b3 1c be 48 ef e5 bc 0c 21 0c be 6f d9 f7 3d
       -0.15302697 -0.0280682 -0.13684481 0.12102019
000040 df 84 08 3d b7 ed 52 3d 4b 9a 9a 3d 4b 0a fa 3d
       0.03332984 0.051496234 0.0754896 0.122089945
000050 72 53 a0 bc 89 4c 7c be 73 96 63 3e 2e 3f 5d be
       -0.01957104 -0.24638571 0.2222536 -0.21606132
000060 b0 c2 49 3d eb 5a ee bd 67 05 13 be fa 46 61 be
       0.049257934 -0.11638435 -0.1435753 -0.21999732
000070 e5 00 c8 bd 0b 75 88 3c d0 27 a2 bd e8 d5 22 3e
       -0.097657956 0.016657373 -0.0791775 0.15901911
000080 c7 ef c6 bd 18 11 a1 bc 38 fd ac 3e 93 bb 3c bb
       -0.09713703 -0.019661471 0.3378694 -0.0028798326
000090 92 94 96 3d 7d b3 03 3e 83 f3 37 bd 26 92 94 3d
       0.07352556 0.12861438 -0.044909965 0.07254438
0000a0 da 57 58 3d 4c d4 07 be d2 3a c5 3d 4a 74 fc 3d
       0.052818157 -0.13264579 0.0963036 0.12326868
0000b0 c8 cc fd bd 1f b2 a8 3e c7 ef 6e 3d 14 bb ba be
       -0.123925745 0.32948396 0.05833414 -0.36470854
0000c0 b8 0f de 3d 9d 05 15 3d 9b 1d c4 3d 2f 18 2e 3e
       0.10842842 0.036382306 0.09575959 0.17001413
0000d0 fe c1 dc 3d 0d 1a 24 be 88 f8 9c bb cb 74 ec 3d
       0.107791886 -0.16025563 -0.0047903694 0.11545714
0000e0 61 95 f0 3d e4 f4 fb 3d 48 d8 4a 3e ba 53 d5 bc
       0.11747242 0.123025686 0.19809067 -0.0260409
0000f0 00 fa 20 3e 9b 9b 3a 3d 11 40 59 bd 47 22 b6 3b
       0.15720367 0.045558553 -0.053039614 0.0055582854
000100 4e 76 98 3e e7 32 93 3d 64 e3 8e 3c 40 e6 8b bd
       0.2977776 0.07187443 0.017442413 -0.06831026
000110 de 75 30 3d d2 7f 7c bb 8c fa 01 bd 6a cf f2 3d
       0.043081157 -0.0038528335 -0.03173308 0.11855967
000120 67 2d 29 be cd 84 e1 3d ab a0 db bd 96 c0 10 3e
       -0.16521226 0.11011658 -0.10724004 0.14135966
000130 2e 3e 96 3e b5 e9 11 bc 82 6b 02 be f4 9a bb 3d
       0.29344314 -0.008905818 -0.12736323 0.09160414
000140 a2 18 b3 bd 1c f0 ef bc cb bb fc 3d 18 dc a4 3d
       -0.08744933 -0.029289298 0.12340506 0.08049792
000150 d4 b3 78 3d f5 db 0a 3e b3 df e3 bc 52 4f 49 3d
       0.060718372 0.1356047 -0.027816629 0.04914791
000160 bc c5 09 3e b3 64 c8 3c 8c d0 2e 3d fb d5 f8 3d
       0.13454336 0.02446208 0.042679355 0.121501885
000170 f6 d4 f7 3c 79 e3 23 bd e4 3b 57 3e 2d 1c 1a 3d
       0.030252915 -0.040011857 0.2101894 0.037624527
000180 f3 e0 d9 3d c9 f7 99 bd 12 55 a9 bc 18 19 a6 be
       0.10638609 -0.075179644 -0.020670447 -0.3244102
000190 53 90 83 be f9 9e f6 3c 03 3f d9 3d 72 70 79 3d
       -0.25696048 0.030105101 0.10607722 0.06089825
0001a0 66 1e 27 3d c2 fb 69 be 55 5e 3d be 44 b4 80 bd
       0.040800475 -0.22849944 -0.18493016 -0.06284383
0001b0 ab 07 8e bd 54 c6 df 3d 8b 2a 86 bd d5 8d 72 be
       -0.06935056 0.109265 -0.06551083 -0.23686917
0001c0 33 c6 8d 3e 0e 3b a6 be 72 e3 08 be ef a1 e0 bd
       0.27690277 -0.3246693 -0.13368014 -0.109683864
0001d0 65 8d 91 3d b7 2a 99 3e af 70 92 be ad 89 53 3d
       0.07107047 0.299154 -0.28601596 0.05164497
0001e0 ef af b5 bd 2d 61 6c bc ea 6a fa 3d 95 78 96 be
       -0.08871447 -0.014427465 0.122274235 -0.29388872
0001f0 9c 5b 00 bf 15 89 1b 3d d0 ed ff 3d cc a1 1c 3d
       -0.50139785 0.03797253 0.12496531 0.03824024
000200 c1 27 2a be 0f 68 6f 3e 37 03 b6 bd b0 35 4b 3e
       -0.16616727 0.23379539 -0.08887332 0.19844699
000210 33 6b 0c 3d 3f 23 fc 3c 3d 6c a7 3d dd e3 d7 bc
       0.03428192 0.030778525 0.08174942 -0.02635377
000220 53 5c cc 3d f8 a1 ea 3d 6d 3b be bc 45 83 48 bd
       0.09978547 0.11456674 -0.023221696 -0.048953313
000230 ba e2 91 3c c1 7b 3c 3f b3 e8 ab 3d bb a6 85 be
       0.017808307 0.73626333 0.08393993 -0.26103768
000240 39 1d de 3d e2 26 48 bd 70 98 12 be db 07 da bd
       0.108454175 -0.048865207 -0.14315963 -0.106460296
000250 48 5c 40 3e 86 c6 6b bd b9 46 17 bd 36 b0 bf bc
       0.18785203 -0.057562374 -0.03693268 -0.023399454
000260 85 50 25 be 80 63 56 3d 09 79 14 be 36 90 8f 3d
       -0.16143997 0.052340984 -0.14499296 0.07009928
000270 e3 54 bf bd 32 fa f2 3d 3a 13 20 3e 27 ba c2 3c
       -0.09342363 0.11864127 0.15632334 0.023770405
000280 7e f2 a2 3c 4a 90 1a 3e 07 b3 10 be 68 21 98 bd
       0.01989102 0.15094104 -0.14130794 -0.07428247
000290 73 0a 79 3d cd d1 89 3b c1 22 3a 3e c6 a1 19 3c
       0.06080098 0.0042059184 0.1817732 0.009376949
0002a0 18 82 24 3e f9 e2 03 3d 09 e3 8d bd 05 36 ca bd
       0.16065252 0.03219888 -0.06928069 -0.09873585
0002b0 b3 6e 62 be 84 48 11 bc 1a 3e 10 be fe 15 d9 bd
       -0.22112541 -0.008867387 -0.1408619 -0.10599898
0002c0 bf dc db 3d 2f 56 dd be c1 85 01 be 92 b3 9c 3d
       0.10735463 -0.43229815 -0.1264868 0.07651438
0002d0 bd 76 f5 bd 50 9c 0f be 5f 1a 82 3d 73 ab 55 bc
       -0.11985538 -0.14024472 0.06352686 -0.013041365
0002e0 97 43 5e be 5b e2 2d be b6 b6 d0 3d e1 20 c0 bd
       -0.21705471 -0.16980879 0.10191099 -0.09381271
0002f0 d4 f5 7f bd 17 61 68 bc 1b c5 aa 3e 42 0c 50 be
       -0.0624903 -0.014183304 0.33353505 -0.20317176
000300 63 cb 81 3d 31 be c6 bb fd 39 cd 3d bd 42 5f 3e
       0.06337621 -0.006065153 0.10020826 0.21802802
000310 1a ef 83 3e 32 8a 33 bd 3f 2b 0b be 33 83 ab bd
       0.25768358 -0.043832965 -0.13590716 -0.08374634
000320 f5 cf 25 3e 47 10 cc bd 1c c2 08 3e aa bd f6 bd
       0.1619261 -0.09964042 0.13355297 -0.12047894
000330 6b ab 8e bc b0 d2 17 3e b8 99 12 be 70 4b 5c 3d
       -0.017415723 0.14826465 -0.14316452 0.05378288
000340 c4 ed b1 bd 03 f3 2f 3d 74 16 cd bd b1 5a 5c ba
       -0.08687928 0.042956363 -0.10014048 -0.0008405848
000350 c1 b8 03 3e 51 d7 9b bc 7d 21 88 bd 88 4d 9d 3d
       0.12863447 -0.01902357 -0.066470124 0.076808035
000360 f9 02 bd 3d 62 ed b6 3d 71 12 06 3d 9e 75 a6 3e
       0.092290826 0.08931996 0.03273243 0.3251161
000370 03 c7 27 bd 45 8e 28 be 1c 42 bd bd ca 2e 19 be
       -0.040961277 -0.16460522 -0.09241125 -0.14959255
000380 c0 1b f7 bd 1d 66 3f 3e 9e 34 56 be 1c 14 fa 3d
       -0.1206584 0.18691297 -0.2091851 0.12210867
000390 9b d4 e4 3d 65 70 23 3e f5 7d 57 3d 6b 18 8e ba
       0.11173364 0.15960844 0.052610356 -0.0010841017
0003a0 b7 d4 de 3c 76 d2 05 3d 45 60 01 3e bd 12 0b be
       0.02720104 0.032671414 0.1263438 -0.13581367
0003b0 8d ca fd bd 67 ad 5f bc 6f 0c d1 bd 27 bb 3e 3e
       -0.12392149 -0.013652182 -0.1020745 0.1862608
0003c0 61 99 90 3c c0 2f 1e 3e 7c 43 a3 3d fe 4d 08 be
       0.017651262 0.15447903 0.07971856 -0.13311002
0003d0 d1 5a be bd 10 76 41 3e 4e 14 0a 3e ae a5 60 3d
       -0.092946656 0.18892694 0.13484308 0.054845504
0003e0 41 60 e7 bd 7b 2a 41 3e 36 fe 00 bd 18 86 da 3d
       -0.11297656 0.18863861 -0.031492434 0.106701076
0003f0 ee 35 af bc 76 7a e8 bc cd df 6f bd eb c6 34 3e
       -0.02138802 -0.028378706 -0.058563042 0.17654006

fc1.bias f4 [128]
000000 df 1a 70 3e 0f 38 c3 3e d6 2d 6d be 34 29 e2 bd
       0.2344775 0.38128707 -0.23162016 -0.11043015
000010 1d 38 86 bd 5e 9e 05 3e cf 71 08 3a 85 b0 8b 3d
       -0.065536715 0.13048694 0.0005204947 0.06820778
000020 47 06 5b 3e b7 85 c7 3d 5a 3c 03 3b fd 56 2a be
       0.21389113 0.09742301 0.0020024986 -0.16634746
000030 b6 bf 54 3e 34 1d 3f be d8 d4 60 3e ad cb a8 be
       0.20776257 -0.18663484 0.21956193 -0.32967892
000040 83 f0 e6 3d d6 77 52 be 53 f4 08 be 7d 4a 34 be
       0.11276343 -0.20553526 -0.13374452 -0.1760654
000050 f8 88 09 3e b9 1f 9a 3d 95 93 ee 3d 27 f6 33 be
       0.13431156 0.07525582 0.11649243 -0.17574368
000060 98 49 0e bb df 41 0a be 98 37 ec bd 41 51 05 be
       -0.0021711346 -0.1350169 -0.11534041 -0.13019277
000070 5e 26 49 be 0b ea da bd af 6b 3d 3e 8d a7 e9 bd
       -0.19643542 -0.106891714 0.1849811 -0.11408911
000080 41 66 c0 bd 91 45 43 be 6e d6 57 3e a8 e7 40 3c
       -0.093945034 -0.19069506 0.21077892 0.011773981
000090 6b 4d 63 be 74 57 78 3d 1d 67 96 3d fb 40 9e 3d
       -0.22197501 0.060630277 0.07343886 0.07727238
0000a0 36 5e f6 bd 9d 78 a2 3d f2 56 ff 3d 1b 7d 02 3e
       -0.12029688 0.079331614 0.124677554 0.12743036
0000b0 12 a8 36 be 9a 50 ff bb d5 4c 4d be 1f 1b 3a be
       -0.17837551 -0.007791591 -0.2004884 -0.18174408
0000c0 83 9c 4c be 3a 47 c0 3d 98 02 82 be 4c 6e 68 3d
       -0.1998158 0.093885854 -0.25392604 0.056745812
0000d0 c7 c4 7e be 1e 2c 05 3e ee 38 03 be 0d a0 5b be
       -0.24879752 0.1300511 -0.12814686 -0.21447773
0000e0 5f fa a1 bb 1e 02 ac 3d b4 66 95 3d 8b 8f 83 be
       -0.0049431766 0.08398841 0.0729498 -0.25695452
0000f0 a5 6f 0b be eb 10 5c be a3 96 ec bd 2b 08 23 bc
       -0.13616808 -0.21490829 -0.11552169 -0.009950678
000100 c1 92 82 3d 80 29 fd 3d c8 8e 85 3d 9b 39 75 be
       0.06375647 0.12361431 0.06521374 -0.23947756
000110 df d1 78 3c 24 2c 04 3e 82 2e 10 be 65 d5 be 3d
       0.015186756 0.12907463 -0.14080241 0.093180455
000120 4f a4 d0 bb 5b a2 c4 3d 5a 22 34 be ce f2 7e be
       -0.0063672434 0.09601279 -0.17591229 -0.2489731
000130 ba 64 9f be 37 e3 7b 3d 40 1d 8a 3d e9 04 60 3e
       -0.31131536 0.061495986 0.0674386 0.21876873
000140 cc 4d 63 3c 37 43 f8 3d d7 c1 db bd 07 b0 a5 3d
       0.013873529 0.12122195 -0.107303314 0.08090215
000150 9d a9 39 be 8d 25 e7 3d ac 68 4a 3c 20 4c d0 3d
       -0.18131109 0.11286459 0.012354057 0.1017077
000160 58 60 d2 3d 19 95 b5 3d b0 2a b7 3d 02 19 6b be
       0.10272282 0.08866329 0.08943689 -0.22958758
000170 3c 70 97 3e 17 30 d1 3c 9c 23 33 be 70 9c 58 3e
       0.29577816 0.025535626 -0.17494053 0.21153426
000180 f5 2f 11 be 62 aa a9 3d 09 d3 7f be 12 98 74 3e
       -0.1417845 0.08284451 -0.24982847 0.23886135
000190 aa 75 4b be 6e cd cc 3d 48 0d 67 be 8b d7 d8 bd
       -0.19869104 0.1000012 -0.2256366 -0.105879866
0001a0 af 9c 89 3d f2 1b ad 3d aa a6 51 be c2 15 af bd
       0.06719338 0.08452596 -0.20473734 -0.08549072
0001b0 65 56 4e 3e b5 51 1f be 4a 4c 0c 3e d0 fb cf 3d
       0.20150144 -0.15558513 0.13700977 0.10155451
0001c0 ce 2d a3 3d e8 32 c7 3d 1e 84 cb bd 2b 0e 25 bc
       0.07967721 0.097265065 -0.09937309 -0.010074179
0001d0 6e e1 aa 3d 69 77 3b 3e cf 13 58 3e b7 c8 b0 be
       0.083437786 0.1830727 0.21101306 -0.34528133
0001e0 a6 5e c1 3d 6e 9c b9 3d 90 b7 80 be 6a 96 e1 bd
       0.09441881 0.0906304 -0.25140047 -0.11015017
0001f0 f2 8d f8 3d 49 be 9a 3d 46 42 8a 3d 64 20 03 be
       0.12136449 0.07555825 0.06750922 -0.12805325

fc2.weight f4 [64, 128]
000000 ba e4 a3 3b 86 48 7b 3e 9a a2 6a 3d 4c ac f3 bd
       0.0050016316 0.24539384 0.057283975 -0.118980974
000010 5c 8b 19 3d 2b 9e 07 3e b7 7c 10 be 06 8a 62 bc
       0.03748642 0.1324393 -0.14110075 -0.013826853
000020 ac 01 80 bd fa 47 82 3d 10 97 0b bd 64 68 83 bd
       -0.06250319 0.06361385 -0.03407961 -0.06416395
000030 ae 56 d7 3b ab 0d cd 3d 28 15 67 3d 06 c9 78 bd
       0.0065716123 0.100123726 0.05641666 -0.060738586
000040 99 a2 91 bd 45 cf 0a 3d b4 eb 7f bc df 17 5f 3a
       -0.07111091 0.033889074 -0.015620161 0.0008510332
000050 1c ad 5d bd 6d fa b4 be 7a e7 a1 3d 9b 74 a9 3a
       -0.054120168 -0.3534731 0.07905479 0.0012928428
000060 eb c7 9b 3d 07 97 8f bd a3 81 66 3d 53 20 68 bd
       0.07606491 -0.07011228 0.056275975 -0.05667145
000070 da 58 a8 bd 66 d2 c0 bc 79 7b 10 be 98 c3 0c bd
       -0.08220072 -0.023537826 -0.14109601 -0.03436622
000080 1f 82 69 3c 48 e0 f0 bc 9a 69 20 3e 20 8e 30 3e
       0.014252215 -0.02940382 0.15665284 0.17241716
000090 89 78 63 3c a5 b8 99 bd 71 16 ab 3d 05 2b 92 bc
       0.013883718 -0.07505921 0.0835389 -0.017842779
0000a0 b8 e8 28 bd b0 2e 1d 3d 08 03 5c bd 17 cc 34 3e
       -0.041237563 0.038374603 -0.05371383 0.17655979
0000b0 37 70 f7 3b 25 3f 30 be 6c 42 6b bd 2e b4 de 3c
       0.007551219 -0.17211588 -0.05743639 0.027185526
0000c0 50 7d 78 bd 87 6b 7a 3c f4 b2 61 bd c2 47 a4 3d
       -0.060666382 0.015284426 -0.055102304 0.08021499
0000d0 9a a7 35 3d 2f 45 6a 3d 01 18 8d bd 29 6f 08 bd
       0.04434929 0.057194885 -0.06889344 -0.033309136
0000e0 a9 fc 0f 3d 5e 65 24 3d 6f e9 e0 3c d7 3f a4 3d
       0.035153065 0.040135734 0.02745506 0.08019989
0000f0 0e 6c 96 bd af 7f b3 bd 35 ff de 3a c4 7c 8a be
       -0.073448285 -0.08764588 0.0017013313 -0.27048314
000100 22 fb 56 3d b6 82 d1 3d 1a 14 a7 3c 37 5d f3 3b
       0.052485593 0.10230009 0.020395327 0.0074268836
000110 54 18 09 3e c4 74 62 bd 58 ba 22 3d 60 68 1d 3d
       0.13388187 -0.055287138 0.039728492 0.038429618
000120 7c 37 00 3d 8c 88 d8 3d 5a 89 c8 3d 1b 4f 70 bc
       0.031302914 0.10572919 0.09791823 -0.014667298
000130 45 fd fa bc de 8b e0 bc 5f c4 c5 3d 8a b1 34 be
       -0.030638346 -0.027410444 0.096565954 -0.17645851
000140 9f 76 ce 3d 9d a2 28 3d 06 70 06 bd 3e cc 46 3d
       0.10081219 0.041170705 -0.032821678 0.048534624
000150 4f 6c de 3c 38 47 8d 3d d5 a9 10 be f3 00 85 3d
       0.027151255 0.068983495 -0.14127286 0.06494322
000160 3c 8a 2c 3e 72 f2 8e 3c 87 36 90 3d 37 75 4d 3d
       0.16849607 0.017449591 0.0704165 0.050160613
000170 5c 4d 97 bd 0b 4d 61 3d ca 09 29 bd 8f 72 68 3e
       -0.07387802 0.055005115 -0.0412691 0.2269995
000180 79 ca ed 3d 2a 1a 76 3a 34 1e 09 bd be 4d 46 3d
       0.11610884 0.0009388054 -0.03347607 0.048413984
000190 39 a2 40 ba 76 e5 4b 3d d6 f8 d9 ba bb e7 c9 3d
       -0.0007348392 0.049779378 -0.0016629945 0.09858652
0001a0 d5 52 87 3d 21 91 7c 3d d5 55 83 3d 5c b9 e2 bd
       0.06607596 0.061661843 0.064128555 -0.11070511
0001b0 8a db 0b 3e 32 ab 8b bd cc 08 d3 bd a5 d5 5e 3d
       0.13657966 -0.06819762 -0.10304412 0.054402966
0001c0 f0 0c 9a bc 07 87 d3 3d ea 0f e5 3c 9a b5 1a be
       -0.018804997 0.10328489 0.02796169 -0.15108338
0001d0 d4 42 48 bc f5 0f 23 3d fb 7e e8 3d fd 5a 14 bd
       -0.012222964 0.03981014 0.113523446 -0.036219586
0001e0 9c c6 8c 3d d9 ed 21 3c ba 8e 86 bc f4 ea 86 3d
       0.06873819 0.009883367 -0.01642548 0.065877825
0001f0 07 75 23 bb b4 95 e6 3c 5e c3 01 3e 83 85 f6 bd
       -0.002494158 0.028147556 0.12672183 -0.12037184
000200 6c 71 15 bc af 5c df 3d cb 2b fa bd ca 1f 1d be
       -0.00912128 0.1090635 -0.12215384 -0.15344158
000210 4c 70 87 bd 15 c0 cd 3d e7 2e b5 3d 76 b1 91 3b
       -0.06613216 0.10046402 0.088468365 0.004446204
000220 38 44 ef 3c 98 dd 2f bd 96 a4 06 3d 8b 96 05 be
       0.029207334 -0.042935938 0.032871805 -0.13045709
000230 8d f2 16 be d4 91 60 bd df bd 0d be ee 61 3e be
       -0.14740963 -0.054826573 -0.13841961 -0.18592045
000240 7a 88 85 bd 16 7e 85 bd a9 30 34 3d ac b1 da bd
       -0.065201715 -0.065181896 0.04399172 -0.106784195
000250 e3 d0 23 bd c8 0d 19 be 6b db 84 bd 72 ed 26 bd
       -0.03999413 -0.14946663 -0.06487163 -0.04075379
000260 5e 9b f5 3d ef cb 22 3c 36 ba ab bd 6e 3c c4 bd
       0.119925246 0.009936317 -0.08385126 -0.095818385
000270 cc 09 b3 bd 58 d7 04 be 9d b3 be bd f7 80 1f be
       -0.08742103 -0.12972772 -0.09311602 -0.1557654
000280 9e 6e 81 bd bb e6 92 bc fc 20 01 3d 3f 0f b2 3d
       -0.06319927 -0.017932286 0.031525597 0.08694314
000290 41 69 53 bd 8e 38 f3 bd 33 42 cc bc 1a d3 04 bd
       -0.05161405 -0.11876021 -0.02493391 -0.032427885
0002a0 a0 ca fb bd 20 74 15 bd fd 19 39 be f0 b0 81 bd
       -0.12294507 -0.0364877 -0.1807632 -0.06332576
0002b0 5f 32 1f bd d3 69 98 bc 8e 10 ff 3c fa 07 05 3c
       -0.038866397 -0.018605148 0.031135824 0.008119578
0002c0 ab 35 1b be a3 a6 c8 bd e4 42 31 be 26 bb 75 bd
       -0.15157191 -0.097974084 -0.17310673 -0.05999293
0002d0 57 27 ad bd 0c 95 93 bd 3f d9 31 bd 1d d9 e7 bc
       -0.08454769 -0.07206163 -0.043420073 -0.02830177
0002e0 e0 32 d7 bc fb 08 f4 bd 88 26 f5 bd 1e f6 0d bd
       -0.026269376 -0.119157754 -0.1197024 -0.034658544
0002f0 b3 64 1a be f5 dd fc bd d8 50 fa bd 36 cc ed bd
       -0.15077476 -0.123470224 -0.12222451 -0.11611216
000300 94 a7 79 bd 39 e8 b3 bd a6 15 74 bd 1a b1 1e bd
       -0.06095083 -0.08784527 -0.059590958 -0.038743116
000310 b4 77 e6 3d 2b bd cf bd c6 94 8c 3c 32 44 b0 bd
       0.112533 -0.10143503 0.017160784 -0.08606757
000320 9f 63 6c bd 09 35 24 bd 18 6b 47 bd 57 e6 0b be
       -0.057712194 -0.04008964 -0.048686117 -0.13662086
000330 2f 43 32 be 85 4f 0a bc 73 4a 02 be 26 1b e4 bd
       -0.17408441 -0.0084418105 -0.12723713 -0.11137991
000340 94 65 0a 3e 69 7c f8 3d e2 27 a5 bd e3 54 ff bb
       0.13515311 0.12133104 -0.08064248 -0.0077921017
000350 a3 e8 99 bc f3 bc 5f bd 4b d8 2e be e1 d4 0d be
       -0.018787688 -0.054623555 -0.17074697 -0.13850738
000360 1d 62 cd 3d b1 42 fd bd bf ac b6 3c 2c db 27 be
       0.10028479 -0.12366236 0.022299169 -0.16392201
000370 8c d4 c3 3c 45 50 af bd 9b 2e ca bd ea c1 c7 3d
       0.023905061 -0.08560232 -0.098721705 0.09753783
000380 b3 4a 35 bd b2 3b 9b bd 1c 16 d7 3c 81 36 d8 bb
       -0.04426069 -0.07579745 0.02625566 -0.0065982942
000390 55 13 18 be e0 a2 87 bd 1b 27 ae bb 5a 9f 1d bd
       -0.14851125 -0.06622863 -0.0053147203 -0.038482048
0003a0 32 bb 9a bd 72 bd bf 3d 7b c4 3d be 16 90 44 be
       -0.07555236 0.09362306 -0.18531983 -0.1919559
0003b0 7e c6 67 3d 08 10 37 bd 4d 8e 6d bd b0 e8 f4 bc
       0.05658578 -0.044693023 -0.057997037 -0.02989611
0003c0 2c 37 13 be 76 c6 df 3d 66 c8 81 bd a6 96 79 3d
       -0.14376515 0.10926525 -0.06337051 0.060934685
0003d0 4b a9 de bc 36 c3 c9 3c 90 02 c0 bc 0b 81 66 bd
       -0.027180335 0.024629217 -0.023438722 -0.05627541
0003e0 ad 82 f5 bd c2 25 ae bc 01 7b 0a be c8 a1 cb 3c
       -0.11987815 -0.021258239 -0.13523485 0.024857417
0003f0 89 71 9a bd 7e 1d ac bd a9 bb 85 bd fc 42 81 bd
       -0.07541186 -0.08404063 -0.06529934 -0.063116044

fc2.bias f4 [64]
000000 d0 dc 11 3d 10 a8 6d 3e 76 3f 75 3e 7b fe 87 3e
       0.035610974 0.23208642 0.2394999 0.2656134
000010 fb b2 10 3e e5 5f 67 3e 5a 3d 98 3e d1 9d 07 be
       0.14130776 0.22595175 0.29734308 -0.13243796
000020 94 db 8a 3c d3 2f 15 be c3 7d ff bc 93 c6 25 be
       0.016950406 -0.14569025 -0.031187898 -0.16189031
000030 c8 08 30 be a8 37 63 bd 1e 68 56 3e 7e af fd 3c
       -0.1719085 -0.055473 0.20938155 0.03096747
000040 23 42 8c bc 44 8b dc bb 3b 13 ad 3e 89 5d fd bd
       -0.01712138 -0.006730469 0.33803734 -0.12371356
000050 e9 82 2e be 62 55 4e be 94 73 a6 bd 47 d5 9e 3e
       -0.17042126 -0.20149758 -0.081275135 0.31022093
000060 36 51 3b be 34 15 74 bd 10 71 a0 3e 96 d3 0c be
       -0.18292698 -0.059590533 0.3133626 -0.13752589
000070 26 f3 1a be 49 56 66 bd 43 97 bb bd 7a 69 05 be
       -0.15131816 -0.05623463 -0.0915971 -0.13028517
000080 1e cf 4c be 2b 03 17 be 45 53 47 be b4 c6 1d bd
       -0.20000884 -0.14747302 -0.19465359 -0.038519576
000090 88 6a 06 be 16 b9 22 bd 43 85 3a bd 4d 10 87 3e
       -0.13126576 -0.039727293 -0.045537245 0.26379624
0000a0 f8 61 f4 bd b7 d5 f5 3e 90 94 a5 3d 5c 40 4f 3d
       -0.119327486 0.48014614 0.08084977 0.050598487
0000b0 c2 51 75 3d 3d bf 84 3e 8b 6c 01 bd 72 10 0e be
       0.059892423 0.25927153 -0.031597655 -0.13873461
0000c0 da a2 37 bd 26 c4 20 3c fc 63 a8 3d 6b aa 7e bd
       -0.04483304 0.00981239 0.082221955 -0.062174242
0000d0 a9 f3 8c 3e 27 77 25 be c9 89 28 be 8f a2 81 3d
       0.27529648 -0.16158734 -0.16458811 0.06329834
0000e0 2f bf 60 bd cf a8 d8 bc 5c fe 54 bc d5 3b 4d be
       -0.054869827 -0.026447682 -0.013000097 -0.20042355
0000f0 ac 06 8a 3e ab a0 34 be f4 6c d3 3d ac 44 1b bd
       0.26958215 -0.17639415 0.103235155 -0.037907287

fc3.weight f4 [6, 64]
000000 d8 40 d1 3e bb f1 f1 be c5 b4 ce be e5 c2 aa 3e
       0.40869784 -0.47254738 -0.4037229 0.33351818
000010 7b 0f 22 3e 5b 4e 93 be b8 c6 c4 be 68 1d 74 3f
       0.15826218 -0.28770718 -0.3843286 0.9535737
000020 e1 41 eb 3e 1b 27 48 3f 9d da ea 3e cd b8 28 3f
       0.459487 0.7818467 0.45869914 0.65906984
000030 8b 72 6f 3f 80 a4 aa 3e 37 8e 82 3d 1d 44 71 bd
       0.93534154 0.3332863 0.063747816 -0.05890285
000040 57 b4 35 bd d6 59 fc 3e 7b 08 d6 be aa 70 45 3f
       -0.04436144 0.4928729 -0.41803345 0.77125037
000050 4c 1f 50 3f 97 0a 6b 3f 77 8f 0f 3b 2f 6f d6 be
       0.81297755 0.91813034 0.002190558 -0.418817
000060 b9 d2 74 3f 33 e6 c4 3b 64 1f 88 be 3c 7c 3f 3f
       0.9563404 0.006008887 -0.2658645 0.7479894
000070 b0 d7 64 3f 67 e6 f5 3e b6 77 f4 3e ae ad 49 3f
       0.89391613 0.48027346 0.47747582 0.7878064
000080 51 df 45 3f 51 30 9e 3e cb 01 64 3f 5f c4 70 bc
       0.7729388 0.30896237 0.89065236 -0.014695256
000090 8d 38 32 3f d7 46 d6 bc fd 7d d6 3e fa 7b 15 be
       0.6961754 -0.026156826 0.41892996 -0.14598075
0000a0 f1 18 27 3f d3 14 71 3e 4f 1d fc 3e c8 c2 e4 3e
       0.6527243 0.235431 0.4924111 0.44679856
0000b0 91 7d d9 3e d5 fd 83 be 76 c9 95 bd 40 c1 63 3f
       0.42478612 -0.25779596 -0.07313816 0.8896675
0000c0 9b 18 ac bd 6f 82 fb 3e b7 4c 83 3e 19 ee 9b 3c
       -0.084031306 0.4912295 0.25644466 0.019034432
0000d0 dc 08 69 bd 29 55 32 3f 46 bc 4b 3f 93 3e f8 3e
       -0.056893215 0.69661194 0.7958416 0.4848524
0000e0 aa df 00 3f 12 19 f3 3e e4 0b 41 3e 3a 90 5b 3f
       0.50341284 0.47480065 0.18852192 0.8576695
0000f0 13 df 89 be 4f 4b 56 3f 3d 7c c4 3e 4c 61 a9 3e
       -0.26928005 0.8370866 0.38376036 0.33082044
000100 e6 94 02 3f 27 da 34 3f 6d fc 3c 3f 53 53 af 3e
       0.5100845 0.70645374 0.7382267 0.3424326
000110 55 25 ba be 66 6b 3a 3f ec b6 5f 3f 40 cb 6c be
       -0.36356607 0.72820127 0.8738849 -0.23124409
000120 fe 21 00 bf 4e 8d 03 bd 2b ab 02 3f 07 91 ff bd
       -0.5005187 -0.03211718 0.5104243 -0.12478834
000130 0c 9c 44 be 1a 70 75 bc c2 7e 2c 3f 1a fb 45 bd
       -0.19200152 -0.01498034 0.6738092 -0.048335172
000140 49 f1 08 bd 79 78 01 bf 57 e7 6b 3f 63 a8 af be
       -0.033433232 -0.5057445 0.9214987 -0.34308156
000150 50 a1 96 be a4 34 6a be 7b 8b da bd b6 52 69 3f
       -0.29419947 -0.22871643 -0.10671135 0.9114183
000160 bf 9c 80 be 2b bb 36 3d 22 7b 73 3f 1f 3a df be
       -0.25119588 0.04461209 0.9510976 -0.4359903
000170 e7 0d 2b be 6a 68 0e bf 5b 76 23 bf 2b 48 a9 be
       -0.16704522 -0.55628073 -0.6385247 -0.33062872
000180 d0 f8 20 be 35 3c 5c be 61 c8 3b be 4b 18 38 bd
       -0.15719914 -0.21507342 -0.18338157 -0.044945043
000190 f8 c7 e3 be 4c 35 cd 3c 80 a5 c4 3e b2 52 ba bd
       -0.44488502 0.025049828 0.38407516 -0.09097804
0001a0 8a 77 7a 3d 6a 8e a5 3e 80 71 4c be 6f 5d 00 3f
       0.061149158 0.32335216 -0.19965172 0.5014257
0001b0 1b 70 ee 3e e4 a3 78 3f 0e 1e db 3d 4f 9b 05 be
       0.46569905 0.9712508 0.10699092 -0.13047527
0001c0 51 ca 37 3d eb ce 39 be 6c fd 05 bf 5b 00 4e 3d
       0.04487068 -0.18145339 -0.52339816 0.050293308
0001d0 f1 6e af be a1 95 7c be cc 4f 43 be 9a 0d c7 3e
       -0.3426433 -0.24666454 -0.19073409 0.38877565
0001e0 55 d3 da be 6b f5 ca be 02 58 35 ba 0e 48 7d be
       -0.4273936 -0.39640364 -0.0006917716 -0.24734518
0001f0 ad b2 50 3f 52 27 a6 be 81 26 d2 3e 47 23 a0 be
       0.8152264 -0.32451874 0.41045 -0.31276914
000200 38 85 92 be 68 5f ca 3c 97 2e f9 bd 9b 15 88 be
       -0.28617263 0.024703696 -0.121670894 -0.26578984
000210 98 48 d3 bd 7f 76 8e bd 68 e4 18 bc 93 06 cb bd
       -0.103165805 -0.06956195 -0.0093318 -0.09913363
000220 7d cc 73 be c9 01 86 be c8 8b 37 be 81 c6 72 3c
       -0.23808475 -0.26173237 -0.17924416 0.014817835
000230 b8 ca 85 be a0 6f 5a 3d 37 eb 52 be dd 44 af 3d
       -0.26131225 0.05332911 -0.2059754 0.085580565
000240 6e bc 36 bb 6d f4 6d be bc f1 ef bd 84 4d ed bd
       -0.002788331 -0.23237772 -0.11716029 -0.115870506
000250 3f df 18 be 3b 54 cc bd 0d 60 b7 3d e1 32 a3 bc
       -0.14928912 -0.09977003 0.08953867 -0.019921722
000260 7a 3a 00 be e6 2c ff bd 85 47 64 be 42 de e2 bd
       -0.12522307 -0.124597356 -0.22292908 -0.110775486
000270 69 14 e9 bd c2 55 05 bd f5 eb 03 be b1 0f 7d be
       -0.11380846 -0.03255249 -0.12882979 -0.24713017
000280 9c bf 52 be 76 b8 e5 bc 3a 41 ae bd 2b b7 fe 3c
       -0.20580906 -0.02804206 -0.08508535 0.0310932
000290 0d 73 c2 3c e2 03 cc 3d f9 b0 a0 be 27 20 a4 bd
       0.023736501 0.09961678 -0.3138502 -0.08013945
0002a0 79 df 17 be fb 4b 83 be 4d 84 a8 be 65 56 d1 bd
       -0.14831342 -0.25643906 -0.32913437 -0.102215566
0002b0 d0 67 9a be 75 07 77 be e7 b4 a8 bd 14 30 21 be
       -0.30157328 -0.24123938 -0.082376294 -0.15740997
0002c0 d6 28 82 3c 1e 56 a5 be 61 a9 0c be f2 36 31 3c
       0.015888613 -0.32292265 -0.13736488 0.010816323
0002d0 15 8f 8e bd ae ce 0f bd 44 0e 80 be 59 78 97 be
       -0.069608845 -0.035109214 -0.25010884 -0.29584005
0002e0 0f 0a 4f be 95 01 67 be bd 88 a8 3d 10 fe 6c be
       -0.20218681 -0.22559197 0.08229206 -0.23143792
0002f0 30 8f 51 be d2 99 84 be 5d 44 82 be 28 46 91 bc
       -0.20464778 -0.25898606 -0.25442782 -0.017733648
000300 3a 89 eb bd fc 50 45 3d 1b 48 5c bd a0 7d 77 be
       -0.11500783 0.048172936 -0.053779703 -0.24169016
000310 db 9f 8f 3d af 55 d5 3c 1b aa 6d bc a6 63 f7 bd
       0.07012912 0.026041834 -0.014505888 -0.12079553
000320 23 d5 6c be c6 e2 0d bd 65 cf 63 be df e4 da 3d
       -0.2312818 -0.034640096 -0.22247083 0.10688185
000330 7b fb ca bc 61 a6 2a 3b 55 9c fc bd 5b 6b 3d bd
       -0.024778118 0.002603911 -0.123345055 -0.04624496
000340 a6 72 b2 bc ca 7b 68 bc ac bd 0a 3d dc f0 c9 bd
       -0.021783184 -0.01418967 0.03387229 -0.098603934
000350 55 f4 a2 bd e4 1e 25 be 15 72 82 3d 9d a3 09 be
       -0.07956759 -0.16125065 0.06369416 -0.1344132
000360 1b 65 76 bd 39 f8 ad bd 15 6e 05 be dd 12 36 be
       -0.060155015 -0.0849461 -0.13030274 -0.17780633
000370 bf 7f 9a bc 24 a1 a0 bd 65 fb 3c be f9 c9 92 bd
       -0.018859742 -0.07843235 -0.18455274 -0.071674295
000380 8f 20 17 bd ef 50 00 3e 1a e5 d5 bd c6 71 a8 3d
       -0.036896285 0.12530874 -0.10444088 0.082248256
000390 6c 35 81 3d fb e4 8b bc d9 a9 7a be 12 b5 8b bd
       0.063090175 -0.01707696 -0.24478854 -0.06821646
0003a0 76 9f c4 bd ad 18 8a be 42 71 50 be 73 b5 6f bd
       -0.09600727 -0.2697195 -0.20355704 -0.058522653
0003b0 71 bc a1 bd cf 97 16 be 8d 73 d7 3d 1c fa 33 be
       -0.078972705 -0.14706348 0.105200864 -0.17575878
0003c0 29 e6 97 bc 2b 63 53 be 1d ea d3 bc 3c 83 96 bd
       -0.018542366 -0.20643298 -0.02586847 -0.0734925
0003d0 95 eb bd bd d8 97 e4 bd 8b 79 25 be 87 20 41 be
       -0.09273449 -0.111617744 -0.16159646 -0.18860064
0003e0 a0 d1 4a bd 2a bf 60 be 94 ab 39 3d 3e ad 40 bd
       -0.04951632 -0.21947923 0.045329645 -0.047040217
0003f0 67 37 f8 bd 1d fc da bd 9b 90 50 be b9 56 74 3d
       -0.12119942 -0.10692618 -0.20367663 0.059653018

fc3.bias f4 [6]
000000 62 2d ca be ca 07 cd 3f 8e bb 8e bf d3 3c 2b bf
       -0.3948775 1.6018002 -1.1150987 -0.66889685
000010 dc 72 f8 3f 45 cb 94 bf
       1.9410052 -1.1624533

fc4.weight f4 [128, 1280]
000000 62 cf 9c 3c 68 e2 53 3a 68 71 6f 3c 37 a3 b1 3c
       0.019141857 0.00080827484 0.0146144405 0.021684272
000010 8f 8f 84 bc 82 31 f3 3a 93 fb ab 39 7d 72 21 3c
       -0.016181735 0.0018554183 0.000328031 0.009853956
000020 98 d8 1b 3d be 86 85 bc c4 f5 05 bc 71 8a bf 3c
       0.038048357 -0.016299602 -0.008176271 0.023381444
000030 26 d5 5c bc 53 69 cb 3c 6d d3 95 bc 47 81 bd 3c
       -0.013478553 0.024830496 -0.018289292 0.023132933
000040 94 22 a9 3a da ef a7 bc e9 8b 07 bc 65 4e 77 bb
       0.0012903982 -0.020500112 -0.008273103 -0.0037735936
000050 b3 c7 9f 3b 72 31 a6 3c 90 f3 80 3c 58 42 09 bc
       0.004876101 0.02028725 0.01574114 -0.008377634
000060 b3 c8 96 bc cd ac fb 39 d8 16 db bb b1 14 27 bc
       -0.018406248 0.00048003197 -0.006686073 -0.010197804
000070 b9 33 dd 3c 11 ee cc bb 5e 6c d8 bc 40 dd e3 3c
       0.027002202 -0.0062539657 -0.026418861 0.027815461
000080 34 ef e1 ba 25 43 b9 3c 6e c0 db 3b 08 a0 da 3c
       -0.0017237426 0.022615025 0.006706289 0.026687637
000090 0e 83 eb bc 6a 0b 8d bc 70 0d 2b bb 39 f6 36 bc
       -0.028749015 -0.017217357 -0.0026100539 -0.0111671025
0000a0 52 e9 49 bc b6 4f a6 bb 12 74 af bb 8e 71 00 3d
       -0.012323694 -0.0050754203 -0.005354413 0.031358294
0000b0 6a bc bd 3c de ea 70 bb 97 d7 9d bb 48 71 07 3d
       0.023161132 -0.0036761086 -0.00481696 0.033067018
0000c0 a8 94 68 bc 92 84 9a 3c 12 74 05 3b 97 27 8e bc
       -0.014195599 0.018862043 0.0020363373 -0.017352862
0000d0 7c d5 52 bb 9a 55 03 bd e5 bf 37 bc 0c 5b c8 3c
       -0.0032170704 -0.032064058 -0.011215185 0.024457477
0000e0 06 57 5e bc 9c a2 6e bc cf a8 a4 3a d3 03 24 3d
       -0.013570553 -0.014565136 0.0012562516 0.04004271
0000f0 33 7b dd bc d6 3e e3 3b 9e 60 9a 3b fe 6e a7 bc
       -0.027036285 0.006934981 0.0047112247 -0.020438667
000100 62 16 00 3d 44 03 5f bc 11 1d f9 3c f6 69 ee 3c
       0.031271346 -0.013611618 0.030409368 0.02910326
000110 9c 7f f6 3c 2d 1e d1 bc 96 fe 87 3c 30 4d 8c bc
       0.030090146 -0.025527084 0.016600888 -0.01712665
000120 0d 81 b4 bb b5 fb ad 3b 1d ca d8 bc ff 7b 1b 3c
       -0.005508548 0.005309547 -0.026463563 0.009490012
000130 47 a1 b7 3c 91 83 b5 bc ce 68 8f bb 12 a3 32 bc
       0.02241577 -0.022157462 -0.0043765074 -0.010903137
000140 40 e5 09 3c 96 04 8b bc bd 39 02 ba b3 65 8f 3b
       0.008416474 -0.01696996 -0.000496771 0.004376137
000150 f1 75 c8 3c ee 0d 54 bc e8 4a a2 3c 2d 11 a5 bb
       0.024470301 -0.012942774 0.019811109 -0.005037448
000160 40 2d 17 bc 7f 3b d0 b9 5d 56 c3 3c 9d 1c 90 bc
       -0.009227097 -0.0003971718 0.023844892 -0.017591769
000170 db e4 32 3c d7 c6 b4 3c e0 6e fa 3c 35 a6 ad bb
       0.010918821 0.02206747 0.030570447 -0.0052993544
000180 74 bc 16 3c 79 e0 75 bc fb bd 19 3c 57 d8 82 bc
       0.009200204 -0.015007132 0.009383674 -0.0159723
000190 cf cd 94 3b 77 f5 ea 39 b4 bd 48 3c 67 21 8b 3c
       0.004541136 0.00044814844 0.01225226 0.0169837
0001a0 af fb 97 3b b7 d5 92 3c 05 1e 27 3c c7 0f b0 bc
       0.0046381573 0.017924173 0.010200028 -0.021491898
0001b0 f6 29 ef 3c 08 c9 c0 3c 39 cd 01 bd b0 19 18 3c
       0.029194813 0.02353336 -0.031689856 0.009283468
0001c0 98 d2 01 bd 4e 40 11 bc 3b 18 85 3c 0e 4a bb 3c
       -0.03169498 -0.008865429 0.016246906 0.02286246
0001d0 04 6d 60 bc 5d 6a 91 3c 5d 00 b6 bb 08 57 b7 bb
       -0.013697866 0.017750913 -0.0055542425 -0.0055950917
0001e0 b1 9a 48 3c 33 c7 b8 3c 3b 1c 11 3d 6b e3 85 3a
       0.012243913 0.022555923 0.035427313 0.001021487
0001f0 b2 41 ff 3c c2 a1 55 3b dc 66 0f bc 20 21 c7 3c
       0.031159256 0.0032597636 -0.008752551 0.024307787
000200 52 49 2e 3c 8a b9 f3 bc bb a4 da bc cc fc 0f 3d
       0.010637598 -0.029751558 -0.026689878 0.035153195
000210 90 ca c4 3b a6 9a 87 bc d0 28 aa bc 2e 5e b1 3b
       0.0060055926 -0.016553234 -0.020771414 0.0054128384
000220 bd 6f 82 bc 25 88 11 bd 6a 60 4b bc 5b 60 66 bc
       -0.015922422 -0.03553023 -0.012413124 -0.014061059
000230 dd 3c f0 bb 14 3f 3a bb cd fe 5e bc 41 94 a1 3c
       -0.007331474 -0.0028418945 -0.013610554 0.019724013
000240 a2 4f b1 bc fe f6 12 bb 55 66 96 bc 96 b3 ca bc
       -0.021644417 -0.002242505 -0.018359343 -0.024743836
000250 4e e8 5e 3a 25 49 80 3c cc 05 dd 39 ba a3 7f 3c
       0.0008503244 0.015659878 0.00042156724 0.015603
000260 36 d0 e4 bc 10 57 25 bc 2d 26 3b 3c 0e 47 0e 3d
       -0.027931314 -0.010091558 0.011422676 0.03473573
000270 f9 78 ab bc 37 5f ba 3c 6a 7c 49 3a 63 7e 9d 3c
       -0.020931708 0.02275048 0.00076860806 0.019225305
000280 fe 6e 4a bc 5a c6 b9 3c e8 cd a6 bc 33 ac 96 3c
       -0.012355564 0.02267759 -0.020361856 0.018392658
000290 72 d1 84 3a 46 30 69 bc 34 f4 f9 3c e8 79 ab bc
       0.001013322 -0.014232701 0.030511953 -0.020932153
0002a0 16 2b ae bb 09 da ca 3c f7 a3 ec bb 57 ea a5 3c
       -0.005315195 0.02476217 -0.0072216946 0.020253344
0002b0 9b 0a 38 3a 3a 88 88 3c f7 43 d3 3b 0b b5 b0 bc
       0.00070206233 0.01666652 0.006447311 -0.021570703
0002c0 48 a5 30 bc 15 f6 1c 3c 91 32 45 3c 7c ff 65 bb
       -0.010781594 0.009580155 0.012035982 -0.0035094908
0002d0 1d dc 44 bc 96 ef f3 3c 8b 07 a6 bc ad c0 42 3c
       -0.01201537 0.02977733 -0.020267269 0.011886758
0002e0 82 e2 6e bc 03 f8 12 3d de 86 2c bc 02 c2 cc 3c
       -0.014580371 0.035881054 -0.010530202 0.024994854
0002f0 8e 13 3b 3b 14 77 b0 3c f0 6a fd 3b 43 f2 86 bc
       0.002854559 0.021541156 0.007733695 -0.016472941
000300 59 0a ae 3b 7c 83 83 3c 96 83 29 3c 20 70 62 ba
       0.005311292 0.016053908 0.010346314 -0.0008637924
000310 be fa 99 3c e2 ec 6b bc 88 25 e3 bb 77 5d 93 3c
       0.018796321 -0.014399739 -0.0069319643 0.017988903
000320 2e a8 81 3c dd 0f 9a 3c 97 5e a8 bb e9 4f 08 3c
       0.015827265 0.018806392 -0.005138229 0.008319833
000330 0a 67 c8 3b eb 51 a1 bc 96 e6 c2 3c 21 00 05 bc
       0.006115799 -0.019692382 0.023791593 -0.0081177065
000340 dd f2 18 3c f3 d8 23 3c f2 b5 c9 bc 23 65 ec 3c
       0.009335247 0.010000455 -0.024622891 0.02885682
000350 54 07 79 bc 5b 22 d0 3b 8a ea fb 3c 9b 55 f8 ba
       -0.015199501 0.0063517517 0.030751485 -0.0018946411
000360 91 f0 c2 3c 09 c3 95 3c 00 fb cd 38 e8 5b e8 3c
       0.023796352 0.018281477 9.821914e-05 0.028364137
000370 91 70 21 3c 01 13 95 bb ea 8e bc 3c f4 06 cc ba
       0.009853498 -0.0045493846 0.023017365 -0.0015566037
000380 1d ab ba bc c7 3a 01 bc fb 87 a7 3b 1e e9 21 3d
       -0.022786671 -0.007887549 0.0051126457 0.03952896
000390 c1 2f 63 bb b3 44 a1 bb a2 d3 01 bd 23 73 dc 3c
       -0.0034665915 -0.0049215197 -0.03169597 0.02691037
0003a0 44 a2 3f bb 94 79 a8 3c 0e e4 c3 3c c6 1d 68 3c
       -0.0029241005 0.020565785 0.023912456 0.014167255
0003b0 36 d3 c2 bc e5 71 e4 bb da 34 0b bb 53 f4 33 bc
       -0.023782354 -0.006971585 -0.0021241219 -0.010983544
0003c0 a2 3d b9 bc f6 08 f0 3c f5 8e 90 bc 7d 6f 95 bb
       -0.022612397 0.029301148 -0.017646292 -0.0045604096
0003d0 6d c0 bd bb 95 0a 1b bc 9e 12 c5 3c a0 78 cf ba
       -0.005790761 -0.009462972 0.024056729 -0.0015828796
0003e0 b1 81 bf bb 06 29 ab 3b 7e 5c 97 3c c9 e8 b0 3b
       -0.005844318 0.0052233962 0.01847672 0.005398844
0003f0 00 d8 eb 39 32 cf 86 bc 45 25 e8 3b d1 17 8a 3c
       0.00044983625 -0.01645622 0.007084521 0.01685706

fc4.bias f4 [128]
000000 49 38 2f 3c 29 57 5e 3c 12 e7 a5 3d 3d 8d 71 3c
       0.010694572 0.013570585 0.08100714 0.0147431465
000010 23 51 2a 3c 46 83 06 3c 3d b5 00 bc 07 37 d7 bb
       0.010395321 0.008210009 -0.007855711 -0.006567839
000020 fd 34 02 bd 92 53 03 bc 82 d3 b5 3c 4c 09 41 3c
       -0.031788815 -0.00801553 0.022195581 0.011782002
000030 6c 5a 7c ba 29 01 59 3d 68 71 33 3d d2 79 9f bc
       -0.0009626511 0.052979622 0.043809325 -0.019467268
000040 0a 8b ad 3c 02 ab e2 3c 36 08 c9 3b 42 21 ff bc
       0.021184463 0.027669434 0.006135012 -0.031143788
000050 5c 5b 78 bc 1b bd a7 3c 35 5d 7e bc ec 6d bf 3b
       -0.0151585005 0.020475915 -0.015525152 0.005841961
000060 f4 65 a0 bc 68 4c 3c 3c be 3c 70 bd 0b 9c 07 bd
       -0.019579865 0.011492826 -0.05865168 -0.0331078
000070 0b 9f 8d bc 70 90 a7 3c a2 2e e3 bc f3 ca 5d bc
       -0.017287752 0.020454615 -0.027732197 -0.013537156
000080 d3 c6 5d 3c 60 e2 10 3b 7a b9 64 bb 54 76 16 3d
       0.013536173 0.0022107586 -0.0034900592 0.03673394
000090 63 79 4e 3b 43 26 19 3d eb e0 af bb 28 5a d9 bc
       0.0031505458 0.037390005 -0.0053673885 -0.026532248
0000a0 14 ec 86 3c 74 e2 b2 3c 1d fd d4 3b 81 7f 2a bb
       0.016469993 0.021836497 0.0064999 -0.002601594
0000b0 78 8d 47 bc f9 66 b1 bc da e9 37 bd 8d 71 54 bb
       -0.012179725 -0.021655547 -0.044900753 -0.0032416314
0000c0 b2 5f 49 3c 2c 46 41 bd d9 67 ae bd 6b b3 4b 3d
       0.012290882 -0.04718606 -0.08515901 0.049731653
0000d0 9d 84 ba 3a 64 04 06 3d d0 02 1d 3d c5 ba 9e bc
       0.0014230196 0.03271903 0.03833276 -0.019376168
0000e0 dd af 82 3c 86 28 c9 3c 54 16 de bc e0 44 c4 bb
       0.015952999 0.024555456 -0.027110256 -0.005989656
0000f0 b1 7e 1f bc a3 c8 22 3c c7 52 08 3c 06 e2 7e bc
       -0.009734795 0.009935531 0.008320517 -0.015556818
000100 4e 6a 96 bb 59 84 83 bb 82 a0 22 bc 6d e8 5d 3a
       -0.004590309 -0.00401358 -0.009925963 0.0008465115
000110 eb 85 c9 bc 35 49 a3 bc 18 9b d6 bd 1f b7 76 3c
       -0.02459999 -0.019932369 -0.104788005 0.015058308
000120 7e e0 4c bc 19 0d 46 bc 13 8b 59 ba 96 fd 0b bd
       -0.012504695 -0.012088084 -0.0008298617 -0.034177385
000130 fa be 73 3d 78 39 a2 3b 35 aa bc 3b 4e 26 a5 bb
       0.0595083 0.0049506985 0.005757595 -0.0050399667
000140 31 76 95 3c a4 94 ea bc f0 a3 1a 3c 02 26 aa 3c
       0.018244835 -0.02863533 0.0094385 0.020770077
000150 1e 97 9a 3c b1 a9 9c 3c 9f c8 f6 3b 5d 99 87 3c
       0.018870886 0.019123884 0.00753124 0.016552621
000160 7b c6 26 bd a9 8b c8 bc 48 bf 05 bd 82 0d 77 bc
       -0.04071663 -0.024480658 -0.032653123 -0.015078904
000170 c6 8c 1f bd f5 2b 06 bd dd 5c 2c 3c 45 81 d9 3c
       -0.03895261 -0.032756764 0.010520187 0.026550898
000180 e6 f8 f7 3b 09 52 15 3d 9b 49 30 3b dc 2b 41 3d
       0.007567513 0.036455188 0.002689934 0.04716097
000190 22 05 b8 bb 85 60 bd bc 0a b3 20 bd 6b e3 33 bc
       -0.0056158463 -0.023117313 -0.039233245 -0.010979514
0001a0 b4 82 be 3c 4d db fe bc 52 b5 84 3b 5a 81 8d bc
       0.023255683 -0.03111043 0.0040499354 -0.017273594
0001b0 bf dd 9a bc aa 32 26 bd 4e 83 08 3c 8b 4c 40 3c
       -0.018904565 -0.04057566 0.008332087 0.011736999
0001c0 4d 8b 0a bd 0b 1f 76 3c db 15 50 bd 0b 76 4d 3c
       -0.033824254 0.01502205 -0.050802093 0.012540351
0001d0 6e 10 f0 3a 1e 6c 69 3c f3 14 0e 3c ea 46 cf 3c
       0.0018315443 0.014246969 0.008671987 0.02530237
0001e0 68 39 de bd c6 8f 9f 3b 6c 35 cb bb 47 eb c6 bc
       -0.10850793 0.004869434 -0.0062014367 -0.02428211
0001f0 57 1d e0 bc 6a ba 30 3d 13 fb 12 3d 6c a1 36 bc
       -0.02735774 0.04314653 0.035883974 -0.011146884

fc5.weight f4 [64, 128]
000000 be 6a d3 3c b6 af 59 bc 97 bb 73 bd 7c 79 b1 3d
       0.025807735 -0.013286522 -0.05950507 0.086657494
000010 b8 75 9d 3c fb f4 93 3d 83 d4 52 bc a5 13 88 3d
       0.019221172 0.07224461 -0.01286805 0.06644372
000020 64 fb 7a bd 22 62 54 3d 2d 10 8f 3d 5f 6d 87 3d
       -0.0612749 0.0518514 0.06985507 0.06612658
000030 7a 89 c6 bc 65 8c 66 bc c6 e7 88 bd cd 63 05 bd
       -0.024235476 -0.014071559 -0.06684832 -0.03256588
000040 c4 36 69 3d 19 b5 2b 3d 1b bf 5b bc f1 77 a1 bb
       0.056936994 0.041920755 -0.013412262 -0.004927628
000050 86 22 5e 3d bf 5b 80 bc 01 07 46 bd 9b 43 a6 3d
       0.054232143 -0.015668748 -0.048346523 0.081183635
000060 c1 88 8c bd f6 44 57 bd 6a 6f 8a bd e6 8e 02 bd
       -0.06862021 -0.052556 -0.06759532 -0.03187456
000070 dd e6 8a bd 16 c4 ff ba 39 98 95 bd f8 b9 47 3d
       -0.06782315 -0.0019513394 -0.07304425 0.048761338
000080 22 f9 c4 bc 9d 82 50 bd 4f 4c 95 bd e5 b4 18 bd
       -0.024044577 -0.050905813 -0.07289945 -0.03728189
000090 7f 46 0b bd 63 7e bf 3b f5 ac 1e 3d a3 06 d6 3c
       -0.034002777 0.005843924 0.038739163 0.026126212
0000a0 1e b4 8b 3d 35 6b 51 3c 45 2a 92 bc 1c c3 76 3c
       0.06821464 0.012781908 -0.017842421 0.015061166
0000b0 c4 d9 19 3d 64 f7 49 bd 9e 34 ee 3c b0 f8 87 3d
       0.037561193 -0.049308196 0.029077824 0.0663923
0000c0 7a 97 80 bd bc 10 b5 3b 35 4f b1 bd 66 2e 3c bd
       -0.06278892 0.0055256765 -0.08657686 -0.045942686
0000d0 34 26 12 bb 0d 6e 9c bd d1 be 5e bd 95 9b 77 3d
       -0.0022300603 -0.07638178 -0.054381195 0.06045111
0000e0 48 bd f2 bc 19 89 c4 bb 1c c6 75 bc 1c f4 64 bd
       -0.029631272 -0.0059977886 -0.015000846 -0.055896863
0000f0 8b e4 c6 bc 36 2b 3d 3d 0b d9 8b 3d b4 7a 99 3d
       -0.0242789 0.046183787 0.06828507 0.07494107
000100 c7 10 60 3d a2 a3 15 bd 9f 9f 26 3d a8 7b 3a bd
       0.0547035 -0.036533006 0.04067957 -0.045528084
000110 70 e5 40 bd 07 46 63 bd b7 6c 87 bd e8 26 c2 3b
       -0.04709381 -0.055486705 -0.066125326 0.005925048
000120 30 08 f0 3b dc cd a3 bd fe 2c 28 3b 3b 70 3b bd
       0.007325195 -0.07998249 0.0025661583 -0.04576133
000130 1d 9c 55 3c f8 3e 76 bd d5 8c 97 3d 3d 7e 54 bd
       0.013037709 -0.060118645 0.073999085 -0.051878203
000140 5c 5c 82 bd 75 b7 42 3d 03 5f 3d bd a9 64 b5 bd
       -0.063652724 0.04753824 -0.04623319 -0.0885709
000150 ad f8 81 3d 2b 90 a1 3d 60 75 ad 3c e8 83 78 bd
       0.06346259 0.07888826 0.021174133 -0.06067267
000160 d8 64 51 bd fe 91 f1 bc 55 81 a7 3d 8f d3 55 bd
       -0.051121563 -0.02948856 0.08178965 -0.05220371
000170 f5 37 fd 3c a8 ec 90 bd 1e 3c 35 3d 40 29 aa 3c
       0.030910471 -0.070763886 0.044246785 0.020771623
000180 13 32 39 3d 02 f5 7b bd 84 74 82 bd 3e fd 58 bc
       0.04521377 -0.061512955 -0.0636988 -0.013243971
000190 e6 85 fe 3b 9d 9a 88 bd a9 48 a3 bc 90 35 a9 bc
       0.007767427 -0.06670115 -0.019932108 -0.020655423
0001a0 83 37 27 3c 22 ca d3 3b be f6 59 bd f5 5c b6 3b
       0.010206106 0.006463305 -0.053213827 0.0055652806
0001b0 be 66 98 3c 54 5c e3 3b e0 b1 24 3d d9 11 90 bd
       0.018603679 0.0069384966 0.040208697 -0.07034654
0001c0 c0 41 34 3d d2 4f 88 3c 3e ee d9 bc fd f3 76 bd
       0.044008017 0.016639624 -0.02660286 -0.06029128
0001d0 ab c6 2e bd 65 97 41 3d 2c 48 ce 3c 75 c7 3e 3d
       -0.042669933 0.04726352 0.025180899 0.046576936
0001e0 e0 e2 a4 bd dd e1 c2 3c a8 4a 39 bd 62 40 db bc
       -0.080510855 0.02378934 -0.045237213 -0.026764099
0001f0 cd e4 04 3c 55 21 79 3c 0c a4 99 bd 3c 72 43 bd
       0.008111191 0.015205701 -0.075019926 -0.047716364
000200 9d 8f f4 bc 06 18 e2 3d 8b 82 e5 3d f7 22 a2 bc
       -0.029853636 0.11039738 0.1120654 -0.019792063
000210 5b bb 78 bd 5a a6 32 bd bb cf b7 bd c6 b9 2d 3d
       -0.06072555 -0.043615676 -0.08975168 0.042413495
000220 5c 43 0b 3e ab 59 e0 bc 64 38 ab bd 52 b3 4d bd
       0.13599914 -0.027386507 -0.08360365 -0.05021984
000230 03 e6 07 3e 33 16 59 3a e3 82 38 bd c4 17 9a bd
       0.13271336 0.0008281201 -0.0450467 -0.07524064
000240 ae 21 0f 3e 87 fa 0d 3e 2e c3 1e bd 81 c7 9e bd
       0.13977692 0.138651 -0.038760357 -0.07752896
000250 7e 87 98 bc 2a 4d 73 bd 4e 3c fa bd 8d 64 a6 bd
       -0.018619295 -0.05939976 -0.122185335 -0.08124647
000260 d7 1e 3b 3d 2c 16 bc 3c 4d 74 e1 3c 46 9b 60 3e
       0.045683708 0.022959791 0.027521277 0.21934232
000270 ed 35 fd 3a ee 20 67 3d 3d 67 d9 bd a4 77 95 3d
       0.0019318439 0.05642789 -0.10615394 0.0729821
000280 1c 18 0b be 53 48 66 ba df a0 e7 ba 93 d1 8c 3d
       -0.13583416 -0.0008784581 -0.0017671845 0.068759106
000290 41 19 ad bd cb 70 46 3c 71 f2 6a bc 9a c1 a4 3d
       -0.084520824 0.012111853 -0.014340029 0.08044739
0002a0 e4 13 a4 bd ef d4 10 3d 3b 43 b2 bd 25 01 8f bd
       -0.08011606 0.03535932 -0.087042294 -0.0698264
0002b0 58 b3 91 3b fb c1 e6 bd 8a 7d 30 bd 0b 98 2c bd
       0.0044464283 -0.112674676 -0.043088473 -0.042137187
0002c0 ac 5e 07 be de 5f d3 bd da 91 1a be 82 be dd bc
       -0.13219708 -0.103210196 -0.150947 -0.02706838
0002d0 5a 7b 83 bd f8 c7 2a bd 11 19 91 3d 06 4f cd bd
       -0.06420012 -0.04169461 0.07084859 -0.10024838
0002e0 33 d8 82 3d 64 80 f3 bc c8 ee 1c bd 0c c5 41 bd
       0.06388893 -0.029724307 -0.038313657 -0.04730706
0002f0 a7 2d 16 3d 95 d4 d2 bd 2c e2 10 3e e7 1b d3 3d
       0.03666463 -0.10294453 0.14148778 0.10308056
000300 59 0e 9a bc 63 4a c8 3c 37 ca a4 3d 6a ae bb bc
       -0.01880567 0.024449533 0.08046382 -0.022910316
000310 b8 ef b2 3d 89 07 d2 bb 89 fe 48 bd f7 9e 67 3d
       0.08737129 -0.0064095897 -0.04907087 0.056548085
000320 74 6c 6f 3d ea 06 85 bd 3c ec 4f bd 26 e2 e0 bd
       0.05845304 -0.064954594 -0.0507624 -0.109806344
000330 f1 34 33 3d 96 26 32 3d 1d 71 0b 3e 2d a7 a7 bd
       0.04375166 0.04349383 0.13617368 -0.08186183
000340 7a 93 ac 3d 90 ce b3 3d 4b dd 12 3c ef 1f 83 3c
       0.084265664 0.08779633 0.008963893 0.016006438
000350 ca 8d ae 3c 5d 98 37 bd 8f 4a 45 bd 90 83 5c 3d
       0.021307845 -0.04482304 -0.048166808 0.053836405
000360 18 f1 a1 3c 90 e7 29 3e 5f 0f fe 3d da 39 9e bd
       0.019768283 0.1659224 0.124052756 -0.07725878
000370 a8 59 de bc ce 0a ed bd 2f 1b a6 3d 1d 8d c0 bc
       -0.02714236 -0.115743265 0.081106536 -0.023504788
000380 ab 2a 71 bc d1 0e a1 3c 08 58 08 3e dd 72 8e 3c
       -0.0147196455 0.019660385 0.13314831 0.017388755
000390 33 92 db bd 91 f6 08 3c fd 7a 85 bd b3 71 57 bb
       -0.10721245 0.008359567 -0.06517599 -0.0032874166
0003a0 3a 34 5d bd 20 5e 4b bd ff 08 b7 3d 0f 9e 09 3e
       -0.054004885 -0.04965031 0.08937263 0.13439201
0003b0 16 64 bd bd a3 49 d7 bc 11 4c 39 3c 8c fc 95 3d
       -0.092476055 -0.02628023 0.01130964 0.0732356
0003c0 5e 85 08 bd df a3 bd 3d 29 ec 05 be d9 7c 8f bd
       -0.033330314 0.092597716 -0.13078369 -0.07006235
0003d0 c6 45 c6 bb 3e 8e 41 bd c7 e6 ee 3c 51 92 ff 3a
       -0.006050798 -0.047254793 0.029162778 0.0019498562
0003e0 68 27 a2 bd 35 a7 c7 3c 9e fc 08 3e 5c 72 ba bd
       -0.079176724 0.024371723 0.13377616 -0.091038436
0003f0 f6 32 b9 bd 9c e2 a0 3d bc 38 f0 3d b6 f1 06 bd
       -0.09042923 0.07855722 0.11729571 -0.032945357

fc5.bias f4 [64]
000000 a1 5f 42 3d ce e4 11 bd 70 40 93 3d 37 d5 8d 3c
       0.04745448 -0.035618596 0.07190025 0.017313583
000010 f1 d5 82 bd b5 b4 bb 3d fc 85 99 3d ef cd dc 3c
       -0.06388462 0.091653265 0.074962586 0.026953666
000020 54 c6 db 3d 2e c1 4e 3d 9f 3a eb bc 63 2a 47 3a
       0.107311875 0.0504772 -0.028714476 0.00075975637
000030 5b 48 59 3d 27 bd ea 3d e2 42 5f 3d e7 c9 a9 bd
       0.05304752 0.11461859 0.054507144 -0.08290463
000040 4e 4a ad 3d 78 d9 d5 bb 43 a4 69 3d 2e ad 69 bd
       0.08461438 -0.0065261684 0.057041418 -0.057049923
000050 8b 9d 44 bc 97 e1 4b bd f2 fe 86 3d bb 17 9e bb
       -0.012000452 -0.049775686 0.06591596 -0.0048246062
000060 28 ae b6 3d 33 ea 20 3d c1 8d a4 3c cc c1 3c 3d
       0.089199364 0.03928585 0.020087125 0.046083257
000070 a8 f2 ab 3c 88 b5 ac bc 27 0f 13 3d 02 40 33 bc
       0.020989731 -0.021082655 0.035903122 -0.010940554
000080 c8 fb 69 bc 7b 3a 39 3d b8 b9 71 ba 17 4f b3 3c
       -0.014281221 0.045221787 -0.00092210947 0.021888299
000090 ad 3c 46 bd df 6e 22 3c 3d d2 9a 3d d0 2c 95 3d
       -0.04839771 0.009914129 0.07559631 0.07283938
0000a0 8e 4c 0c 3d 4e b4 49 bc 55 63 a4 3b 85 4a 31 bc
       0.034252696 -0.012311054 0.005016724 -0.0108209895
0000b0 7a 65 2b bd df 90 68 bb d4 1c fd 3c 02 dc 95 bc
       -0.041844822 -0.003548674 0.030897535 -0.018293384
0000c0 44 6e 14 3d f6 95 85 bd ce 38 70 3c b5 ce ab bd
       0.03623797 -0.065227434 0.014661981 -0.083890356
0000d0 a0 82 b8 3d df 63 88 bd cd a4 c4 3d bd 7c 85 3d
       0.0900929 -0.06659674 0.09601746 0.065179326
0000e0 fe 51 f7 3c c2 76 96 bd be ba 1c bd d6 ea 8c 3d
       0.030190464 -0.0734687 -0.03826403 0.06880729
0000f0 ee 9d 07 3d 4a 31 bd 3c 4d 00 19 3d 3d a3 7c 3d
       0.033109598 0.023094792 0.037353802 0.061679114
