models/0.5/0.pt (torch, 747117 bytes, 12 tensors)

fc1.weight f4 [128, 36]
0	0x3dc73470	0.097267985
1	0x3da7bcd0	0.0819031
2	0xbd656f2b	-0.05601422
3	0x3e01e926	0.12686595
4	0x3e7c8759	0.24661006
5	0xbc5f51ce	-0.013630344
6	0xbdc4255a	-0.09577437
7	0xbba09621	-0.0049007093
8	0xbdf444f9	-0.11927218
9	0xbe450017	-0.19238316
10	0x3d97b0bc	0.07406756
11	0x3de12711	0.109937795
12	0x3d5d9082	0.05409289
13	0xbd7be9b4	-0.061502174
14	0x3dba13b4	0.09085789
15	0x3e284a32	0.16434553
16	0xbbf8d5e0	-0.0075938553
17	0xbd60f065	-0.054916758
18	0xbe167646	-0.14693555
19	0x3e17af36	0.14812931
20	0x3d9739e3	0.07384088
21	0xbe74e83e	-0.23916718
22	0xbd4436dd	-0.047903884
23	0xbe54fe63	-0.20800166
24	0x3da97fb0	0.082763076
25	0x3e1f8431	0.15577771
26	0x3e20d0b7	0.15704618
27	0x3d396d79	0.045270417
28	0x3eb7367c	0.35783756
29	0x3e45c0cf	0.19311832
30	0x3dce57da	0.1007535
31	0xbddacb15	-0.10683266
32	0xbd8c8507	-0.068613105
33	0x3e6914eb	0.22761886
34	0xbc3137cb	-0.010816525
35	0xbea6b88c	-0.32562673
36	0x3df772fa	0.12082477
37	0x3b205a88	0.0024468023
38	0xbd957004	-0.07296756
39	0xbdc458c2	-0.09587242
40	0xbe007105	-0.12543114
41	0xbe5ab725	-0.21358927
42	0xbcb0c434	-0.021577932
43	0xbe119de5	-0.14220388
44	0x3d826635	0.06367151
45	0xbe776c64	-0.24162441
46	0xbd472c33	-0.048626136
47	0x3dd4b9b1	0.1038698
48	0xbe1269bd	-0.14298148
49	0xbcfdd2cb	-0.030984303
50	0xbce32537	-0.027727706
51	0xbe27752a	-0.16353288
52	0xbdb3b48f	-0.08774673
53	0x3cdf3459	0.027246641
54	0x3b89ab5a	0.004201335
55	0x3de97adf	0.11400389
56	0x3db41ace	0.08794175
57	0xbe40a3eb	-0.1881253
58	0xbe1e5678	-0.15462673
59	0x3da96dc5	0.0827289
60	0x3d96cf6e	0.07363783
61	0x3da10435	0.078621306
62	0xbc641e3a	-0.013923222
63	0x3d3a09cf	0.04541951
64	0xbdcc6601	-0.09980393
65	0x3e0bb76b	0.13644187
66	0xbdd06b54	-0.10176721
67	0x3e126f17	0.1430019
68	0xbe082d16	-0.13298449
69	0xbdc4a7b6	-0.09602301
70	0x3e1cd1ed	0.15314455
71	0x3d09908a	0.03358511
72	0xbe2547f5	-0.1614073
73	0x3d6f8a05	0.058481235
74	0x3d349326	0.044085644
75	0xbb04e5e1	-0.002027862
76	0xbe09f66c	-0.13472909
77	0x3d865cf4	0.06560698
78	0x3e09b9a0	0.13449717
79	0xbc7d4c25	-0.015460049
80	0xbe06fe89	-0.13183035
81	0x3e26edcc	0.1630165
82	0xbda3802c	-0.07983431
83	0x3e0f81bb	0.14014332
84	0xbd398792	-0.045295306
85	0xbd18abce	-0.03727322
86	0xbe1483ee	-0.14503452
87	0x3c8c2711	0.017108472
88	0x3dff6a3c	0.124714345
89	0x3d72071b	0.059088808
90	0xbe28e8bb	-0.1649503
91	0xbe182db6	-0.14861187
92	0x3e115dd7	0.14195953
93	0x3e15f600	0.14644623
94	0xbe32497a	-0.17410842
95	0xbdfc4031	-0.12316931
96	0x3dc6b6ad	0.097028114
97	0x3c5fa4cc	0.0136501305
98	0xbdb8a2c7	-0.09015422
99	0x3dc1b683	0.094586395
100	0xbd6713e4	-0.056415454
101	0xbd8264a8	-0.06366855
102	0xbd690846	-0.056892656
103	0xbd015758	-0.031577438
104	0x3d1696fc	0.036765084
105	0xbe199c6c	-0.15001076
106	0x3d4b2157	0.049592342
107	0xbd93856e	-0.07203184
108	0x3d8dbac3	0.069203876
109	0x3de2e44a	0.11078699
110	0xbc93cf4a	-0.018043179
111	0xbe96ac1a	-0.29428178
112	0xbe96c250	-0.29445124
113	0xbd8b3456	-0.06797092
114	0xbd96a279	-0.07355208
115	0x3e1298d7	0.14316116
116	0xbe192708	-0.14956295
117	0x3eaa0056	0.3320338
118	0x3ea548e4	0.32282174
119	0x3db45da5	0.08806924
120	0xbcb8e2a3	-0.022569006
121	0xbd0a0395	-0.033694822
122	0xbcd51094	-0.026008882
123	0x3e015745	0.12630947
124	0x3c99591e	0.018719252
125	0x3d3b13a8	0.045673043
126	0xbe26051c	-0.16212887
127	0x3d88c5f1	0.06678379
128	0x3e0f2d25	0.13982065
129	0x3e43d812	0.19125393
130	0x3e34d6db	0.17660086
131	0xbe913649	-0.2836173
132	0xbe13fb65	-0.14451368
133	0xbe04fc2d	-0.12986822
134	0xbe0fc28c	-0.14039057
135	0xbd4025e3	-0.04691113
136	0xbe8c7fb0	-0.27441168
137	0xbeb52dad	-0.3538641
138	0xbe29329c	-0.16523212
139	0xbe0bad7f	-0.13640402
140	0x3e0aa854	0.13540775
141	0xbd5e2b87	-0.05424073
142	0xbda4dd52	-0.08050026
143	0xbe9af3e9	-0.30264214
144	0x3e1ac5fc	0.15114588
145	0xbd9297ca	-0.07157858
146	0x3e279cc6	0.16368398
147	0x3d24cfca	0.040237226
148	0x3d827618	0.06370181
149	0xbcff1fb8	-0.031143054
150	0x3d28c2c6	0.041201375
151	0xbdb268c9	-0.087113924
152	0x3ddd8b85	0.10817627
153	0xbb5997ff	-0.003320217
154	0xbcdf6d0d	-0.02727368
155	0x3da8d3a8	0.08243495
156	0x3b13db40	0.0022561103
157	0xbd8937da	-0.06700106
158	0xbd1c20d6	-0.038117252
159	0x3dff7c49	0.124748774
160	0xbd2ae5bd	-0.041723
161	0x3c9e9182	0.019356493
162	0xbdb8478a	-0.0899802
163	0x3d986d90	0.074427724
164	0xbd548a5b	-0.05188976
165	0x3d0c9aa1	0.034327153
166	0x3e344ae7	0.17606698
167	0x3ddd1ccc	0.10796508
168	0x3dbe35bc	0.09287593
169	0xbe16c529	-0.14723648
170	0x3db7e168	0.0897854
171	0xbd05c24b	-0.032655995
172	0x3e1cafdd	0.15301462
173	0x3d76c323	0.06024469
174	0x3d8e39df	0.06944632
175	0xbd2b4244	-0.041811243
176	0x3e1763df	0.14784192
177	0xbdfc6f7b	-0.12325951
178	0x3d1f9653	0.03896172
179	0x3d862df3	0.06551733
180	0x3d83cc18	0.06435412
181	0xbdf71530	-0.12064588
182	0x3e02c8aa	0.1277186
183	0xbd0de7ec	-0.034645006
184	0x3e289723	0.16463904
185	0xbde1c7b7	-0.11024421
186	0xbd4b5615	-0.04964264
187	0xbde8deb4	-0.11370602
188	0xbda2f913	-0.079576634
189	0x3ebe5924	0.37177384
190	0x3e3f2cec	0.1866948
191	0x3e0484ee	0.12941334
192	0x3c9bf352	0.019036923
193	0xbcfe9705	-0.031077871
194	0xbdec06dd	-0.115247466
195	0x3ea522b9	0.32253054
196	0x3e836230	0.2566085
197	0xbd9aad2c	-0.07552561
198	0x3ccd50bd	0.025062913
199	0x3d8d665b	0.069042884
200	0x3daa266b	0.08308109
201	0xbd4d06ef	-0.05005544
202	0xbd34da01	-0.044153217
203	0xbd27946a	-0.040913023
204	0xbdb11c5b	-0.086479865
205	0xbde92eb8	-0.11385864
206	0xbe16c286	-0.14722642
207	0x3d9494c3	0.072549365
208	0x3dc3c39c	0.09558794
209	0x3def321d	0.1167948
210	0xbb6857ce	-0.0035452726
211	0x3d78c12a	0.06073109
212	0xbd0ac312	-0.03387744
213	0xbe468836	-0.19387898
214	0xbe9a3320	-0.3011713
215	0xbdd33e6f	-0.10314643
216	0xbde69f6c	-0.11260876
217	0xbe116da3	-0.1420198
218	0x3c96ca74	0.018407084
219	0x3d63053c	0.055424914
220	0xbdc683aa	-0.09693082
221	0x3e424427	0.1897131
222	0x3e12b26c	0.14325875
223	0xbe0bf85e	-0.13668963
224	0xbd87d18f	-0.06631767
225	0xbe94b73f	-0.29046056
226	0xbe19a7c6	-0.15005407
227	0x3d96fcdd	0.073724486
228	0xbd1e4a21	-0.038644914
229	0xbd1f01bb	-0.03882001
230	0xbd2b9318	-0.041888326
231	0xbd01ad61	-0.031659488
232	0x3b5a7655	0.0033334692
233	0xbdab23df	-0.08356451
234	0xbddac546	-0.10682158
235	0x3d92e5cc	0.071727365
236	0x3d50980d	0.050926257
237	0x3da4fa11	0.08055509
238	0xbda7edde	-0.081996664
239	0x3db6bcbb	0.08922716
240	0x3b3f4c7c	0.0029189875
241	0x3b9f76ce	0.0048664575
242	0xbda97389	-0.0827399
243	0x3db04f69	0.08608896
244	0xbe8bb49a	-0.27286226
245	0xbd43841b	-0.047733407
246	0xbe25cf26	-0.16192302
247	0xbd83c31a	-0.06433697
248	0x3c6fc651	0.014634685
249	0x3e4ca3c3	0.19984345
250	0xbc199d95	-0.009375949
251	0x3e8611f2	0.26185566
252	0x3cb21836	0.02174006
253	0xbc988919	-0.01862006
254	0xbd665bd5	-0.05623992
255	0x3e0a84bd	0.13527198

fc1.bias f4 [128]
0	0xbdf1fb9a	-0.11815567
1	0xbdd7d352	-0.10538353
2	0xbe149994	-0.1451171
3	0x3e50c34c	0.20387
4	0x3e81c95a	0.25348932
5	0xbc874b56	-0.016515415
6	0x3d44fe72	0.04809422
7	0xbdeb2343	-0.11481335
8	0x3d2fe32a	0.04294125
9	0x3e185b47	0.1487857
10	0x3d7623c4	0.060092703
11	0x3dcfd055	0.10147158
12	0x3e0844ce	0.13307497
13	0x3dadc6a5	0.08485154
14	0xbe1b31d6	-0.1515573
15	0x3e4e3d05	0.20140465
16	0x3d5d85c6	0.054082654
17	0x3e1b672f	0.1517608
18	0xbd9e2000	-0.07720947
19	0x3dc66e03	0.09688952
20	0xbd74bf02	-0.05975247
21	0xbd56e888	-0.052467853
22	0xbdb90fea	-0.090362385
23	0x3e0aa546	0.1353961
24	0x3e3a4ce4	0.18193394
25	0xbdb20e06	-0.08694081
26	0xbdedbe8d	-0.1160861
27	0x3d8f201b	0.069885455
28	0x3cec48b8	0.028843269
29	0x3e0cd352	0.13752487
30	0x3e262f6b	0.16229026
31	0x3edc002f	0.4296889
32	0xbd7b696e	-0.061379842
33	0x3e0fb640	0.14034367
34	0x3cbcacb1	0.023031564
35	0x3dbbfafe	0.09178732
36	0x3dcecbf4	0.10097495
37	0xbd55a1cf	-0.052156266
38	0xbe42d0b9	-0.19024934
39	0xbe10aefc	-0.14129251
40	0x3dcb7429	0.09934265
41	0x3dcdba52	0.100453034
42	0x3e4c432f	0.19947504
43	0x3e39ee0b	0.18157212
44	0xbd85ad91	-0.06527246
45	0x3ca5324c	0.020165585
46	0x3e1fcfff	0.15606688
47	0xbe087971	-0.13327576
48	0x3d2eb743	0.04265524
49	0x3e135b37	0.14390264
50	0xbd1c6a07	-0.038187053
51	0xbd69f7e1	-0.05712116
52	0xbe45f3f7	-0.19331346
53	0x3e37db92	0.17954853
54	0x3e66f76f	0.22555326
55	0x3dd5ee9f	0.10445904
56	0xbdce8ec2	-0.10085823
57	0x3db1edd3	0.086879395
58	0x3c8ebc48	0.017423764
59	0x3dd54be0	0.10414863
60	0xbe0cabaf	-0.13737367
61	0x3e46d8c3	0.19418626
62	0x3db715c9	0.08939702
63	0x3e0b838c	0.136244
64	0x3dc2f091	0.09518541
65	0xbe079d48	-0.13243592
66	0x3db5f091	0.08883775
67	0x3e2239c8	0.15842354
68	0x3daa41d3	0.08313336
69	0xbdafd26c	-0.08585057
70	0x3dd22a37	0.10261958
71	0x3db0eef6	0.08639328
72	0x3da205cd	0.07911263
73	0x3e442d5a	0.19157925
74	0xbd3df320	-0.04637444
75	0xbd78e380	-0.060763836
76	0xbe156fa8	-0.14593375
77	0x3de6b04c	0.11264095
78	0xbdc16b76	-0.09444325
79	0x3dccf592	0.10007776
80	0x3dd47779	0.1037435
81	0x3da28985	0.07936386
82	0x3d85fb39	0.065420575
83	0x3dea3aa2	0.114369646
84	0xbd8a214e	-0.067446336
85	0xbdc4f52e	-0.09617077
86	0x3e017e22	0.12645772
87	0x3e80d4ee	0.25162452
88	0xbdd07756	-0.101790115
89	0xbde69602	-0.112590805
90	0xbe09843b	-0.13429348
91	0x3c5e0d57	0.013552985
92	0x3d53493f	0.051583525
93	0x3eb37ac8	0.35054612
94	0x3d1af6ea	0.03783313
95	0xbd853684	-0.06504539
96	0x3e18e7ac	0.14932126
97	0x3db2e720	0.0873549
98	0x3d839d66	0.06426506
99	0xbe29237d	-0.16517444
100	0xbdaa0b1b	-0.083028995
101	0xbd4288ac	-0.04749362
102	0x3d5e7745	0.054312963
103	0x3dc4de6c	0.09612736
104	0x3ee9a868	0.45636296
105	0x3e25e351	0.16199996
106	0x3d9e2979	0.07722754
107	0xbdd90da3	-0.10598304
108	0x3d09b0a3	0.03361572
109	0xbdee1b69	-0.11626322
110	0x3db19a4c	0.08672008
111	0xbdf72b0a	-0.12068756
112	0xbe2c3399	-0.16816558
113	0x3cbefcb2	0.023313854
114	0xbd91b988	-0.071154654
115	0x3d5a227e	0.05325555
116	0xbdbd09be	-0.09230374
117	0x3e02eb33	0.12785034
118	0x3da0e167	0.07855492
119	0xbd944216	-0.072391674
120	0xbd98a56c	-0.07453427
121	0x3d8f9295	0.0701038
122	0x3e9f733f	0.31142613
123	0xbda34533	-0.07972183
124	0x3d367ae0	0.044550776
125	0xbd7e7267	-0.06212082
126	0x3d1a7cf2	0.037716813
127	0xbe172b0e	-0.14762518

fc2.weight f4 [64, 128]
0	0xbd6cf842	-0.057853945
1	0x3cda4287	0.02664305
2	0xba0ecc5c	-0.0005447322
3	0xbaceaf19	-0.0015768736
4	0xbd247da7	-0.040158894
5	0xbc7b0e60	-0.0153232515
6	0x3c80236d	0.015641892
7	0xbd7fcb37	-0.06244966
8	0xbc0390ba	-0.008030111
9	0x3cae5993	0.021282947
10	0x3c3dbbc8	0.011580415
11	0xbdadf4b8	-0.08493942
12	0x3d5c6114	0.05380352
13	0x3caf03a3	0.021364039
14	0x3d59c837	0.053169455
15	0xbc8aa7be	-0.016925689
16	0xbc082b38	-0.008311085
17	0x3d00aa82	0.03141261
18	0x3d689da2	0.056790955
19	0x3d3641f2	0.044496484
20	0xbdbc6f02	-0.092008606
21	0xbd7517cb	-0.059837144
22	0xbda214c4	-0.07914117
23	0xbc4275b1	-0.01186888
24	0xbcdd1553	-0.026987707
25	0x3cc2b970	0.023770064
26	0xbd79a326	-0.060946606
27	0xbd932bff	-0.07186126
28	0xbd087c6e	-0.03332179
29	0x3d0df794	0.034659937
30	0xbd081d61	-0.033231143
31	0xbc36bbc4	-0.011153165
32	0x3c93419c	0.01797562
33	0x3d56ae83	0.05241252
34	0xbcd7d340	-0.026345849
35	0x3cc1f5b2	0.023676727
36	0x3d4b366d	0.04961245
37	0xbb90b8b0	-0.0044165477
38	0xbd988497	-0.074471645
39	0xb8c3278e	-9.305692e-05
40	0x3cc544f9	0.02408074
41	0x3d197493	0.03746469
42	0x3d7aa213	0.061189722
43	0x3d1c774b	0.038199704
44	0x3d6bbd44	0.057553545
45	0xbb8da87e	-0.0043230643
46	0x3d70b9fd	0.058771122
47	0x3ccd33b3	0.025049066
48	0xbd974ded	-0.0738791
49	0x3d053bb1	0.03252763
50	0x3c4e4678	0.012590043
51	0xbdbeb5f0	-0.093120456
52	0xbdab8772	-0.083754435
53	0xbd66bfb2	-0.05633516
54	0xbd9480af	-0.07251107
55	0x3c3c99f1	0.011511312
56	0x3d4515fe	0.048116677
57	0xbda182a9	-0.078862496
58	0x3b9231d5	0.004461507
59	0xbc473104	-0.012157682
60	0x3c84e764	0.016223617
61	0xbcd29b18	-0.02570872
62	0x3d8fcbcc	0.07021293
63	0xbd8054dd	-0.062661864
64	0xbd05a952	-0.03263218
65	0x3d64468b	0.055731338
66	0x3c19447d	0.009354708
67	0xbd69cd65	-0.057080645
68	0x3d1c5428	0.038166195
69	0x3d859a7f	0.065236084
70	0xbd3c0d35	-0.045911033
71	0x3c1a8977	0.009432188
72	0xbd7828fa	-0.060585953
73	0xbc980d52	-0.01856104
74	0x3d551cfe	0.052029602
75	0xbd7ea4e7	-0.062168982
76	0xbc097124	-0.008388791
77	0xbaac624a	-0.0013151851
78	0x3c6307e7	0.0138568645
79	0xbdba63cc	-0.09101066
80	0xbcda45b1	-0.02664456
81	0xbc95457d	-0.018221611
82	0xbdbbcb3e	-0.09169625
83	0xbd8803e1	-0.06641365
84	0x3d47abea	0.048747934
85	0xbd93ac83	-0.072106384
86	0x3ce42898	0.027851388
87	0xbda0fc60	-0.07860637
88	0xbaecebd0	-0.0018075649
89	0xbd34dee2	-0.04415787
90	0xbd81e8e8	-0.063432515
91	0xbba862df	-0.0051387395
92	0x3ba07dc1	0.0048978035
93	0xbcd41271	-0.0258877
94	0x3cc7c360	0.024385154
95	0x3d31fe6e	0.043455534
96	0xbd917497	-0.07102316
97	0x3d0ccaa4	0.03437294
98	0xbdad83e6	-0.08472423
99	0x3ccaefaf	0.024772493
100	0xbd84384e	-0.06456052
101	0xbc85c51c	-0.01632934
102	0x3d1f9f74	0.038970426
103	0x3d48be09	0.049009357
104	0x3d116125	0.035493035
105	0xbd0288d4	-0.03186877
106	0xbd4ae4b7	-0.049534526
107	0xbd82bda7	-0.063838296
108	0x3c8cd382	0.017190699
109	0x3d4e723d	0.050401915
110	0xbdaf56f6	-0.08561508
111	0x3cbac41f	0.022798596
112	0x3c2586ab	0.010102908
113	0x3a3482a6	0.0006885923
114	0x3d5b3f89	0.05352739
115	0x3d5c2b80	0.053752422
116	0x3d66dbcb	0.056361955
117	0xbd53c312	-0.051699705
118	0xbd36af40	-0.044600725
119	0x3d370ea6	0.044691704
120	0x3ba045c4	0.004891129
121	0xbc084119	-0.008316302
122	0xbcde56b0	-0.027140945
123	0x3b846c36	0.00404122
124	0x3d5dcea1	0.054152135
125	0x3d167616	0.03673371
126	0x3d81606a	0.06317218
127	0x3c9fa180	0.019486189
128	0x3ded7de5	0.11596278
129	0x3d933c26	0.07189207
130	0x3da9822b	0.08276781
131	0x3db50a46	0.0883985
132	0x3c4bba36	0.012434533
133	0x3d06d364	0.03291644
134	0x3d8c51d5	0.06851546
135	0x3dd91146	0.10598998
136	0x3bdc4de4	0.0067231525
137	0x3dfd4c2c	0.12368044
138	0x3ce4f6a0	0.027949631
139	0x3de2ceac	0.11074576
140	0x3ddae759	0.10688657
141	0x3e0d40bd	0.13794227
142	0x3deecf4d	0.11660633
143	0x3d10a287	0.03531125
144	0x3de8f6e9	0.113752194
145	0x3d0f527b	0.03499077
146	0x3b7cd611	0.0038579742
147	0x3e0154c4	0.12629992
148	0x3b600def	0.0034187993
149	0x3de8715d	0.11349747
150	0x3cbf09ca	0.023320097
151	0x3e00fa3f	0.12595461
152	0x3e0f71b9	0.14008226
153	0x3ca3c0e7	0.019989444
154	0x3ce213e1	0.02759737
155	0x3c0b0e7a	0.008487338
156	0x3d8fdd66	0.0702465
157	0x3da14dfc	0.078762025
158	0x3d90c89e	0.07069515
159	0xbd4c1c35	-0.049831588
160	0x3ae3ae31	0.0017370639
161	0x3e26318c	0.16229838
162	0xb9a32e98	-0.00031124498
163	0x3d709da3	0.058744084
164	0xbd00b95b	-0.03142677
165	0x3dfd3b59	0.12364835
166	0x3dcef6c6	0.10105662
167	0x3e01f331	0.12690426
168	0x3c35e495	0.0111018615
169	0x3dc70823	0.09718349
170	0x3d59d27a	0.05317924
171	0x3cd3392d	0.0257841
172	0x3dee7dca	0.11645086
173	0x3d6a1cc2	0.05715633
174	0xbd0567c6	-0.03256967
175	0xbd7f3b66	-0.062312506
176	0xbc944aa7	-0.018102003
177	0x3d7d1abc	0.061793074
178	0x3ddeaae5	0.10872439
179	0x3d8a5bdd	0.06755803
180	0x3d15851e	0.036503904
181	0x3c48e022	0.012260469
182	0xbd5b6ad5	-0.05356868
183	0x3db2d0ea	0.087312534
184	0x3da2903c	0.07937667
185	0x3ce70a74	0.028203227
186	0xbd5a001a	-0.053222753
187	0x3c9bf7b3	0.01903901
188	0xbc7389b4	-0.014864374
189	0x3e18e802	0.14932254
190	0x3dedd53f	0.11612939
191	0xbccd60c3	-0.025070554
192	0x3df37ad0	0.11888659
193	0x3d2f2c3a	0.042766787
194	0x3db3c412	0.08777632
195	0x3d8c38ef	0.06846797
196	0x3d68d05d	0.056839336
197	0x3d866752	0.065626755
198	0xbc9dd4da	-0.019266535
199	0x3dc5839d	0.09644244
200	0x3df5e05c	0.12005684
201	0x3df1bec5	0.118039645
202	0x3c545635	0.0129600065
203	0x3cdbd08d	0.026832843
204	0x3d01cbfd	0.03168868
205	0x3e198bf7	0.14994799
206	0x3d4f3030	0.050583065
207	0x3d2f6d71	0.04282898
208	0x3ad99844	0.0016601165
209	0x3db3e122	0.08783175
210	0x3d0d5322	0.03450311
211	0x3d97c1a6	0.074099824
212	0x3dc559f4	0.09636298
213	0xbc7c39a7	-0.015394605
214	0x3e1a97fd	0.15097041
215	0x3df65d02	0.120294586
216	0xbd336d2f	-0.043805297
217	0x3dc1cfae	0.0946344
218	0xbd34390f	-0.043999728
219	0xbcb7e66d	-0.022448743
220	0x3dc0039a	0.09375687
221	0xbab1c798	-0.0013563512
222	0x3dc03c85	0.09386543
223	0x3bf8e78c	0.007595962
224	0x3c35376b	0.011060576
225	0x3dad8f75	0.08474628
226	0x3d4993ad	0.0492131
227	0x3d9878ac	0.07444891
228	0x3ce9ac66	0.028524589
229	0x3e001558	0.12508142
230	0x3c1e52b4	0.009663273
231	0xbbfef579	-0.0077807275
232	0xbde18f1c	-0.11013624
233	0x3d6d8d67	0.05799618
234	0x3dd6a587	0.104807906
235	0x3d481d65	0.048856158
236	0x3d91ebea	0.07125075
237	0x3da6d39e	0.081458315
238	0x3d99b245	0.07504705
239	0x3e14c3d7	0.14527832
240	0xbc698cd6	-0.014254769
241	0xbd3ba07a	-0.04580734
242	0x3c789941	0.015173257
243	0x3ccffbd3	0.025388634
244	0xbc863b78	-0.016385779
245	0xbd2317d9	-0.039817665
246	0x3d2ed754	0.04268582
247	0x3d9cf674	0.07664195
248	0xbd8dbf1a	-0.06921215
249	0x3ddc4b76	0.107565805
250	0xbdda6377	-0.10663503
251	0x3b59449f	0.0033152474
252	0x3ce0a596	0.027422708
253	0xbcd37c22	-0.025816027
254	0x3d5edda6	0.0544106
255	0x3d046221	0.032320146

fc2.bias f4 [64]
0	0xbc5e3408	-0.01356221
1	0x3c4ab239	0.012371593
2	0xbd0df749	-0.034659658
3	0x3db75181	0.089510925
4	0xbde6bfdf	-0.11267065
5	0x3c7cac29	0.015421906
6	0xbd30bc60	-0.0431484
7	0xbe12de87	-0.143427
8	0xbd9fa80c	-0.07795724
9	0xbc3cbe83	-0.011520031
10	0xbc743644	-0.014905516
11	0x3ea35e88	0.3190806
12	0x3e8f5756	0.2799632
13	0x3d3c1540	0.045918703
14	0x3e217677	0.15767847
15	0xbdab2af2	-0.083578005
16	0xbdb259ee	-0.08708559
17	0x3e6fd51b	0.23421137
18	0xbc0d7b03	-0.008635285
19	0xbcad6373	-0.021165585
20	0x3d880d61	0.06643177
21	0x3e197308	0.14985287
22	0xbda5a6bb	-0.08088442
23	0xbd1e23cb	-0.038608354
24	0x3d3a4997	0.045480337
25	0x3ccdba13	0.025113141
26	0x3e3300a4	0.17480713
27	0xbddb3261	-0.107029684
28	0xbd9ede4b	-0.07757243
29	0xbe099350	-0.13435102
30	0xbde4f7c8	-0.11180073
31	0x3e13ead2	0.14445046
32	0xbc83ea08	-0.016102806
33	0xbde32874	-0.110917
34	0xbddcac58	-0.107750595
35	0xbdef5d83	-0.11687758
36	0xbdf3d1e0	-0.11905265
37	0xbdb516f7	-0.08842271
38	0x3def855f	0.116953604
39	0xbd6656b7	-0.05623504
40	0xbdb7909d	-0.0896313
41	0x3e4b77b9	0.1986989
42	0xbcc140fb	-0.023590555
43	0x3e3f8465	0.18702848
44	0xbd04c920	-0.03241837
45	0xbdd85dda	-0.10564776
46	0x3e997d43	0.2997838
47	0x3e68eff9	0.22747792
48	0xbc96cb40	-0.018407464
49	0x3d759ac3	0.059962045
50	0xbd6c015e	-0.05761849
51	0xbdad2e2b	-0.084560715
52	0xbd5a118a	-0.053239383
53	0xbde33e3a	-0.11095853
54	0xbdd63e21	-0.10461069
55	0xbd7dac75	-0.061932046
56	0x3ea35fba	0.3190897
57	0xbe0d6c4b	-0.13810842
58	0x3ea0065d	0.31254855
59	0x3e6b8673	0.23000507
60	0xbdeb659f	-0.11493992
61	0xbd965a39	-0.07341427
62	0x3d0dc67c	0.034613118
63	0xbd609869	-0.05483285

fc3.weight f4 [6, 64]
0	0xbce05670	-0.027384967
1	0x3f1e0de1	0.6173993
2	0xbbafc8b3	-0.0053645014
3	0xbe2f3f61	-0.17114021
4	0x3f42ce2b	0.7609584
5	0x3ed89e9a	0.42308503
6	0xbc566a43	-0.013086858
7	0x3f45c506	0.7725376
8	0x3f398af1	0.7247763
9	0x3ec38ea9	0.3819478
10	0x3ead7ab9	0.33882692
11	0x3ea00cf4	0.31259882
12	0x3eadeb7e	0.3396873
13	0x3e39d17b	0.18146317
14	0xbe8cf12e	-0.27527755
15	0xbd84cbd5	-0.064841904
16	0x3f0ca30b	0.54936284
17	0xbee50f43	-0.44738206
18	0xbd41f605	-0.047353763
19	0x3e93c209	0.28858975
20	0x3e48172b	0.19540088
21	0x3e776949	0.24161257
22	0x3f147cde	0.5800303
23	0xbde3e8f3	-0.11128416
24	0xbd9137d7	-0.07090729
25	0x3f138f9a	0.57640994
26	0xbf00afc3	-0.5026819
27	0x3f3d4fd8	0.73949957
28	0xbdc485e3	-0.09595849
29	0x3f3b5bef	0.73187155
30	0x3f324f19	0.69651943
31	0xbee53254	-0.4476496
32	0x3ee44798	0.44585872
33	0x3f390dc5	0.72286636
34	0x3f37c9ed	0.7179249
35	0x3f0b83f5	0.54498225
36	0x3f25c9f1	0.64761263
37	0xbd5924ea	-0.05301372
38	0x3e8bcd33	0.27304992
39	0x3e929249	0.28627232
40	0x3f1ed541	0.6204415
41	0xbec80016	-0.39062566
42	0x3f19ed9f	0.60128206
43	0x3ebaa9f1	0.3645778
44	0xbccbd983	-0.024883991
45	0x3e869e54	0.2629267
46	0x3e982ca7	0.29721567
47	0x3e30776a	0.17233053
48	0x3eb96978	0.3621328
49	0xbe8aff8f	-0.271481
50	0x3f00d6de	0.5032786
51	0xbd93eed0	-0.07223284
52	0xbdf143dd	-0.11780522
53	0x3f2fbe8d	0.6865013
54	0x3f455b96	0.77092874
55	0x3f35db15	0.7103742
56	0x3e7993f5	0.24372847
57	0x3f3901e0	0.72268486
58	0x3ea5306e	0.3226351
59	0xbe2ff9e8	-0.17185175
60	0x3f286d71	0.65791994
61	0x3f31aa5e	0.69400585
62	0x3e544328	0.20728743
63	0x3f10a95a	0.5650841
64	0x3d726b12	0.05918414
65	0x3c8b8e1d	0.017035538
66	0x3b4a9b93	0.0030915483
67	0x3ef8e538	0.4861238
68	0xbe923c46	-0.2856161
69	0x3c221c56	0.009894451
70	0xbd87feb9	-0.06640381
71	0xbea28f3d	-0.31749907
72	0xbe4c2544	-0.1993609
73	0xbebe683a	-0.37188894
74	0xbeb9f1dd	-0.3631734
75	0x3ea49a0f	0.32148787
76	0x3ea30099	0.31836393
77	0xbdd2ff4c	-0.103026
78	0x3f0d9737	0.5530886
79	0xbdf1a62c	-0.11799273
80	0xbe90789d	-0.2821702
81	0x3f4f2de8	0.8092942
82	0xbd218b11	-0.039439265
83	0xbe51d9ca	-0.20493236
84	0xbdb7977e	-0.08964442
85	0x3e9608e2	0.29303652
86	0xbeaa3c55	-0.33249155
87	0xbdf1dcff	-0.1180973
88	0x3d738505	0.05945303
89	0xbd8122e7	-0.06305485
90	0x3f2e9d38	0.68208647
91	0xbe92e6bb	-0.28691658
92	0xbce362ad	-0.027757013
93	0xbeb89ab3	-0.36055526
94	0xbe671720	-0.22567415
95	0x3f0a5708	0.5403905
96	0xbeb7321f	-0.35780427
97	0xbe74c491	-0.23903109
98	0xbebdecc9	-0.37094715
99	0xbed0e0c5	-0.40796486
100	0xbeb27bf7	-0.34860203
101	0xbd86247b	-0.06549927
102	0x3ea8ad6d	0.32944813
103	0xbe7ce783	-0.2469769
104	0xbe8e034b	-0.27736887
105	0x3f359cfa	0.7094265
106	0xbc4c2303	-0.012459519
107	0x3eb7b2a4	0.3587848
108	0x3dd0423e	0.10168885
109	0xbd9a1257	-0.07523029
110	0x3ec06249	0.37574986
111	0x3e3c393d	0.1838121
112	0xbe0fea2f	-0.14054178
113	0x3e4ce0e8	0.2000767
114	0xbea0db9d	-0.31417552
115	0x3d5cb4fb	0.053883534
116	0x3cdbb27a	0.026818503
117	0xbea04e04	-0.3130952
118	0xbe892e8a	-0.2679332
119	0xbeaebe3d	-0.34129515
120	0x3e92f362	0.2870131
121	0xbecd6f3f	-0.40123937
122	0x3e937578	0.2880056
123	0x3f2f9089	0.6857992
124	0xbec26cf7	-0.3797376
125	0xbe4dff10	-0.2011683
126	0xbe524f71	-0.20538117
127	0xbea297ae	-0.31756347
128	0xbd70dc8d	-0.058804084
129	0xbe2b5490	-0.16731477
130	0x3cd57bf0	0.026060075
131	0xba521dc4	-0.00080152997
132	0xbde27701	-0.110578544
133	0xbd9031db	-0.07040759
134	0xbd2c4c41	-0.04206491
135	0xbe551b7b	-0.20811264
136	0xbe6dfd89	-0.23241247
137	0xbc8c17e9	-0.017101245
138	0xbd96f6e9	-0.07371313
139	0xbe147812	-0.14498928
140	0xbe2abb56	-0.16673025
141	0x3d695e11	0.056974474
142	0x3c2efb1e	0.010679988
143	0x3d8b038e	0.067877874
144	0xbd0c2123	-0.03421129
145	0xbe10070d	-0.1406519
146	0x3dd2a71d	0.102857806
147	0xbdb21115	-0.086946644
148	0xbc1c079f	-0.009523301
149	0xbe13635c	-0.14393371
150	0xbe73f2f0	-0.23823142
151	0xbc6cf958	-0.014463745
152	0x3cf49b29	0.029859142
153	0xbd069ef6	-0.03286644
154	0xbda8d44d	-0.08243618
155	0xbe671d9e	-0.22569892
156	0xbd0d4484	-0.03448917
157	0xbe75c439	-0.24000634
158	0xbdd80a52	-0.105488434
159	0xbde1b13c	-0.11020133
160	0xbdb5bf00	-0.08874321
161	0xbd98a15b	-0.07452651
162	0xbe71e040	-0.23620701
163	0xbd995f2d	-0.074888565
164	0xbe5a3157	-0.21307884
165	0xbdf9da39	-0.12199826
166	0xbe512c7c	-0.20427126
167	0x3d0c2ac1	0.03422046
168	0xbdef44ea	-0.11683066
169	0xbe3ed90e	-0.18637487
170	0xbe2267fc	-0.1585998
171	0xbe53f46e	-0.20698711
172	0xbdcdfdce	-0.10058175
173	0xbdbbd6c8	-0.09171826
174	0xbe688478	-0.22706783
175	0xbe6fc554	-0.23415118
176	0xbdbc48f0	-0.09193599
177	0x3d5a245a	0.053257324
178	0xbe3a0d65	-0.18169172
179	0xbc477ffa	-0.012176508
180	0xbce011b1	-0.027352186
181	0xbdcf4062	-0.10119702
182	0xbd3caef7	-0.046065297
183	0xbddd10c9	-0.10794217
184	0xbe9266ef	-0.28594157
185	0xbe4f4511	-0.2024119
186	0xbe83f615	-0.25773683
187	0xbe1363d3	-0.14393549
188	0xbe851ff1	-0.26000932
189	0xbe2f7c00	-0.17137146
190	0xbc6efc51	-0.014586524
191	0xbdf309d0	-0.11867106
192	0xbd1febd6	-0.03904327
193	0xbdd3c41e	-0.10340141
194	0x3da61977	0.08110326
195	0xbe052d47	-0.13005553
196	0xbc89f016	-0.016838115
197	0xbe0451ed	-0.12921877
198	0xbcc19bfe	-0.023633953
199	0xbcfbc7ed	-0.03073498
200	0xbdc04e5f	-0.09389948
201	0xbd795c51	-0.060879055
202	0x3d852752	0.065016404
203	0xbe129a80	-0.1431675
204	0xbe1527f4	-0.14566022
205	0x3b801c53	0.0039096265
206	0xbdb6daad	-0.08928428
207	0xbdbc47f0	-0.091934085
208	0xbd01fcbf	-0.031735178
209	0xbe269fac	-0.16271847
210	0xbdcfc260	-0.10144496
211	0x3dc2f3d3	0.09519162
212	0xbdfdf82d	-0.124008514
213	0xbc8cce52	-0.017188225
214	0xbd4210e7	-0.0473794
215	0x3c504a13	0.012712973
216	0x3c41a641	0.011819423
217	0xbe0aae8c	-0.13543147
218	0xbb96c345	-0.0046009147
219	0xbde9a4a1	-0.114083536
220	0x3d51357e	0.051076405
221	0xbe0ac6c7	-0.1355239
222	0xbe30cade	-0.17264888
223	0x3d9b07d3	0.07569852
224	0x3d3236db	0.043509346
225	0xbe2b46b2	-0.16726187
226	0xbdac3577	-0.08408635
227	0xbc9da379	-0.019242989
228	0xbdc77da4	-0.09740761
229	0x3de74d9a	0.11294098
230	0x3c88027e	0.01660275
231	0x3d2a2c7a	0.041546322
232	0x3c6c4e85	0.014423017
233	0xbd927ffa	-0.07153316
234	0x3c4f0395	0.012635131
235	0xbe53b99f	-0.20676278
236	0xbbc0a462	-0.005878971
237	0x3dbad1dc	0.09122059
238	0xbe16ae6b	-0.14714973
239	0xbe3fd554	-0.18733722
240	0xbd72d4d3	-0.059284996
241	0xbdb72a3e	-0.08943604
242	0x3b74f984	0.0037380168
243	0x3cb0ee58	0.021598026
244	0x3bd5b4a2	0.0065217772
245	0xbd750a6d	-0.059824396
246	0xbc5e89d3	-0.013582665
247	0xbe082ce0	-0.13298368
248	0xbe5e7dd2	-0.21727684
249	0xbe3f0cd9	-0.18657245
250	0xbe56291f	-0.20914124
251	0xbd174cff	-0.036938664
252	0xbc8802b7	-0.016602857
253	0xbd9ad055	-0.075592674
254	0xbd207c85	-0.03918125
255	0xbe11e18b	-0.14246194

fc3.bias f4 [6]
0	0x3d9e696f	0.077349536
1	0x4010057c	2.2503347
2	0xbf63c402	-0.8897096
3	0xbefb8f2e	-0.49132675
4	0x3dcd3327	0.10019522
5	0xbf7ea952	-0.9947711

fc4.weight f4 [128, 1280]
0	0x3ccfb0a0	0.025352776
1	0x3c4b3167	0.012401915
2	0xbbbecf24	-0.005823033
3	0xba0652a9	-0.00051240117
4	0xbb1e34d8	-0.0024140384
5	0x3d0e137f	0.03468656
6	0xbc987da7	-0.018614603
7	0xbd321d82	-0.043485172
8	0xbd1167ab	-0.035499256
9	0x3bc152b6	0.0058997525
10	0x3c6874f8	0.014188044
11	0xbcd805f8	-0.026370034
12	0x3d1bca53	0.03803475
13	0xbcb1002a	-0.021606524
14	0x3d243646	0.04009082
15	0xbc90ef09	-0.017692106
16	0x3b09a4f5	0.0021002863
17	0x3d1a2e5b	0.037641864
18	0x3be89ca3	0.0070987507
19	0x3ba3afd9	0.004995328
20	0x3bc0961d	0.00587727
21	0x3c4e81e3	0.01260421
22	0xbcac7960	-0.02105397
23	0xb9cd7d8d	-0.0003919419
24	0x3d0ac126	0.033875607
25	0xbcc1e70a	-0.023669738
26	0x3c25ae6e	0.010112388
27	0x3d11b62c	0.035574123
28	0xbc642995	-0.01392593
29	0x3c380d0e	0.011233581
30	0x3a6c6641	0.00090179226
31	0xbcf825d2	-0.030291472
32	0xbb43448f	-0.0029795503
33	0xbd4a9caf	-0.04946583
34	0x3c5b22ae	0.0133749675
35	0xbc1381a8	-0.00900308
36	0xbc7241fa	-0.014786238
37	0x39289d1b	0.00016080255
38	0x3d0c93e5	0.03432073
39	0x3d19465e	0.037420623
40	0xbc47138a	-0.012150655
41	0xbc29b0ba	-0.010357076
42	0xbcb3731e	-0.021905478
43	0x3c26612f	0.010155006
44	0xbcb3939b	-0.02192097
45	0x3b349ed1	0.0027560482
46	0xbc43e7de	-0.011957137
47	0xbc0ecdc6	-0.008716052
48	0x3c18c308	0.009323843
49	0x3af632b9	0.0018783427
50	0x3d27715e	0.0408796
51	0xbcdcc9f2	-0.026951764
52	0xbca63cdc	-0.020292692
53	0x3d163a24	0.03667654
54	0xbbc20eca	-0.005922173
55	0x3d0bb98a	0.03411249
56	0x3cf40750	0.029788643
57	0xbd1ac8d6	-0.03778919
58	0x3c93f16b	0.018059453
59	0xbbb1f5f3	-0.0054309308
60	0x3c72d5aa	0.014821449
61	0xbcc83cd5	-0.02444307
62	0x3cffa700	0.031207561
63	0x3c793271	0.01520978
64	0xbc8e6bca	-0.017385382
65	0xbc0cf5d1	-0.008603529
66	0xbc3e540b	-0.011616717
67	0xbbdeca8e	-0.0067990487
68	0xbc2e96b9	-0.010656052
69	0xbb270993	-0.0025487884
70	0xbbf8cd0c	-0.007592803
71	0x3ce71c07	0.028211607
72	0x3a6b7770	0.0008982336
73	0x3c1f156c	0.009709697
74	0x3c3d7971	0.011564598
75	0xbba86790	-0.0051392987
76	0x3d0e38d9	0.034722183
77	0x3c91a413	0.017778432
78	0xbd19e592	-0.03757245
79	0x3c4f2925	0.012644087
80	0xbc8e5844	-0.017376073
81	0x3bb49ac4	0.0055116136
82	0xba1e979d	-0.0006049814
83	0x3ca4bc5a	0.020109344
84	0xbc850886	-0.016239416
85	0x3cc18c55	0.023626486
86	0xbd1f8949	-0.038949285
87	0x3cad1063	0.021125978
88	0x3d22019c	0.039552316
89	0xba914c9c	-0.0011085453
90	0xbbfe41f4	-0.007759327
91	0xbc964677	-0.018344147
92	0xbca4b0d8	-0.020103857
93	0x3d61e797	0.055152502
94	0xbb96e690	-0.004605122
95	0xba1703cb	-0.0005760758
96	0x3c794b6e	0.015215738
97	0xbcc6da57	-0.024274034
98	0xbce2f5ed	-0.027705157
99	0xbd158d10	-0.03651148
100	0x3c2ebfc8	0.010665841
101	0x3c2c67b4	0.010522772
102	0x3c9d6cbf	0.019216893
103	0xbc7cd15e	-0.015430776
104	0x3ba4b4da	0.005026442
105	0xbcdae9e5	-0.026722858
106	0xbd09d187	-0.033647086
107	0xbcc47230	-0.02398023
108	0xbb58602d	-0.003301631
109	0x3c905bdc	0.017621927
110	0x3c080b10	0.008303419
111	0x3c8a41f4	0.016877152
112	0x3c7c7aae	0.0154101085
113	0x3c17dcea	0.009268979
114	0xbbcd658d	-0.0062682093
115	0xbbc7f551	-0.006102242
116	0x3c0b6f9a	0.008510495
117	0xbc8e2f35	-0.017356494
118	0xbc902f3c	-0.017600648
119	0xbc12eb66	-0.008967256
120	0x3c40c55d	0.011765805
121	0x3bbb38c4	0.005713554
122	0xbc502e4d	-0.0127063515
123	0x3d356043	0.044281255
124	0xbca3b8a8	-0.019985512
125	0xbb6fbb79	-0.0036580248
126	0xbc310e22	-0.010806592
127	0xbc88f245	-0.016717086
128	0xbc38e502	-0.0112850685
129	0x3cc3a0cd	0.023880387
130	0x3c699c92	0.014258521
131	0xbb89ea50	-0.0042088404
132	0x3c47c99f	0.012194066
133	0x3c588fc7	0.013217873
134	0xbb770915	-0.0037694622
135	0x3c3ca83f	0.011514722
136	0xbc809a56	-0.015698593
137	0x3d18fffc	0.0373535
138	0x3cf6e18f	0.030136852
139	0xbc1d2e8b	-0.009593616
140	0xbae7877b	-0.0017664278
141	0xbd5cdcbe	-0.053921454
142	0xbbc70c55	-0.006074468
143	0xbc70bed4	-0.0146939345
144	0xbae08b62	-0.0017131383
145	0xbc8f5009	-0.017494218
146	0xbc52ddcf	-0.012870266
147	0xbc2b2fd3	-0.010448414
148	0xbca02ce7	-0.019552661
149	0xbcb8c14c	-0.022553109
150	0xbc610793	-0.013734716
151	0xbcd018c6	-0.025402438
152	0xbc7bc2b0	-0.015366241
153	0xbc95313a	-0.01821195
154	0xbc96baf7	-0.018399699
155	0xbc792128	-0.015205659
156	0x3cf89dbb	0.03034865
157	0xbd34b7a6	-0.044120453
158	0xbbfaef6d	-0.0076579363
159	0xbca10a90	-0.019658357
160	0xbc0df66b	-0.008664708
161	0xbc81cc72	-0.015844557
162	0xbc7ee65c	-0.015557852
163	0xbc88c804	-0.016696937
164	0xbb34d5bf	-0.0027593223
165	0x3d0d686e	0.03452342
166	0x3c36fa3d	0.01116806
167	0xbd1c8ed6	-0.038222156
168	0x3c76f60e	0.015073312
169	0xbb92fddc	-0.004485829
170	0xbcafa5b1	-0.021441313
171	0x3cc7b148	0.024376526
172	0xbafb2923	-0.001916204
173	0xbbb8dda1	-0.0056416546
174	0xbc0136d5	-0.007886608
175	0x3cea1fa0	0.028579533
176	0xbc134819	-0.008989357
177	0xbcffaa0c	-0.031209014
178	0xbac738bd	-0.0015199404
179	0x3d0b8492	0.034061976
180	0x3c3d12a8	0.0115400925
181	0xbd44f94c	-0.04808931
182	0xbc45267a	-0.012033099
183	0x3c7b18f0	0.01532577
184	0xbc07b933	-0.008283901
185	0xbcbacf6f	-0.02280399
186	0xbd051ee7	-0.032500174
187	0x3c3059b0	0.010763571
188	0x3d1bdca8	0.03805223
189	0x3c6cd98c	0.014456164
190	0x3c9fbeac	0.0195001
191	0x3a93a914	0.0011265599
192	0xbccf3ab9	-0.025296556
193	0x3a4f39af	0.0007905019
194	0xbd09a2e3	-0.033602607
195	0xba24f06e	-0.00062919303
196	0xbb7a1f18	-0.0038165506
197	0xbc451cd6	-0.012030801
198	0xbc375fdf	-0.011192291
199	0xbbaf3f70	-0.0053481385
200	0xbc02a523	-0.007973942
201	0x3d27a348	0.0409272
202	0x3c31a405	0.010842328
203	0xbd43148b	-0.047627013
204	0xbc0fe511	-0.008782641
205	0xbc556d73	-0.013026583
206	0x3c4b5022	0.012409242
207	0xbc9d3a4f	-0.019192843
208	0xbc646a9e	-0.013941435
209	0x3cbd6caf	0.023123113
210	0x3ccbfc4f	0.024900584
211	0xbc4a4bd5	-0.012347181
212	0x3cbf73b5	0.023370603
213	0xbc16aedf	-0.009196966
214	0x3cd1189d	0.025524432
215	0x3cda291b	0.026630929
216	0x3cf98d6f	0.030462949
217	0xbc2bbc29	-0.010481873
218	0x3cdbf172	0.026848529
219	0xbd16d899	-0.036827657
220	0xbb8f16cd	-0.0043667317
221	0x3b46dd9c	0.0030344492
222	0xbd307ef4	-0.043089822
223	0x3c65eca9	0.014033475
224	0xbcf81903	-0.030285364
225	0x3c9e7c56	0.019346397
226	0x3d5cddc8	0.053922445
227	0xbcdb957c	-0.026804678
228	0xbd163332	-0.036669917
229	0xbce495bb	-0.027903428
230	0x3d38a5fd	0.045080174
231	0x3ccddd36	0.025129896
232	0x3cab7e64	0.020934291
233	0xbd08025e	-0.033205383
234	0xbccd0a7c	-0.025029413
235	0x3d2ce3c7	0.042209413
236	0xbd6a7754	-0.057242706
237	0xbb665ed7	-0.0035151744
238	0x3b0f9871	0.002191093
239	0xbc3f1727	-0.011663235
240	0x3c2e6813	0.01064493
241	0xbd0e8164	-0.034791365
242	0x3bb39a7d	0.005481063
243	0xbd17ee5d	-0.037092555
244	0x3a463492	0.0007560934
245	0xbd031009	-0.031997714
246	0x3cd7a502	0.026323799
247	0x3d035965	0.032067675
248	0x3c847f48	0.016173974
249	0xbc104696	-0.0088058915
250	0xbc5bc541	-0.013413728
251	0xbab2c4cb	-0.0013638971
252	0xbb710877	-0.0036778727
253	0x3c2fe60e	0.010736002
254	0x3d32ec55	0.043682415
255	0xbc1b745f	-0.009488194

fc4.bias f4 [128]
0	0xbd5888ca	-0.052864827
1	0x3c31d86a	0.01085482
2	0x3d1660cf	0.036713418
3	0x3c7834bb	0.015149291
4	0x3d115dcf	0.035489853
5	0xbc15ba9a	-0.009138728
6	0x3c3a8aaf	0.011385604
7	0xbc92aeef	-0.01790568
8	0x3c9ec4d4	0.019380964
9	0x3d13457a	0.03595493
10	0x3ca4a847	0.020099772
11	0xbd2b7a92	-0.04186494
12	0x3afb7cad	0.0019186937
13	0xbd0c8d08	-0.034314185
14	0x3daaf3ba	0.083472684
15	0x3c4dc7fe	0.012559889
16	0xbd098c7b	-0.03358124
17	0x3d3a1c0a	0.045436896
18	0x3bbdc280	0.0057910085
19	0xbd925455	-0.07144991
20	0x3c29b520	0.010358125
21	0xbd5763d8	-0.052585453
22	0xbd069adc	-0.03286253
23	0xbc5160c8	-0.012779422
24	0xbbd29b72	-0.006427222
25	0x3b102105	0.0021992337
26	0x3c633c34	0.013869334
27	0xbb99ce62	-0.004693792
28	0xbd37ba3f	-0.044855352
29	0xbc922078	-0.017837748
30	0xbbffa2c4	-0.0078013856
31	0x3ad12574	0.0015956596
32	0x3be798d2	0.007067778
33	0xbd28fbd7	-0.0412558
34	0xbd0d2f63	-0.03446902
35	0xbcb9984f	-0.022655634
36	0xba8febc2	-0.0010980295
37	0x3b832dd0	0.004003264
38	0xbb2fc712	-0.0026821536
39	0xbd50671b	-0.05087958
40	0x3badb6e2	0.0053013423
41	0x3d107eb0	0.03527707
42	0xbe0324d0	-0.12807012
43	0xbbfe28b7	-0.0077563184
44	0x38abbf60	8.189562e-05
45	0x3bea1493	0.007143566
46	0xbd36f668	-0.044668585
47	0xbcd1fbe6	-0.02563281
48	0x3c9e24a0	0.019304574
49	0xbcf62b3c	-0.030049913
50	0xbca3a0bf	-0.01997411
51	0xbd79ecd2	-0.061016865
52	0xbd105212	-0.03523452
53	0xbd350f12	-0.044203825
54	0x3cac078f	0.020999698
55	0x3c7ca253	0.0154195605
56	0xbb7a9e51	-0.0038241337
57	0xbd13e460	-0.036106467
58	0x3b3c564e	0.0028737965
59	0xbcff2362	-0.031144802
60	0x3c5f8637	0.013642839
61	0xbd29d8f7	-0.04146668
62	0xbbf66959	-0.0075198826
63	0xbc2ad139	-0.010425859
64	0xbd9d4fb0	-0.07681215
65	0x3cb8c367	0.022554113
66	0xbb30a15c	-0.0026951646
67	0xbbb6e49b	-0.005581451
68	0x3d225205	0.039629
69	0x3c32f53f	0.010922729
70	0x3bf3a5d3	0.0074355393
71	0xbc8a622e	-0.016892519
72	0x3a9093e7	0.0011030406
73	0x3c5ab2dd	0.013348308
74	0x3d3eb849	0.046562467
75	0x3cb91ea2	0.022597615
76	0xbbb2794e	-0.0054465896
77	0xbcebb33f	-0.028771995
78	0xbd619343	-0.05507208
79	0xbc251649	-0.010076114
80	0xbd9a124f	-0.07523023
81	0x3cc07d4b	0.023497244
82	0x3cb9efc0	0.02269733
83	0xbd1e9ec4	-0.03872563
84	0xbd3bbb74	-0.045833066
85	0xbcc61111	-0.02417806
86	0x3d7dd6b7	0.061972346
87	0xbd8dc826	-0.06922941
88	0x3ce22b9d	0.027608687
89	0x3c95040a	0.018190403
90	0x3d84331f	0.06455063
91	0xbd08b2b3	-0.033373546
92	0xbca8f83a	-0.020626176
93	0x3baaa7d9	0.0052079973
94	0xbcc8a36a	-0.024491984
95	0xbd3b4069	-0.045715723
96	0xbc2bfd45	-0.010497396
97	0xbc7daf8f	-0.015483751
98	0xbcc3b376	-0.023889285
99	0xbc1afae2	-0.009459229
100	0x3ce75af7	0.028241618
101	0x3ccac17c	0.024750464
102	0x3b247e4a	0.0025099688
103	0x3d114798	0.035468668
104	0xbb384cd2	-0.002812196
105	0xbcb36353	-0.021897947
106	0xbbd14e07	-0.0063874754
107	0xbc6043a2	-0.013688
108	0xbd02d974	-0.03194566
109	0x3c2d8973	0.0105918525
110	0xbd51941e	-0.051166646
111	0x3d7c9d23	0.061673295
112	0xbce07fd5	-0.027404705
113	0x3b8c7d80	0.0042874217
114	0xbca86897	-0.020557685
115	0x3c0df836	0.008665135
116	0x3cc8a97f	0.024494885
117	0xbd0c58cb	-0.034264367
118	0xbbc711a3	-0.0060751005
119	0xbd10d3bb	-0.035358172
120	0xbcebd2a4	-0.028786965
121	0x3d2ce374	0.042209104
122	0xbbf89d11	-0.007587083
123	0x3c20c17a	0.009811753
124	0xbcc69564	-0.024241157
125	0xbd1317ee	-0.035911493
126	0xbd2acdf2	-0.04170031
127	0xbbdfac1f	-0.0068259384

fc5.weight f4 [64, 128]
0	0x3e22a142	0.15881827
1	0x3d83f34f	0.06442892
2	0x3c4a7173	0.01235615
3	0x3d90081c	0.07032797
4	0xbdc0a770	-0.09406936
5	0x3d5a08df	0.053231116
6	0x3d899767	0.06718331
7	0x3d0a25a9	0.03372732
8	0xbc116609	-0.008874425
9	0xbdb57625	-0.08860425
10	0x3d293a8e	0.041315608
11	0xbd5138ef	-0.051079687
12	0x3db31781	0.087447174
13	0xbdb7d5d2	-0.0897633
14	0xbd633202	-0.055467613
15	0x3c1798dd	0.009252754
16	0xbd3d6922	-0.04624284
17	0xbc7a5551	-0.01527913
18	0x3ce95e7d	0.028487438
19	0xbdce3f45	-0.100706615
20	0xbd7b33be	-0.061328642
21	0xbd922b35	-0.07137147
22	0x3b373327	0.0027954073
23	0xbe2fe04c	-0.17175406
24	0x3d6fac50	0.05851394
25	0xbdc795c6	-0.09745364
26	0xbd80b040	-0.06283617
27	0x3cdcd4ca	0.026956934
28	0x3dcdc591	0.100474484
29	0xbe09bb4c	-0.13450354
30	0xbc491345	-0.012272661
31	0xbdcec11d	-0.10095427
32	0x3d921a30	0.07133901
33	0xbd305f79	-0.0430598
34	0xbdda6f10	-0.10665715
35	0x3db48d99	0.0881607
36	0xbda4c891	-0.080460675
37	0xbd9bbfcd	-0.076049425
38	0x3dae5088	0.08511454
39	0x3e17f44a	0.14839283
40	0xbd58deff	-0.05294704
41	0x3d8933d2	0.06699337
42	0x3e2877b8	0.16451919
43	0xbdd23c6a	-0.10265429
44	0x3c27204f	0.010200574
45	0xbc5b544a	-0.013386795
46	0x3c258571	0.010102616
47	0xbdb5cbfb	-0.08876797
48	0x3dc877fa	0.09788509
49	0xbdb4481b	-0.088028155
50	0x3de51e4c	0.11187419
51	0xbd2823ec	-0.041049883
52	0x3d2d9008	0.042373687
53	0xbcddedeb	-0.027090987
54	0xbe012a34	-0.12613755
55	0xbcb82153	-0.022476828
56	0x3d7aada6	0.06120076
57	0xbd6dd083	-0.05806018
58	0x3e2ef2cc	0.17084807
59	0x3dde7ca1	0.10863615
60	0x3d364b24	0.044505253
61	0x3e1c07bf	0.1523733
62	0xbb87d824	-0.004145639
63	0xbdbae1a1	-0.091250665
64	0xbe1d7094	-0.15374976
65	0xbdb183eb	-0.086677395
66	0xbd6aaa26	-0.057291172
67	0xbdc0753a	-0.09397359
68	0x3c9ce98c	0.019154333
69	0x3cc75aab	0.024335226
70	0x3cb1cd4d	0.02170434
71	0x3d57c342	0.052676447
72	0xbc97321f	-0.018456517
73	0xbd4c7ac3	-0.049921762
74	0x3dae89d1	0.0852238
75	0xbd8b4074	-0.06799403
76	0x3e03ae4d	0.12859459
77	0xbdfd27af	-0.12361085
78	0x3d245e14	0.040128782
79	0xbdeed79f	-0.1166222
80	0xbe023cbb	-0.1271848
81	0x3d0a75a1	0.033803586
82	0x3becde6d	0.0072286637
83	0x3d1df7fb	0.03856657
84	0x3e30ac59	0.17253245
85	0x3d1f9079	0.03895614
86	0xbdd9e2b1	-0.10638941
87	0xbe1c9b49	-0.15293612
88	0xbd3b2f7e	-0.04569959
89	0xbce04c75	-0.027380208
90	0xbe06d34f	-0.13166545
91	0x3da3c807	0.079971366
92	0x3e35247e	0.17689702
93	0x3c491e9a	0.012275362
94	0xbdece23a	-0.11566587
95	0xbdd2ccef	-0.10292994
96	0xbdd51032	-0.1040348
97	0xbd25b047	-0.040451314
98	0xbda142ef	-0.07874095
99	0x3ce190a7	0.027534796
100	0x3d27eda4	0.040998116
101	0xbc8f52c9	-0.01749553
102	0x3d162229	0.03665367
103	0xbdb2f7d4	-0.08738676
104	0x3d88f7d2	0.06687893
105	0xbc99d7e4	-0.018779702
106	0x3d2c67f6	0.042091332
107	0xbc8f59b1	-0.017498823
108	0xbb902d9f	-0.0043999697
109	0x3d202b84	0.039104
110	0xbde02e5a	-0.10946341
111	0x3d3e1517	0.04640683
112	0xbb27cf8b	-0.0025605883
113	0x3c996b12	0.018727813
114	0x3e08a795	0.13345177
115	0xbd9a7b63	-0.075430654
116	0xbd487064	-0.04893531
117	0x3e531154	0.20612079
118	0x3c87bb6f	0.016568867
119	0xbdcae321	-0.09906603
120	0xbde7f8c0	-0.11326742
121	0xbc0f22d8	-0.008736335
122	0xbd188716	-0.037238203
123	0x3e09aaf2	0.13444117
124	0xbdbcf02c	-0.09225497
125	0x3e07562c	0.13216466
126	0xbc412996	-0.0117897
127	0x3dedd5a9	0.11613018
128	0x3c82e775	0.015979508
129	0xbccef43f	-0.02526295
130	0x3d336142	0.043793924
131	0x3ccffaa3	0.025388068
132	0xbdd431da	-0.10361071
133	0x3cb98ca2	0.022650067
134	0x3b9d83a2	0.0048069516
135	0xbb973b54	-0.0046152268
136	0xbd1365a2	-0.035985596
137	0x3cd2c202	0.025727276
138	0xbddb7698	-0.10715979
139	0x3d9eeb95	0.077597775
140	0x3d4ecffa	0.05049131
141	0xbc8f4a18	-0.017491385
142	0x3df078c0	0.11741781
143	0xbd9a61da	-0.07538195
144	0xbdb81242	-0.089878574
145	0xbe13a7c2	-0.14419463
146	0xbd8addc5	-0.067805804
147	0xbdef7ed7	-0.11694115
148	0xbd956d1c	-0.072962016
149	0x3e38c648	0.18044388
150	0xbccfe2ed	-0.025376761
151	0x3cca5f4c	0.024703644
152	0x3c17d3c3	0.0092667965
153	0x3c0b06e8	0.008485533
154	0xbe355aae	-0.17710373
155	0xbe0eb1b9	-0.13934983
156	0x3e13c505	0.14430626
157	0xbc2b847a	-0.010468597
158	0x3d19ac90	0.037518084
159	0xbe31f928	-0.17380202
160	0xbc3fe976	-0.011713376
161	0x3cc5494f	0.024082808
162	0xbdf6ba5e	-0.120472655
163	0x3cf83d0d	0.030302549
164	0x3d60d532	0.05489082
165	0xbd741d87	-0.059598472
166	0x3dbbf7a6	0.091780946
167	0x3e3f222e	0.18665382
168	0xbcf432d2	-0.02980939
169	0x3d1aa72b	0.03775708
170	0x3e4198d1	0.18905951
171	0xbdef8bc0	-0.11696577
172	0x3bbe04c1	0.0057989066
173	0xbd30e99a	-0.04319153
174	0xbbbb1b10	-0.005710013
175	0xbd4ec4c5	-0.050480623
176	0xbdd04efb	-0.10171314
177	0xbdec8057	-0.115479164
178	0x3dbac40a	0.09119423
179	0x3c61a728	0.013772763
180	0xbb122bda	-0.002230397
181	0x3db6e86b	0.08931049
182	0x3daee036	0.085388586
183	0xbcb20fe0	-0.021736085
184	0x3cffbc85	0.031217823
185	0xbdbe79b5	-0.093005575
186	0x3d7fa3ce	0.062412076
187	0xbc359ba7	-0.011084474
188	0x3d7518e2	0.059838183
189	0xbd9942da	-0.07483454
190	0xbc875d40	-0.016523957
191	0xbd836a0d	-0.06416712
192	0xbe17d95f	-0.14829014
193	0x3dfcc842	0.12342884
194	0xbdca4ffc	-0.09878537
195	0x3d1eac0b	0.03873829
196	0x3d6bc7eb	0.057563704
197	0xbc6fd34c	-0.014637779
198	0xbd64af93	-0.055831503
199	0x3df86f0c	0.121305555
200	0xbd940157	-0.07226818
201	0x3dd1ed25	0.1025031
202	0xbe0ae219	-0.13562812
203	0x3dc86b8f	0.0978614
204	0xbc2c211c	-0.010505941
205	0xbdd3c87a	-0.10340972
206	0x3da35b8a	0.07976444
207	0x3e105732	0.14095762
208	0x3e9704c7	0.29495832
209	0x3dcc9386	0.09989075
210	0x3d213676	0.03935858
211	0xbc739be8	-0.014868714
212	0xbdc57357	-0.0964114
213	0xbe427327	-0.1898924
214	0xbd9e9d47	-0.07744842
215	0xbe2dec31	-0.16984631
216	0x3c9630b0	0.018333763
217	0xbe284362	-0.16431955
218	0xbc80cdaa	-0.015723068
219	0x3d998e14	0.074978024
220	0x3d498b6c	0.04920523
221	0x3d143476	0.036182843
222	0x3e25ba5d	0.16184373
223	0xbcd01b96	-0.025403779
224	0x3d9ae05d	0.07562325
225	0x3d17917b	0.037003975
226	0xbd173ca0	-0.03692305
227	0x3bb48b4f	0.005509771
228	0x3dab1226	0.08353071
229	0xbd55a3f2	-0.052158304
230	0x3d8a416e	0.06750761
231	0x3c07d8aa	0.008291403
232	0x3dc021a2	0.09381415
233	0xbda2c117	-0.07946985
234	0xbd18d599	-0.037313078
235	0xbde5c210	-0.11218655
236	0xbd9a4272	-0.07532205
237	0x3bce6abf	0.006299346
238	0xbdba2890	-0.09089768
239	0x3d440ef6	0.04786583
240	0x3c35b943	0.011091533
241	0x3cb3890a	0.021915931
242	0x3d167d28	0.036740452
243	0x3d9646e2	0.073377386
244	0xbd31b76b	-0.04338781
245	0xbdef7a92	-0.116933
246	0x3ccfbc65	0.025358388
247	0xbdc3fcc7	-0.09569698
248	0x3de5ce18	0.1122095
249	0xbc015770	-0.007894382
250	0xbdab5144	-0.083651096
251	0xbe1ad922	-0.15121892
252	0xbde2ff4c	-0.1108385
253	0xbdc30b45	-0.09523634
254	0x3e08c48f	0.13356231
255	0x3df5a384	0.11994079

fc5.bias f4 [64]
0	0xbd4ca7cc	-0.04996471
1	0xbd7b2ebd	-0.06132387
2	0x3b5d09bb	0.0033727724
3	0xbbebfa5c	-0.007201476
4	0xbce02359	-0.027360605
5	0x3cd6ee17	0.026236577
6	0x3cd04f16	0.025428336
7	0x3d4f59a9	0.050622616
8	0x3d70cbe3	0.05878819
9	0x3d7c8212	0.061647482
10	0x3caa89ae	0.020817604
11	0x3c22f69a	0.00994649
12	0xbd26fd8d	-0.04076915
13	0x3d5136d3	0.051077675
14	0x3dd4c889	0.103898115
15	0x3be5519f	0.0069982554
16	0xbd8a0094	-0.067383915
17	0x3c969d66	0.0183856
18	0x3dabf84a	0.08396967
19	0x3d687639	0.05675337
20	0xbcfa361b	-0.030543378
21	0x3d61895b	0.055062633
22	0xbd2e8436	-0.042606555
23	0xbdb293d5	-0.08719603
24	0x3dc475fc	0.09592816
25	0xbcbb12de	-0.022836145
26	0x3d9c4108	0.07629591
27	0x3ddb1585	0.10697464
28	0x3d2ab50f	0.041676577
29	0x3d0c77a3	0.034293782
30	0x3d43fffa	0.04785154
31	0x3d170d4b	0.03687791
32	0x3c6a3859	0.014295661
33	0xbc557c84	-0.013030175
34	0x3d961923	0.07329013
35	0x3d218d24	0.039441243
36	0x3d25fa2a	0.04052178
37	0xbdbe69ef	-0.09297549
38	0xbcda0bdb	-0.026616981
39	0x3d9bb942	0.076036945
40	0xbc23eb15	-0.010004778
41	0x3d5591c6	0.052140974
42	0x3d692050	0.05691558
43	0x3d78512a	0.06062428
44	0xbda303b1	-0.079596885
45	0xbd32ce36	-0.04365369
46	0xbc1b57f6	-0.009481421
47	0x3db41fb6	0.08795111
48	0x3da7d6ac	0.08195242
49	0x3d492e8f	0.049116667
50	0x3da9a499	0.08283348
51	0xbad17f6e	-0.0015983412
52	0x3cba0ef7	0.022712214
53	0xbd93f2b0	-0.07224023
54	0x3d1e0097	0.03857478
55	0x3c37e084	0.011222962
56	0xbccaf2b8	-0.02477394
57	0x3dc630ac	0.09677252
58	0x3d9d6144	0.076845676
59	0xbdc82279	-0.097722
60	0xbce158e0	-0.0275082
61	0xbd94f6f5	-0.07273666
62	0xbd96fa94	-0.07372013
63	0x3d4a10dc	0.049332485
