models/0.9/0.pt (torch, 747117 bytes, 12 tensors)

fc1.weight f4 [128, 36]
00000000: c68e 09bc b483 f13c 85e8 dc3d 1a88 b8be
00000010: 4e9d bfbd ac9b d1be e35b 7ebd 28a1 7dbd
00000020: dd9b 13be 804d 043f aa48 a4be 6f7a c93e
00000030: a9c3 613c a0e3 32bd 19db 7bbd 42ac cb3d
00000040: a0a4 43bd f7b9 f83d 5361 f43d 1103 8f3d
00000050: 3695 b8bd 8316 a43e 6851 483e bbc5 3a3e
00000060: ea18 0f3e 149d 353d 0843 a33c fdfa abbd
00000070: 5b9b 21be 799b 06be 4833 083e 910a c1bd
00000080: faab dc3d 4001 c13e 226a c6bc 2a2f 69bd
00000090: ade3 1ebb c427 fbbd 3bc1 d03d 6e3d 443e
000000a0: c99a 37be 0b25 d03c 44f1 d23c 09b7 88bd
000000b0: 2c36 16be 5bc9 54bd d1af 793d f297 05be
000000c0: 2651 0bbe e19c 043d 37c2 13be 44e0 7ebd
000000d0: 2adb 93bc 7f62 3bbd 59f5 79bd 5921 613d
000000e0: d988 21be 8e73 9a3d 13de 373d fb02 93be
000000f0: 729d 903d c4bc c2bd f1ac acbd b412 813e
00000100: 577a 12bd c6cb 91be 80d1 003d b199 63bd
00000110: e52e b93d baac 7f3d fae2 76bd e1f3 59bc
00000120: 84f6 1ebe 9472 babd c580 183e 6abd 193e
00000130: 74df b1be b684 acbd c0cf 0c3e 1dee cfbd
00000140: 5622 f73d 91cf bbbb df5b 183e 9dd4 73be
00000150: 1b4d 0abe 550d 9dbb c0a5 9f3d 4fc0 40bc
00000160: 2673 7a3d 498f dfbd c9fb 4c3d 8704 a3bd
00000170: d525 d63d 03b6 55be dab2 543e 6325 1bbe
00000180: 17c8 0abe def8 8bbb de1c a03d 2d18 243d
00000190: 8ae9 1cbe e2e4 5dbd c513 e53c a1a3 bfbd
000001a0: 46de 0abe 6c3c b23e ff41 b8be 05d6 fd3d
000001b0: e456 b03b a79b 053e 7627 d5bd c008 41be
000001c0: cca8 b6bd a9fd 9a3d d82a 733d cca3 083b
000001d0: 6a2b 1dbd ea49 a13e a03f 85be 72a0 cbbd
000001e0: 3335 c4bd 4ded 80bd 25f8 e83a 2a25 b03d
000001f0: 7268 b9be a500 8f3d 888f 27be 0f8f 593d
00000200: d307 ebbd f440 183f d587 123e 5bf6 bbbd
00000210: b449 193e ad66 9dbb 84c4 98bc ba3e 9c3d
00000220: d1fb ecbd b846 8fbe 06b9 283d ad3a 603d
00000230: 9813 23be 3edf be3e 253e 093e d1a4 983d
00000240: a33a c53d 5083 113e 50c9 80bd 8cdf 143e
00000250: 2c82 2cbe c045 7b3e 1908 973d 2d68 c13d
00000260: 8a5d cbbd f023 993c 3ffa 68bc 1fba 5ebd
00000270: 6be3 27bd 4950 a6bc 5044 a63c 38ab 65be
00000280: b405 973d 7387 f9bd 0c25 0d3e a818 bbbd
00000290: b0bf a3bb 1741 ba3e b149 313e 5a82 043e
000002a0: 7189 c3bd 6d4b 99bd d08b a8bd 22a2 cbbd
000002b0: 3344 09bd 84cc a23d 42fe 16be 570b 0fbe
000002c0: 94e7 e5bd f4b8 2e3e b834 8b3e 208d a43c
000002d0: b539 1d3e 3e41 a5bd 3d22 e63d e10b d9bd
000002e0: b984 36be 7059 03be bf40 fabb 1ee4 d43d
000002f0: 7372 45bd 52b3 293e a1e6 223e 2b5b 903d
00000300: d9c8 eb3c c97f da3b 5012 b1bc 1f2a a4bc
00000310: 5d59 133e fc59 71be b526 353d 47fa adbd
00000320: 04ad 8cbd a654 5c3e ebb4 a9bd c479 2c3e
00000330: 440c b4bd 598f d2bc 6c2c 0bbe 2a96 51be
00000340: ca06 52bd 0196 32be b46f aabd a4e8 be3d
00000350: 4334 aebc e355 81be 1af3 29bf f7a0 0a3e
00000360: 2926 0cbe f5b8 03bc d086 233e fa1e 5b3c
00000370: c5c7 b13c e876 1e3e e20b 81bc 9649 0d3d
00000380: b163 f8bd b975 3e3c 8b41 2cbe db2e c53d
00000390: bead 85bd 7bab d8bd da05 1a3e 0c15 55be
000003a0: dc4e 1dbd b24b f0bd 5ed4 e33d c137 02be
000003b0: f349 933d 4135 4a3e 21ee 2bbe 0e2c 4abd
000003c0: 60ae 8d3c e906 113e 9228 163e 0066 8cbd
000003d0: d96d 4b3d 3ff6 89bd ce88 193e 56ea bdbd
000003e0: 75ea be3d cc0e 1ebe a8a8 fdbd 7253 183e
000003f0: 56b5 cc3d acaa 1f3c 0db0 0fbe 5381 8cbc
-0.008395856 0.029481746 0.10786537 -0.36041337 -0.09356175 -0.4093908 -0.06209935 -0.06192127
-0.14414926 0.51680756 -0.32086688 0.39351222 0.013779559 -0.04367411 -0.061488245 0.09944965
-0.04776442 0.12144845 0.119326256 0.06983007 -0.09012835 0.32048425 0.19562304 0.1823949
0.13974348 0.044339254 0.019929424 -0.083974816 -0.1578192 -0.13145246 0.13300812 -0.094258435
0.107749894 0.37696266 -0.02422053 -0.056929745 -0.0024244592 -0.12263444 0.10193106 0.19164059
-0.1793014 0.025408288 0.02574981 -0.06675536 -0.14669102 -0.05194984 0.060958687 -0.13046244
-0.13605174 0.032376174 -0.14429556 -0.062225595 -0.018048842 -0.04574823 -0.061024997 0.054963443
-0.1577486 0.075415716 0.04488952 -0.2871321 0.0706128 -0.095086604 -0.084314235 0.25209582
-0.035761204 -0.2847578 0.031449795 -0.055566493 0.090421475 0.062420584 -0.060275055 -0.013302774
-0.15523726 -0.09103885 0.14892872 0.15013662 -0.34740794 -0.0842375 0.13751125 -0.101528384
0.12067096 -0.005731531 0.14878796 -0.23811574 -0.13505976 -0.004792849 0.07795286 -0.0117646
0.06114497 -0.10916001 0.05004481 -0.07959848 0.10456435 -0.20870213 0.20771351 -0.1515098
-0.1355289 -0.0042716106 0.07818006 0.04006212 -0.15323463 -0.054173358 0.027963528 -0.093573816
-0.13561353 0.34811723 -0.3598785 0.123943366 0.005381452 0.13047658 -0.10407917 -0.18850994
-0.08918914 0.07567913 0.05936703 0.0020849584 -0.03837148 0.31501704 -0.26025105 -0.09942712
-0.095804594 -0.062952615 0.0017774148 0.086008385 -0.36212498 0.06982545 -0.16363347 0.053114947
-0.11476102 0.5947411 0.14309628 -0.09177848 0.14969522 -0.0048034997 -0.018648393 0.07629152
-0.11571468 -0.27983642 0.041192077 0.054743458 -0.15925443 0.37279695 0.13402613 0.07453311
0.09630325 0.14210248 -0.06288397 0.14538401 -0.16846532 0.24538326 0.073745914 0.09443698
-0.099299505 0.018693894 -0.01421982 -0.054376718 -0.040988367 -0.020301955 0.020296246 -0.22428596
0.07374135 -0.12184038 0.13783664 -0.09135562 -0.004997216 0.36377785 0.17313267 0.1294035
-0.09547699 -0.074850895 -0.08229792 -0.09943034 -0.033512305 0.079491645 -0.14745429 -0.1396917
-0.11225811 0.17062742 0.2718866 0.020086825 0.15354045 -0.080690846 0.11236999 -0.10597969
-0.17824067 -0.12827086 -0.007637113 0.103950724 -0.04820485 0.16572312 0.1590829 0.07048639
0.028782295 0.006668065 -0.021615177 -0.020039616 0.14389558 -0.23569483 0.044226367 -0.08495002
-0.068689376 0.21516666 -0.082864605 0.16843325 -0.08791402 -0.02570312 -0.13591164 -0.2046744
-0.051276006 -0.17440034 -0.08322087 0.093217164 -0.021265155 -0.2526084 -0.6638657 0.13537966
-0.13686432 -0.008039703 0.15969396 0.013374085 0.021701703 0.15475047 -0.015752736 0.034494005
-0.121283896 0.011624747 -0.16821878 0.096280776 -0.06527279 -0.10579582 0.15041295 -0.2080881
-0.038405284 -0.11733188 0.1112449 -0.12716581 0.07191839 0.19746877 -0.16790058 -0.04935842
0.017295063 0.14162792 0.14663914 -0.068553925 0.049665306 -0.06736421 0.14993593 -0.09273212
0.09322063 -0.15435332 -0.12385684 0.14875582 0.099955246 0.009745281 -0.14032002 -0.01715151

fc1.bias f4 [128]
00000000: 137a a33d 970c 8cbe 1e98 4d3d b6d7 6b3e
00000010: a27d ad3d 00d5 c73d 0ee7 7bbe 6f42 7fbb
00000020: f8da 4dbe a85c 9fbe df75 38be 1797 38bd
00000030: 3d2c 35be 7935 cf3d 9c13 4fbe be12 85be
00000040: 4174 f1bb f2c0 be3d 67ef 39be cf3a 5b3d
00000050: cfff 89be b2a6 36bc 1fb5 00bf 8579 71be
00000060: 07ef 66be 677b b03d 5df3 90bc bd5b eaba
00000070: 81af abbe b0b9 8abe fca5 233d b132 d2be
00000080: be31 b13d d588 e0be 784b 85be f10c 003e
00000090: 6b65 91bd 1a07 ac3d 0c6e 1a3e 76b0 e23d
000000a0: 61a5 c63d 7375 bb3d 1c7f 7a3c 243f a13d
000000b0: ff4a 9dbe 74a1 e93d 5d8f 103d e379 d7be
000000c0: 152a a2bd 234b fbbd 9553 463d 3df7 81be
000000d0: aefd 5b3d b198 eb3c 9610 aabd 7aba e9be
000000e0: 3405 b2be 070d 37bc aa4b 20be 83e3 a03d
000000f0: 36ac 35be 1a17 8b3c e898 653c 42ca f7bd
00000100: c35f 95be 2e9b 8b3d 54e3 8bbc 0116 c0bb
00000110: 16d4 afbe 6ed9 5dbd 2af5 b7be bc20 a7be
00000120: 3706 643d d4d6 3fbe cf78 903d 90ae dc3d
00000130: 3a18 12bf b499 8b3d ec40 23bd 76f2 9cbd
00000140: 95eb 12bd 6f4b 0c3e f7a0 ccbe 4642 69be
00000150: aeef 893d fc0f 363d 7d5d 123e 49ba 92bd
00000160: 4df2 31be 2d63 c03d 63d2 a4be d71b a03d
00000170: 9c68 6b3d 35c8 0abc f5a4 2c3e f2db a2bc
00000180: 3bff 1e3c c5d5 a8be f98d 063c e986 86ba
00000190: 1966 833d 9016 303d 8910 aabc 082e 9ebe
000001a0: efcf acbb 853a 90be ecb8 ea3d e3f6 1fbc
000001b0: 9172 983d 3088 dabe 9f94 c23d 1a14 91be
000001c0: 5f68 8d3d ae88 c13c 76ff cbbb 13df acbe
000001d0: 0228 d03d 8c0e 753c 57ef 6cbe 8119 68be
000001e0: 6a3d 32bf ac83 243e 4df7 683d 5322 813d
000001f0: 8c18 66be 7963 29bc 2327 0b3d 2ba3 3a3d
0.07982268 -0.27353355 0.0501939 0.23031506 0.08471228 0.097574234 -0.24599859 -0.003894951
-0.20103061 -0.3112538 -0.18013714 -0.045065966 -0.17692657 0.10117621 -0.20222324 -0.25990862
-0.007368595 0.09314145 -0.18157731 0.05352288 -0.2695298 -0.011148142 -0.5027637 -0.23581512
-0.22552119 0.08617287 -0.01769417 -0.0017880123 -0.33532336 -0.27094793 0.039953217 -0.410543
0.08652066 -0.43854395 -0.2603414 0.12504937 -0.07099422 0.08399792 0.15081042 0.110688135
0.09699512 0.09153261 0.015289094 0.07873371 -0.3072128 0.11407748 0.035292972 -0.4208518
-0.07918183 -0.122701906 0.048419554 -0.2538394 0.053708725 0.028759332 -0.08303945 -0.45650083
-0.34769595 -0.01117254 -0.15653864 0.078558944 -0.17741475 0.01697879 0.0140135065 -0.120991245
-0.29174623 0.068167076 -0.017076172 -0.005861998 -0.34341496 -0.054162435 -0.35929233 -0.32642162
0.05566999 -0.18734294 0.070542924 0.10775483 -0.57068217 0.06816426 -0.039856836 -0.07663433
-0.0358692 0.1370065 -0.39966556 -0.22779188 0.067351684 0.044448838 0.14293475 -0.07164437
-0.17377587 0.09393916 -0.32191762 0.0781781 0.05747281 -0.008470585 0.16859801 -0.019880269
0.009704406 -0.32975593 0.00821256 -0.0010263595 0.06415958 0.042990267 -0.020759838 -0.30894494
-0.005273811 -0.28169647 0.11461052 -0.009763452 0.07443727 -0.42682028 0.095010035 -0.2833565
0.06904673 0.023624744 -0.0062255217 -0.33763942 0.10163881 0.0149570815 -0.23138176 -0.22665979
-0.6962496 0.16065854 0.05687647 0.06305375 -0.22470301 -0.010338658 0.03397287 0.045565765

fc2.weight f4 [64, 128]
00000000: 0916 c6bd f294 273d 4301 fe3d 5f2e 3abd
00000010: 86a2 c6bd 80b1 793d aae6 8f3d 12e7 bebe
00000020: 3275 423d 6e23 21bd acb4 38be 240b 0abe
00000030: f073 943d 958a 44bd eb3f 853d fee4 993c
00000040: 369a a73d 441b 29bd 5ad7 10bd 6454 9b3d
00000050: e410 663c fd62 13be 9f87 babd 0e90 bbbd
00000060: e794 c7bd aab7 833d 0747 34be 81c8 73bd
00000070: cef6 50bd 1b68 e53c 5381 34bd d49a 42bc
00000080: 3079 4dbd 4a34 b0bd 6a30 643b a2cd 39bc
00000090: 633d 843d 70ae 01bd 4ad4 b13b 6480 6fbd
000000a0: c813 b43d 134f 9d3d 3da4 cf3d 18f2 1e3d
000000b0: 56c4 113c e808 723e 4f08 92bd 606e 783d
000000c0: f8f4 0a3e 6852 6dbd 3ea2 c83d 95dd e7bd
000000d0: 1936 243e 0882 b6bc 6e05 883d f869 5d3d
000000e0: 4671 a9bc b0e5 bebe 22b9 543c 566c c63d
000000f0: e98c 1ebd 08da bdbd 843d 243e 5e9b 55be
00000100: b7c7 8bbd 7d0e 90bd 8860 7ebe 4488 82bd
00000110: 16bb 693d 2022 65be a76e 11be 769e 87bd
00000120: 0f69 2cbe 74a4 49bd 32a4 5cbd 5bfa 9b3d
00000130: 62ad 74bd fa0e c2bd 9aae d6bd 5e89 803c
00000140: 7014 643d 0a89 223e e8ce 22bc 3d4d 28bd
00000150: 22d3 e5bb bab9 81bd 1990 27bd f925 dc3b
00000160: f7fd 853d 5f98 8abd 95d6 9dbd 34de a53c
00000170: e61e b93c 429c 683e d979 80be 813c 9dbe
00000180: 1939 86be 4cf0 27bd 44ad be3b 9fa4 09be
00000190: 7a8d 733d 58d7 803d 816e 23bd 4cd6 913b
000001a0: 354e 5d3e 70f1 f93d 06e9 61bd 40bd 06be
000001b0: c07c 44bd 9ed7 a1bd 5fca 913d caa8 ee3d
000001c0: cff6 ca3d 8b02 bc3d 813b 43bd e7e2 4abd
000001d0: 3bc4 f53a c4ee 023d ae65 c8bc 693b 6f3d
000001e0: 6a4e debd 111e 01bc 5f96 493c e6f2 4c3c
000001f0: b417 583c dbe1 373e ea45 953d 28a0 f43d
00000200: c13a 4a3e c71c ea3d 3a34 1d3e d4c1 d83d
00000210: 31ad 983d 4110 093e 20fa 823c 6d7d b8bd
00000220: 4f44 953c 6511 b13c a363 ff3d d383 6a3c
00000230: d6b0 503d f7af 4c3e 331b f83d 3813 f63d
00000240: 15d3 3fbc a971 aa3d d558 8ebc cb28 273e
00000250: 3573 123e 223f e5bd e59c 073e 4033 bb3c
00000260: bfcb 733e aeb4 213e 35ca cdbd d7ee 053e
00000270: e058 4a3d 63e3 db3d 10d8 043c 0f8f d23d
00000280: 66a3 8b3d 2d1a 193d c577 ab3d 9192 b53d
00000290: ea7b 063e cb7b b83d bbfb 973e 6da0 6b3c
000002a0: db66 8bbd fbc4 103e 932f a03d 2727 06bd
000002b0: b311 053e 4ac3 fb3c 3c94 ab3d 2307 1c3e
000002c0: 8b7f 5b3d e814 133e 2b8c b53d a4fb 8f3c
000002d0: a7a6 e83d 5450 50bc ea98 253d 7193 a23d
000002e0: 28ae 973d 9f6b 89be 1e17 6b3e 0b9a 0c3e
000002f0: c46b ca3d e33f 8fbc 7872 e43d 716b 033e
00000300: eae1 743c 354f 53bc 76ea cdbd e46f a0be
00000310: d26c c73c 24b3 29be 8f91 4c3e f60c 6a3e
00000320: 8f36 1f3e 3363 843e 92bf 2e3d 601a 0f3d
00000330: a7ba 203e 3734 da3c 9641 113d 50e1 0b3e
00000340: 00fb 1c3e b039 9a3d e32b b83d 8f8b b43d
00000350: 2e93 433d 3595 2a3e e072 3abd 88ef 8f3d
00000360: 0cb5 553e bc26 383e 5a65 ec3d ea4f a63d
00000370: 20d9 0d3e e1e3 073d 2f35 d03d f602 29bd
00000380: 31e0 9cbd c23c cf3d 8c66 adbe e22d 63bd
00000390: 910d 1d3e 1ce9 1f3e 1813 b9be a50d 2c3e
000003a0: 96f2 3bbe 62af 203e 9217 723d 2683 28be
000003b0: 3540 743d 445a 573e a926 253e ba4b 283c
000003c0: d1f5 da3b 4f44 793d 98f4 013d 4bf0 4f3e
000003d0: e261 a43c e286 173e 5724 f03b a5b4 903e
000003e0: 7f6f 693e 4955 ae3d 8dbd bb3d 92b9 c13d
000003f0: 085e 253e 84d3 34be 19ae a43d 7199 acbc
-0.096721716 0.04091353 0.124025844 -0.04545438 -0.09698968 0.060960293 0.070264176 -0.37285668
0.047475047 -0.03934043 -0.18037671 -0.13480812 0.07248676 -0.047983725 0.06506332 0.01878595
0.0818371 -0.04128577 -0.035361625 0.075844556 0.014042113 -0.1439323 -0.09107899 -0.091583356
-0.09745198 0.064315155 -0.1760522 -0.059517387 -0.05101662 0.028003743 -0.044068646 -0.011877734
-0.0501644 -0.08603723 0.0034818896 -0.011340531 0.06457021 -0.031660497 0.005426918 -0.058472052
0.087928355 0.07681098 0.10138748 0.038805097 0.008896908 0.2363621 -0.07130491 0.060652137
0.1357001 -0.057939917 0.0979657 -0.1132156 0.16036262 -0.0222788 0.06641661 0.054056138
-0.020683896 -0.37284613 0.012983592 0.09688632 -0.0387086 -0.09270102 0.16039091 -0.20860049
-0.06825202 -0.070340134 -0.24841511 -0.06373647 0.057063185 -0.22376299 -0.14202367 -0.06622021
-0.16836952 -0.0492291 -0.053867526 0.07616111 -0.059735663 -0.09475513 -0.10482521 0.015690502
0.055683553 0.15872589 -0.009937026 -0.041089285 -0.0070136944 -0.06334253 -0.040908907 0.006718394
0.065425806 -0.06767344 -0.07706944 0.020247556 0.022597741 0.22715858 -0.25092962 -0.30710223
-0.26215437 -0.04100065 0.0058189947 -0.13441704 0.059461094 0.062910736 -0.039900307 0.004450595
0.21611865 0.12204254 -0.05515387 -0.1315813 -0.047970533 -0.07902454 0.07118677 0.11653288
0.09910356 0.091801725 -0.04766417 -0.049532797 0.0018750498 0.031965986 -0.024462547 0.058406267
-0.108548 -0.007880704 0.012303918 0.012509083 0.013189245 0.17957251 0.07288726 0.1194461
0.19748975 0.1143127 0.15351954 0.10583845 0.07454909 0.13385107 0.01598841 -0.09008298
0.018221049 0.02161474 0.12470176 0.014313656 0.050949894 0.19989 0.12114563 0.120153844
-0.011708041 0.0832246 -0.017376343 0.16324155 0.1430176 -0.11193682 0.13243444 0.022851586
0.23808192 0.1579158 -0.100483336 0.13079391 0.049401164 0.1073673 0.008108154 0.102811925
0.06818275 0.03737848 0.083724536 0.08865846 0.13133207 0.09007987 0.29684243 0.01438151
-0.068067275 0.14137642 0.07821574 -0.032752182 0.12995033 0.03073277 0.08377883 0.15237097
0.05358843 0.14363444 0.088646255 0.017576046 0.113599114 -0.012714464 0.040429033 0.079382785
0.074062645 -0.2683992 0.22958037 0.13730638 0.09883836 -0.017486518 0.11154646 0.12833954
0.01494644 -0.012897302 -0.100544855 -0.31335366 0.024343882 -0.16572243 0.19977401 0.22856507
0.15548156 0.25856933 0.042663164 0.034937263 0.15696202 0.026636226 0.03546294 0.13660169
0.15330124 0.07530534 0.08992746 0.08815681 0.047747783 0.1665848 -0.04551971 0.07028109
0.20869845 0.17983526 0.11542769 0.08120711 0.13852358 0.033176307 0.10166394 -0.04126259
-0.076599486 0.101190105 -0.338673 -0.05546368 0.15337206 0.15616268 -0.3614738 0.1680208
-0.18354258 0.15691903 0.05910451 -0.16456279 0.059631545 0.21030527 0.16128029 0.010271961
0.0066821356 0.06085616 0.031727403 0.20306508 0.020066205 0.14797547 0.007328551 0.2826282
0.22796439 0.085123606 0.09167013 0.09459223 0.16149151 -0.17658812 0.08041019 -0.02106926

fc2.bias f4 [64]
00000000: 5ade 503e a0a3 4abe c494 343e 9aef 67be
00000010: 8827 ab3e 2e27 0dbe e4eb 30bd baa4 7a3d
00000020: 22fc 533e e87d 9d3e 88dd 37bc 81fa b13e
00000030: c1a7 c5bd 179a 69be 883c 3ebe 3d1c 51be
00000040: e8c1 3cbe 670a 20be 2a6e 51be 5032 3bbe
00000050: 5087 163e 03c9 34be d2a2 a6bd 1791 7cbd
00000060: 4bac 6cbe f26f 66be 3473 8a3c a4d1 1fbe
00000070: da9f dabd d488 a83e b507 683e eeba 9ebd
00000080: a487 8fbd 2aaa 2bbe 0b0d 59be abca 843e
00000090: b816 053e 596b aebd c5c3 acbd 7f57 bebd
000000a0: c946 f83e 2523 65bd e785 093e 8090 993e
000000b0: e5d2 90bd 1b21 14be 7916 9e3d 198a a23e
000000c0: 10d2 6f3e abb5 e13d ed83 f5bd 91d7 763d
000000d0: d513 0cbe 5d48 6fbe 672b 52bd 944f 953e
000000e0: 5cb8 30be 160c bbbd ce58 8a3e d5a2 c73c
000000f0: 0325 27be eda6 f5bd e1e7 67bc 3237 d1bd
0.2039732 -0.1978898 0.17634875 -0.22649994 0.33428597 -0.13784477 -0.043193713 0.06119225
0.2070165 0.3076012 -0.011222251 0.34761432 -0.09651137 -0.22812687 -0.18577778 -0.20420928
-0.18433344 -0.15628968 -0.2045218 -0.18280911 0.14700055 -0.17654805 -0.08136524 -0.061661806
-0.231126 -0.22503641 0.016900636 -0.15607315 -0.106750205 0.32916892 0.2265919 -0.07750498
-0.07008293 -0.16764131 -0.21196382 0.25935873 0.12996948 -0.08516569 -0.084357776 -0.09294032
0.48491505 -0.05594172 0.13429986 0.29993057 -0.07071475 -0.14465754 0.0771913 0.31745985
0.23419976 0.110209785 -0.119880535 0.060264174 -0.1367944 -0.23367448 -0.051310923 0.29162276
-0.17257828 -0.091331646 0.27020878 0.024369637 -0.16322713 -0.11994729 -0.014154405 -0.10215606

fc3.weight f4 [6, 64]
00000000: f21d fe3e 75a2 703f 43e8 b83e c7de 883f
00000010: df82 bebe e755 243f 830f c43e 6a91 0b3f
00000020: 5f0f 0fbe d138 e5be e8de 0b3f a8f6 37bf
00000030: 9f37 f63e 5324 873f d5b2 863f ba47 1d3f
00000040: ce16 7e3f 1f82 293f c1f1 4d3f c2f9 733f
00000050: 07d9 ed3e 5837 1f3f 543f 0b3f 7f37 43bd
00000060: fcad 803f 0293 133f 2bdf d33e aa00 6f3f
00000070: d016 293f 3e7d 64be 5130 68bd 08de 11bd
00000080: af02 533c 3790 723f 85d3 fc3e 7613 d93e
00000090: 130f 043f 6952 1f3f 33bd 183f 6068 893f
000000a0: 2ab9 b43e 65bf c63e 5d17 80be 110a dd3e
000000b0: f332 053f 26c0 893f 4ddd 183f ea28 cd3e
000000c0: d2e2 fe3e 80a8 833e ef93 7a3f ad47 7ebd
000000d0: 7ae3 733f e64e 833f 68dd 253f 3bc9 d03d
000000e0: 2af3 743f 72f4 803f 65c5 b1be 1b4a f33e
000000f0: aa3a 603f 4302 043e 3caa 1f3d a51f da3e
00000100: 3691 213f f035 9dbe 2162 153f 43e0 88be
00000110: 09f9 8c3f b195 1dbf c0e3 c93e 497c 1f3f
00000120: b4ff a8be 6571 643f 5d31 073f cd35 2b3e
00000130: 157b 2cbf 0577 6cbe 2d7b 37be 1e0f 19bf
00000140: 4ad8 95be 971c 4ebe aefd 82be 5d8b abbe
00000150: 84a2 2f3f 75e2 0bbf e28d 723e b38d a53d
00000160: c814 92be 31ba 16bf 8bf9 33bf 8e2d 75be
00000170: 22a5 08bf 82ab 883f 2c6a e5be 1e90 b23b
00000180: 9861 3b3d 3be7 91be ae2d 97be b4d2 173f
00000190: ac30 173f b962 9ebe ce7e fabe d594 6ebe
000001a0: a963 a73e 02e0 04be 9201 bcbd b546 4c3e
000001b0: b540 35bf a43f 22be d8b6 323f 3fd7 483f
000001c0: 9880 413f 3101 113d 2236 b83d 6719 b83e
000001d0: a6de 16be e912 d3bd e8d0 f23e 9ff4 583f
000001e0: 371c 8abe 4826 27be 1f2b 6d3f 800d 8dbe
000001f0: 8105 95be 1dac b6bd a772 233e 1d59 02bf
00000200: aaee 71be 4d8b 84bd 10c2 89bd 1a21 03be
00000210: 3658 27be 2756 72be a8d6 fbbc ab8b b8be
00000220: 15eb 123d 1d5c 403d ce34 90bb d1a2 4cbe
00000230: 842a 0ebe 7b8e 62be 5821 3cbe eda3 60be
00000240: 7453 0bbd e0d0 603d a93b fbbd adf3 1bbe
00000250: 2e29 5abe bae7 7fbe 7756 493b 9e14 cfbd
00000260: 81b6 16be 23c1 11be 2642 21be 932c 3bbe
00000270: 86dc 60be 1cb9 85be daba 99bd 8114 c7bd
00000280: 096a 4c3d 4e0c 36be 345f 88bd f2fb 3dbe
00000290: f323 bbbe dcdf 8cbe 5a4b 7fbe 922a 66be
000002a0: 1ab6 a4be 6ecc 7dbd 3189 0fbe bcdc 8ebe
000002b0: 5e9a 38be dfe1 6ebe 258b 95be 8707 0fbe
000002c0: 45aa dfbd c9c0 e33c b5cf 3ebe 729d 47bd
000002d0: 000c 60be 30d6 3bbe ff59 c9be b2ea 44be
000002e0: 6bf1 d6bd 33b1 e0bd 6368 ecbd ab66 c9be
000002f0: 615d 40be 7213 0c3d 9472 243d 8856 dbbd
00000300: 9e97 cdbd 3ef5 eebd 5888 253d 37e9 31be
00000310: 702b 5f3c 2949 61be 4820 f7bd 57ca 29be
00000320: 452a b4bd 8284 643d f35f eabd 01ab 0ebe
00000330: 8d29 01bd 3145 d1bd 3d59 dfbd dfe2 5fbe
00000340: bfe6 02be 8c74 5f3d 7ed9 563d 9f53 3abd
00000350: c3af 3ebe e093 ddbd 51a0 0d3d 88ce 8a3c
00000360: e61c 803c 3b78 9cbd 43b3 38be ec4b aebd
00000370: 5552 42bd 23d9 15be af04 7fbd 273f dabd
00000380: 0c09 aebd f0d1 1dbe 72cd b73c 3033 02be
00000390: 7524 68be 739a 36be ac43 6ebe c856 a6bc
000003a0: c58e 55be 65e2 adbb b5a5 a63d 051c 8fbe
000003b0: cc49 c6bd b29f 91bd d5af f5bd 0ec3 a3bd
000003c0: 55ec 58be 288d 5a3d ea18 46bd 57e4 a3bd
000003d0: 0ba3 b7bd 4bdf 2bbe d71d 3bbe e1bd 50be
000003e0: 0451 123d 77a1 44bd 56d9 e73b 8143 85be
000003f0: ed34 00be b842 67bc b580 c5bd 4660 f13c
0.4963222 0.9399789 0.36114702 1.0692986 -0.37209222 0.64193577 0.38293085 0.5451876
-0.13970707 -0.4476991 0.54637 -0.7186074 0.4808931 1.055796 1.0523325 0.6143757
0.9925355 0.66214174 0.8044701 0.95302975 0.4645464 0.6219382 0.54393506 -0.047660347
1.0053096 0.5764619 0.413812 0.9336039 0.66050434 -0.22313401 -0.056686703 -0.035612136
0.012879058 0.94751304 0.49380127 0.4239766 0.515855 0.6223512 0.59663695 1.0734978
0.3529752 0.38817897 -0.25017825 0.43171743 0.5203087 1.0761764 0.5971268 0.40070277
0.49782425 0.25714493 0.9788198 -0.062080074 0.95268977 1.0258453 0.64790964 0.10194632
0.9568354 1.0074599 -0.34720913 0.47517475 0.87589514 0.12891488 0.038980708 0.42602268
0.631122 -0.30705214 0.5835286 -0.26733598 1.10135 -0.61556536 0.39431572 0.6229902
-0.33007586 0.89235526 0.528097 0.16719742 -0.6737531 -0.23092277 -0.17918082 -0.5978869
-0.29266578 -0.20128094 -0.25584167 -0.33504763 0.68607354 -0.5464242 0.23686936 0.080836676
-0.2853148 -0.58877856 -0.7030265 -0.23943159 -0.5337697 1.067734 -0.44807565 0.005449309
0.04574737 -0.28496727 -0.29527038 0.5930588 0.5905864 -0.30934694 -0.4892487 -0.23298962
0.32693222 -0.12976077 -0.09179987 0.19948848 -0.7080186 -0.1584459 0.6981025 0.7845344
0.75586843 0.035401527 0.089947 0.3595688 -0.14733371 -0.10306341 0.47425008 0.8474826
-0.2697465 -0.16323197 0.9264392 -0.27549362 -0.29105762 -0.08919547 0.15961705 -0.50917226
-0.236262 -0.06471882 -0.067264676 -0.12805596 -0.16342244 -0.23665677 -0.030742005 -0.36044058
0.035868723 0.046962846 -0.004400826 -0.19983985 -0.13883406 -0.22124664 -0.18372095 -0.21937533
-0.034015134 0.0548867 -0.12267239 -0.15229674 -0.21304771 -0.2499074 0.0030721703 -0.10111354
-0.14718057 -0.14233832 -0.1574789 -0.18278722 -0.21959123 -0.2611779 -0.07506342 -0.09720708
0.04990581 -0.17778131 -0.066587836 -0.18553141 -0.36550865 -0.2751454 -0.24931088 -0.22477177
-0.32170182 -0.061962537 -0.14017178 -0.27902782 -0.18027636 -0.2332835 -0.2920772 -0.13967715
-0.10921148 0.027801888 -0.18633921 -0.048734136 -0.21879578 -0.18343425 -0.39326474 -0.19230154
-0.104952656 -0.10971298 -0.11543348 -0.39336142 -0.18785621 0.034198232 0.040148333 -0.10709864
-0.10038684 -0.1166787 0.04041323 -0.1737412 0.013621196 -0.22000565 -0.12066704 -0.16581093
-0.08797125 0.05579043 -0.11444082 -0.1393242 -0.031533767 -0.10218275 -0.10905693 -0.21863888
-0.12783335 0.054554507 0.05245351 -0.045489904 -0.18621735 -0.108192205 0.034576718 0.016944185
0.01563878 -0.0764012 -0.18037133 -0.08510575 -0.0474418 -0.14633612 -0.062260326 -0.106565766
-0.08497819 -0.15412116 0.022436831 -0.12714839 -0.22670157 -0.17832355 -0.23268002 -0.020305052
-0.20855244 -0.0053065293 0.08137075 -0.27951065 -0.096820444 -0.071105376 -0.11996428 -0.07996188
-0.21183904 0.053357273 -0.048363604 -0.08002537 -0.08966645 -0.16784398 -0.18273102 -0.20384933
0.035721794 -0.048005547 0.007075469 -0.26028064 -0.1252019 -0.014115028 -0.096436895 0.029464852

fc3.bias f4 [6]
00000000: dda9 58be a295 ec3f 89a9 b4bf e669 4abf
00000010: 2a3f 0b40 8aa0 cabf
-0.21158548 1.8483164 -1.4114238 -0.7906784 2.1757302 -1.5830243

fc4.weight f4 [128, 1280]
00000000: abe8 45bc 7622 b7bc 7807 703c 38f5 fbbc
00000010: 1bea 313c 63db 3a3c 70e0 86bc 648c 8f3c
00000020: 866b cebc c871 e93c 5c06 563c 7bf3 a1b9
00000030: 641d 813c 44aa d2bc 49d3 8ab8 57e9 0dbc
00000040: cd57 0f3d 33dc e4bc a04c 9e3c 2e95 ce3c
00000050: 430e 8abc 0313 d5bc 7d0a 4cbc 7a70 a03c
00000060: 124b 5d3c c646 cdbc 4c89 8ebc 1103 77bc
00000070: 3a65 e33c 4014 c23b 5d74 9e3c 48a6 353c
00000080: 107c 53bc f025 b6bb f394 e8bc 9486 433c
00000090: a597 e3bc 174e c5bb ecf9 d4bc 6ebf 9e3c
000000a0: 575d 893c 4328 83bb 1cb1 8dbc ca6c febb
000000b0: a77c 163c b27b edbc 560d 44bb d788 f83c
000000c0: 2819 a7bb 1c98 c9bc 828a fabc d924 ddba
000000d0: 26ef 523b d19e 9bbc 5416 d63c 8eef 8f3c
000000e0: 2f0f a5bc 0ad0 76bc 1191 afbb 14a6 ad3c
000000f0: 1763 b53c d9e1 b5bc b619 1abc 3fda a5bc
00000100: 832b 773c 3db7 d73c 29c4 0c3c 1009 743c
00000110: 6964 32bc 7c78 663c bda3 05bc 836e debb
00000120: bc0a a7bc 405b 37bc 212e 5abc 95ec dfbb
00000130: 685d 6abb 0a6a a3bc fa61 763c ced3 243c
00000140: 1cd3 d0bc 2b2c ef3b fd54 babb 06bf 01bd
00000150: ebcb c3bc 6a54 fabb b239 a0bc 51a0 323c
00000160: 2f51 cebc 8a84 b43c e2c6 05bd db66 853c
00000170: 3a69 143b 7c28 99bc d2f5 753c 9c10 8c3c
00000180: 69c6 e23b 91a2 d83c 91f1 0c3d b092 d03c
00000190: 1720 f93b 3100 a0bb 09f4 ccba f11d 403c
000001a0: db14 cb3c 1467 40bc 7529 e63b a1dc abbc
000001b0: 3023 9c3a 3cd5 8ebc 9efd ab3c 5f7d e1bc
000001c0: b09d c13a d70e 5abc 7535 943c af95 8cbc
000001d0: 291a 65bb 1399 77bc 7462 99bc eed8 f4bc
000001e0: 7e1c e039 3a16 c03b 9691 a3bc f614 f339
000001f0: dba7 573c ffc6 1aba 1dd2 f8bb f046 b3ba
00000200: b84a 3abc 533a 89bb c1d9 683b 966b af3c
00000210: e13a e5bc c77e b3bc ca99 08bc 2804 18bc
00000220: 082f 16bc cf72 7fbc 0994 0fbd 1224 16bb
00000230: f158 633c c867 013d aadd c7bc e520 963c
00000240: f95e f63b 2a3d 2dbc 331f 7e3c 594a 1b39
00000250: 52f2 3dbc d0e1 afba e1ed d43b bd3a 14bc
00000260: ec50 ed3b 7e87 dabc 89e8 c63c 5508 80bc
00000270: 27ff f539 67b7 013b 79ca e63c 920f 0e3d
00000280: 9780 7dbc 6cfb 133d 5ef5 46bc 2a7d 3fbc
00000290: 82e4 47bb 9f5d 58bb a169 e83c 5810 3aba
000002a0: e765 cabc 9d34 2dbc dcdc 93bc 4396 bfbc
000002b0: 24a0 6cbc 0c4e 923c ac96 5f3c bfcc dd3b
000002c0: e95c aebc 1322 663c 297f f93c dbed dfbc
000002d0: a355 243c b012 823a cb64 82bc aec6 a0bc
000002e0: 5470 42b9 b3dc 043b 965f 0fbb c86d e0bc
000002f0: 5662 86bc c35c 67bc 499b 833c 61f6 cabc
00000300: df86 37bc 7925 d6bc a4a6 68bb e104 f23b
00000310: 9ef7 923c 5a86 1bbb d74c b2bc 1544 cd3c
00000320: 024d 103c 534c 12bc 8075 533c 25af 923c
00000330: 5731 53bc 8d53 e63c 5673 f5bb 5709 28b9
00000340: 17d1 a5bc c740 c83c 4127 ab37 34aa 2abc
00000350: ae55 84bb 7763 bfbb 38ce 5e3c 3b29 4dbc
00000360: bbfd 843c 5849 3dbc a4bb 913c aa84 9fbc
00000370: d9ca 9d3c 765a 173c 90f0 88bc 29a2 3abc
00000380: 931e a13c 4d06 42bc 1ad5 843a 52d1 b13c
00000390: b88d c8bc 2f04 c2bc 6905 a7bc 80b4 1bbc
000003a0: fb93 313b 11b9 a83b c81b 583a 66ee 1abd
000003b0: 4eef c23c f82b 193d 093c 953c 4385 0f3b
000003c0: 2405 a23c d0b2 6e3c e026 87bb 5806 a13c
000003d0: f49c 7b3b 18a1 4a3b 2f55 c63c 69be 81bc
000003e0: 4b39 ab3c 5bdc 3c3c 23d3 dd3c 1e77 c03b
000003f0: 91ee 703c 44ea 93bc 87e9 a23c b55c b9bc
-0.012079398 -0.0223553 0.014650218 -0.030756578 0.010859038 0.011404845 -0.016464442 0.017522998
-0.025197756 0.028496638 0.01306304 -0.0003088972 0.015761085 -0.025715955 -6.619708e-05 -0.00866159
0.034995843 -0.02793703 0.019323647 0.025217619 -0.016852504 -0.026010042 -0.0124536725 0.019584883
0.013506668 -0.025058161 -0.017399453 -0.015076415 0.02775823 0.005922824 0.019342596 0.011087008
-0.012907997 -0.0055587217 -0.028391337 0.011933941 -0.02778227 -0.006021272 -0.025998078 0.01937839
0.01676814 -0.0040026023 -0.017296366 -0.0077644335 0.009184993 -0.028989647 -0.0029915175 0.030338688
-0.0050994344 -0.024608664 -0.030583624 -0.0016871943 0.0032186 -0.018996628 0.026133694 0.017570283
-0.020148842 -0.015064249 -0.0053578694 0.021197356 0.022141976 -0.02220242 -0.009405544 -0.02024567
0.015086058 0.026332492 0.00859169 0.014894739 -0.010888197 0.014066812 -0.008156714 -0.0067880764
-0.02039086 -0.011191189 -0.013316662 -0.0068336227 -0.003576124 -0.019948024 0.015038008 0.010060264
-0.02549129 0.0072989664 -0.005686401 -0.031676315 -0.023900947 -0.0076394575 -0.019558761 0.01090248
-0.025185196 0.022035856 -0.032660373 0.016284397 0.0022645728 -0.018696062 0.015012221 0.017097764
0.006920625 0.026444705 0.034410063 0.025460571 0.0076027024 -0.0048828353 -0.0015636693 0.011725889
0.024790218 -0.011743326 0.007023985 -0.020979227 0.0011912342 -0.017435662 0.020994958 -0.027525602
0.0014771726 -0.013309202 0.018091897 -0.017161218 -0.003495822 -0.015112179 -0.018723704 -0.029888596
0.00042745838 0.0058620246 -0.019966882 0.0004636419 0.013162578 -0.00059042865 -0.007593407 -0.0013677757
-0.011370353 -0.004187861 0.0035530182 0.021413606 -0.027982177 -0.021911038 -0.008337447 -0.009278335
-0.009166487 -0.015591337 -0.035053287 -0.0022909683 0.013876186 0.031593114 -0.02439769 0.018326232
0.007518646 -0.010573665 0.015510368 0.00014809649 -0.011593418 -0.0013418738 0.006498084 -0.009047207
0.0072423127 -0.026675936 0.024280803 -0.015628973 0.00046920145 0.0019793154 0.028172718 0.034682818
-0.015472553 0.036128446 -0.012143461 -0.011687556 -0.0030501192 -0.0033014787 0.02837068 -0.00070977723
-0.024706794 -0.010571626 -0.01804965 -0.02338708 -0.014442477 0.017859481 0.013646763 0.0067687924
-0.021284537 0.01404621 0.030456143 -0.027335098 0.010030183 0.0009923782 -0.015917202 -0.019625988
-0.00018543127 0.0020273149 -0.0021877042 -0.027396098 -0.016404312 -0.014121237 0.016065257 -0.024775686
-0.011201589 -0.026140915 -0.0035499716 0.0073858355 0.017940339 -0.0023731203 -0.021765156 0.025056878
0.008807423 -0.00892933 0.012906432 0.017905781 -0.0128901815 0.028116012 -0.0074905558 -0.00016025208
-0.020241303 0.02444495 2.0403068e-05 -0.010416556 -0.004038534 -0.0058407146 0.013598971 -0.012522037
0.01623427 -0.011553131 0.01778967 -0.019472439 0.019261764 0.009237876 -0.016716272 -0.011391201
0.0196679 -0.011842323 0.001013431 0.021706257 -0.02448164 -0.023683636 -0.020388322 -0.009503484
0.002709626 0.0051490148 0.0008243886 -0.03782501 0.02379575 0.037395447 0.018217104 0.0021899499
0.019777842 0.014568999 -0.0041245073 0.019656345 0.0038393112 0.0030918773 0.02421054 -0.015837865
0.020901343 0.011527146 0.027078217 0.005873575 0.014705316 -0.018056042 0.019886745 -0.022627214

fc4.bias f4 [128]
00000000: c5f2 4e3c b5e5 a63c a7f3 a13b ba7c 4cbc
00000010: b516 103c fba5 483a 6557 5f3c 350d f7bc
00000020: 51c6 5d39 e35f a13c a1c1 253d a755 bfbb
00000030: b861 00bc 43db dc3c 01d4 9a3c 28b1 fc39
00000040: 7274 9a3a b54f c43c fe7a a33c 15a1 4d3c
00000050: d9c1 003d 70d5 b3bb 8b87 f13b 7f2f 16bd
00000060: 6bce 173d 6369 82bc 2a20 293d 7d11 c83a
00000070: 7791 443c 7ee9 1fbc 20e9 4bbb 4200 98bb
00000080: cd1f ab3a 008e 213d 24d8 4fbc f7db 693c
00000090: 6c82 ce3c 9220 4d3c b2b6 e53b 69bc ea3c
000000a0: 3eb8 833c 42b8 243a cbb7 d7bc 78b9 27bc
000000b0: 39a3 e63c 165c f53c c39a 873d eb8a dcbb
000000c0: 3aca e6bb e44e b3bc bd75 393b 9f33 3abc
000000d0: 2c94 1b3c ea24 8d3d 2747 f4bc e37a 0a3d
000000e0: 4f89 2f3d ce12 1e3c 3a43 c2bc ce5d b83c
000000f0: edda 823c 5e62 3f3c d7fc 653b a8bc 2c3b
00000100: 5eb6 1f3c 26d3 573d 39a3 2ebc 06d7 7a3c
00000110: b474 a63c e697 7739 763d 313c 93f1 02bd
00000120: ea9b aa3c 246f f9bc 4a0d 933c 887e 3a3c
00000130: b5de 6b3c f20e 163d 0e8f 073d 30b5 343d
00000140: 7895 c43c 040f 2cbc 8f8c 9abc ac30 7a3c
00000150: c568 b43c 8f8f a5bb 1462 98bc 7d18 703c
00000160: 2f28 cb3c 6c8e d33c 6a52 bf3c 925b 7cbb
00000170: 6280 a93c 56ee edbb b4a5 073c 99f4 beba
00000180: 6c5d 0d3c fcc9 e4bb 973e ab3c 70ce 693c
00000190: 0bce 02ba e0ab abbc b840 0f3c c653 0d3b
000001a0: 5622 fc3c c638 dd3c 561a af3c 31fa 39bc
000001b0: ade8 cdbc d612 94bc 9f97 333c 8dbd 743d
000001c0: d54c 8ebc d3ba fe3c 8ba4 cbbb f0ea 93ba
000001d0: ff25 8fbb db98 7abc e715 35bc 9fdc ccba
000001e0: dcc9 c53c 087a 4cbc f25a f63b 2886 213d
000001f0: 3059 c8bb a224 56ba ae7f 2b3c 30b3 023d
0.012631123 0.020373205 0.0049423757 -0.012480909 0.008794476 0.00076541275 0.013631676 -0.030157665
0.00021150081 0.019699043 0.040467862 -0.005839068 -0.007835798 0.02696002 0.01889992 0.00048197177
0.0011783971 0.023963789 0.019956108 0.012550612 0.031434868 -0.00548809 0.0073708943 -0.03666639
0.03706209 -0.015919393 0.04129044 0.0015264001 0.011997572 -0.009760259 -0.0031114295 -0.0046387026
0.0013055742 0.039442062 -0.012685809 0.014273635 0.025208674 0.012519972 0.0070103044 0.028654294
0.016079064 0.000628356 -0.026332757 -0.01023709 0.028154003 0.029951137 0.06621315 -0.0067304275
-0.0070431503 -0.021888204 0.0028298937 -0.0113648465 0.009495776 0.068918064 -0.029819084 0.0338086
0.042855557 0.009648038 -0.023713697 0.022505667 0.015973533 0.011681167 0.0035093331 0.0026357565
0.00974807 0.0526916 -0.0106590325 0.015310055 0.02031932 0.00023612342 0.010817876 -0.031968664
0.020826299 -0.030448504 0.017950673 0.011382706 0.014396359 0.036635347 0.033095412 0.044118106
0.023997054 -0.010501627 -0.018865852 0.015270393 0.022022614 -0.005052514 -0.018601455 0.014654276
0.024799434 0.025824748 0.023354728 -0.0038506729 0.0206911 -0.007261078 0.008279253 -0.0014568745
0.008628231 -0.006982086 0.020903869 0.01427041 -0.0004989809 -0.02095598 0.0087434575 0.0021564825
0.030778091 0.02700461 0.021374863 -0.011351154 -0.025135363 -0.018075388 0.010961442 0.059751082
-0.01737062 0.031094944 -0.0062146834 -0.0011285227 -0.004368543 -0.015295233 -0.011052585 -0.0015629715
0.024144106 -0.012480266 0.0075181657 0.039434582 -0.0061141476 -0.0008168911 0.010467453 0.031909168

fc5.weight f4 [64, 128]
00000000: cb2b ddbd 5dd1 b33d cd61 d43c 53a8 3cbd
00000010: 08dd 283e ffda c23d a8ee 4ebd e2ba d53d
00000020: abc7 303d fa8f 51bc c457 0fbe bbe2 e93d
00000030: 4f94 1e3c 0358 c8bc 7876 0abc 9096 b1bd
00000040: 92c0 e93d 4f5a 023c 9c65 56bd 7684 493d
00000050: f0ae c7bd a7aa 6f3d f637 833d f0be 173e
00000060: 4160 3b3d 66af 77bd 053c 66bd e218 9cbd
00000070: b34e 20bc 29e2 523b bc63 80bb 69cc b23d
00000080: a352 f4bc b2b3 453d 9abf 0bbc aa49 8ebd
00000090: e6fc 303d c1ad ec3c b23b 4cbd e5a6 c8bc
000000a0: 8956 9b3b 2b92 82bd b6aa 133c 2754 3fbd
000000b0: a5b8 3e3d 0078 c33d 1689 1a3d a7da eabc
000000c0: d874 033d b743 873d e47f 64bd 502c 32bc
000000d0: 8a4a 3e3d 3a25 73bd 015b 22bd a5df 5d3d
000000e0: b0dc 5ebc 0d7c 17bd f576 043e 1512 8abd
000000f0: efcb 19bd 1176 2dbd 5bfe 14bd 207c 1abd
00000100: a4c6 85bd 2843 c0bd 55ea 2cbd 69fd 853d
00000110: 4ead 303d b532 903d 4c71 743d 49fc ce3d
00000120: 7af2 f5bd 21d2 eb3d 4f86 0fbd 02bd 10bd
00000130: ac91 e6bd 3fd7 fe3b 9e5c 95bd 2d9e 57bd
00000140: 564b 71bd d109 833d b679 26be 5e0b ad3d
00000150: 8eaa b3bd e64d b2bd 1fec a4bd 9b2f 843d
00000160: 8f77 013e 2c99 923d f16e dd3c ed47 083d
00000170: fdc9 cabd bc9c e53d 2f95 683d cd7c d73d
00000180: 47c9 c03d 869b 743d 5ae4 1abd 7f1f 4c3c
00000190: 96d4 32bd b8bd 9f3d 88af f1bd d1bd 143d
000001a0: 0e66 aa3d 1211 0ebd fb94 863c 5b1c 663d
000001b0: fe4a 7a3d e18b 2e3d c806 f7bc 9900 83bd
000001c0: 62e8 093d 9ede c33d 5ee4 8d3d b5e3 59bd
000001d0: 70c4 513d 1df8 9fbd 489e f2bd 92d6 c53c
000001e0: f9e5 b8bd 85b1 df3d 3c0d a9bd e7f6 2f3c
000001f0: 8f2c 1cba 70fa adbc 14b6 223e 8a3d aebd
00000200: c0df 88bd 1226 9abc 5e2a 5d3d 7a4d f93c
00000210: 2124 c9bd d54c 03bd 8209 ce3c fc7a 8cbd
00000220: f2ac 94bd b414 a4bc be78 2e3d 9f7c 0d3d
00000230: bfe0 3e3d f079 cf3d 4ed8 3dbd fc44 1f3d
00000240: 816a bbbd 5d8b a93d 049d 2a3d 7449 6f3d
00000250: 16ba 09bd d623 b7bc 9cfe 49bd 4136 3c3c
00000260: 8c64 e5bc 7221 b7bd edd8 64bd b193 4cbc
00000270: 4299 3d3a 1a2f 1e3d 9dd3 a5bd e296 db3b
00000280: 6106 a1bd 3170 53bd ffe8 d4bc d997 893c
00000290: cbba b3bd 5626 5abc ad02 333c af38 1cbd
000002a0: 1c1d 463d 2c7c 863c bd8c cbbc 8784 6f3b
000002b0: f756 8f3a ae65 09bc ec51 263d 5757 153d
000002c0: 9962 dfbc bae0 603b 8be0 babc 00bc 85bd
000002d0: 0d5f 5cbd 289f 7a3d ca41 9e3d 4355 ac3d
000002e0: aaf2 24bc 0366 f23d c4c5 503b 5e55 38bd
000002f0: 8ac0 adbc 9d26 55bd 1b20 f43c d330 9f3d
00000300: 804d 5dbd 3fa0 e53c 828f 5d3d 2e2a aebd
00000310: 2c4f e13d de2a bcbd cd89 273d bf1d 813d
00000320: d3b8 973c fbe7 2dbd e08d a5bd 2336 0dbe
00000330: 44e6 053e 082c cfbb 5b6a 20bd fa13 e43d
00000340: 6de8 2e3e 6b95 873d c90e f4bc 331f 253d
00000350: 1aeb 18bd 891a 353d 815f f23d 158f 013d
00000360: 89fd ad3d 8230 9fbd 38aa afbc 3896 05bd
00000370: 3a24 5d3d 270b f43b a5b8 cebd fe0f 62bc
00000380: 6803 aebd c599 a83c 250a 0e3d e598 203d
00000390: 7f02 b5bd 9bcd d9bd 388b c33c 9247 39bd
000003a0: f211 a4bd 32b2 fbbc 28e2 083d 944a c4bd
000003b0: 68b0 6a3d ba44 023d 595f b1bd 20b4 0b3e
000003c0: 24e5 9dbc d38b f4bc 6315 1d3b 6ad5 d13d
000003d0: 7afe 303d 1567 bf3d b2d3 d4bd 1b8d e33c
000003e0: 6c41 ce3d 836f 4bbd f9a7 503d 3833 f7bd
000003f0: f345 66bd 9865 933b 9788 56bd 87a1 7abd
-0.107993685 0.08780167 0.025925541 -0.046058964 0.16490567 0.095144264 -0.05052057 0.10436036
0.04315917 -0.012790674 -0.13998324 0.114201985 0.009678914 -0.02445603 -0.008451097 -0.08671296
0.11413683 0.007956102 -0.052342996 0.04919859 -0.097501636 0.058512356 0.06407158 0.1481893
0.04574609 -0.060470007 -0.056209583 -0.076219335 -0.009784388 0.003217826 -0.0039181393 0.087303944
-0.02982456 0.048267074 -0.008529568 -0.06947644 0.043209933 0.028891446 -0.049861617 -0.024493644
0.0047405404 -0.063755356 0.009012869 -0.046711113 0.04656281 0.095443726 0.03772839 -0.028668715
0.032093853 0.066047125 -0.05578603 -0.010874823 0.046457805 -0.059361674 -0.03963757 0.054168362
-0.013602421 -0.03698354 0.12936004 -0.0674173 -0.037548 -0.042348925 -0.036375385 -0.03771603
-0.06532028 -0.09387809 -0.042215664 0.06542475 0.043134026 0.070409216 0.05967836 0.10106713
-0.12009139 0.11514688 -0.035040196 -0.035336502 -0.112582535 0.007777124 -0.07293056 -0.052641083
-0.058909737 0.06398357 -0.16257367 0.08449434 -0.08772765 -0.08706264 -0.08052849 0.064543925
0.12643264 0.071581215 0.02703044 0.03327172 -0.099018075 0.11211535 0.056782898 0.10521851
0.094133906 0.05971863 -0.03781543 0.012458681 -0.04365977 0.07799858 -0.11801058 0.036313836
0.08320247 -0.03468425 0.016428461 0.056179386 0.061106674 0.042613868 -0.0301546 -0.06396598
0.033668883 0.09563945 0.06928323 -0.053195674 0.051212728 -0.07810996 -0.11846596 0.024150167
-0.09028239 0.10922531 -0.082544774 0.010740018 -0.00059575675 -0.021237582 0.1588977 -0.085078314
-0.06683302 -0.018816981 0.053995483 0.030432452 -0.09821344 -0.032055695 0.025151018 -0.06859395
-0.07259549 -0.020029403 0.042595617 0.034542676 0.046601053 0.101306796 -0.046348862 0.038884148
-0.091511734 0.082785346 0.041653648 0.05841966 -0.03362473 -0.022355955 -0.04931508 0.0114875445
-0.028002046 -0.08941926 -0.05587094 -0.012486384 0.0007232615 0.03861914 -0.08097003 0.0067013362
-0.07862545 -0.051620666 -0.025990007 0.01679604 -0.08775862 -0.013314804 0.010925931 -0.038139995
0.048367605 0.016416632 -0.024847383 0.0036547498 0.0010935952 -0.008386059 0.04060547 0.036460247
-0.027268695 0.0034313635 -0.022812149 -0.06529999 -0.053801585 0.06118694 0.07727392 0.084147
-0.010067621 0.118358634 0.0031856159 -0.045003287 -0.021209974 -0.052038778 0.029800465 0.07772984
-0.054028988 0.028030513 0.054091938 -0.08504139 0.11001429 -0.09187864 0.0409029 0.06304502
0.018520748 -0.042457562 -0.08083701 -0.13790183 0.1307612 -0.0063223876 -0.03916393 0.11136623
0.17080851 0.06620296 -0.029792206 0.040312957 -0.037333585 0.04421476 0.11834622 0.031630594
0.084956236 -0.07772924 -0.021443471 -0.032613963 0.053989626 0.0074476185 -0.10093812 -0.013797758
-0.084967434 0.020581136 0.034677643 0.03920831 -0.08838367 -0.10634919 0.023870096 -0.04523427
-0.08011235 -0.030724619 0.033418804 -0.09584537 0.05729714 0.031803824 -0.08660764 0.13642931
-0.019274302 -0.02985183 0.0023969046 0.102457836 0.043211438 0.09345833 -0.1039194 0.027777245
0.10071072 -0.049666893 0.05094144 -0.12070316 -0.056219053 0.004498195 -0.052376356 -0.0611892

fc5.bias f4 [64]
00000000: 89ca 853c 9d8b 54bd 1c8e a83c 2ed6 5a3d
00000010: d9ba 97bd 63a6 2a3d 7308 0cbd 3304 2dbb
00000020: fb89 b9bc 21ea 373c 8221 e63c b441 30bc
00000030: b061 80bc 6a83 55bd 37b8 cb3d f4e4 2b3d
00000040: 6dca c03c f493 4ebc 8956 28bd d3d0 e23d
00000050: 9db6 363c 4b1f 393d 656b b33c afd8 a43d
00000060: f727 f7bb 347f d3bc 7286 993c 9ccb 0abc
00000070: a5e0 813d 8423 cc3c 5c4a 9cbd f08e b83d
00000080: 858d 52bd 0082 123d 0763 0d3d ee62 d03d
00000090: 6482 9e3d b2f5 2cbd b14f ac3d a14c 4ebb
000000a0: fc10 f93c 4f39 e83d fe4c 183d c7e1 d43c
000000b0: ec88 963d 41f8 d83c e44e 1fbb 07a8 bfbd
000000c0: 706e ba3d b811 a6bc bda1 8d3d c57a 523c
000000d0: 2401 9dbc 5230 a33d 90b2 8a3d 5a12 a3bd
000000e0: f85a aebc 7cae 953d 7b48 7f3d d7e4 c4bd
000000f0: 441d b33d 0c62 81bd 703f cc3c c31b 493d
0.016331928 -0.051890958 0.020575576 0.053426914 -0.07408685 0.041662585 -0.034187745 -0.0026400208
-0.022648802 0.011225254 0.02809215 -0.010757852 -0.015671581 -0.05212728 0.099472456 0.041966394
0.023534024 -0.012608517 -0.04109815 0.11074986 0.011151937 0.04519586 0.021901796 0.080491416
-0.007542606 -0.025817491 0.018740866 -0.008471396 0.06341676 0.024919279 -0.076313704 0.09011638
-0.051404495 0.03576851 0.034518268 0.10175119 0.07739714 -0.0422265 0.084136374 -0.003147878
0.030403607 0.11339056 0.0371828 0.025986565 0.073503345 0.026485564 -0.0024308497 -0.093582205
0.091030955 -0.02027212 0.06915615 0.012846653 -0.019165583 0.07968201 0.06772339 -0.07962485
-0.021283612 0.07308671 0.062324982 -0.0961396 0.08745816 -0.06317529 0.024932593 0.04909874

fc6.weight f4 [6, 64]
00000000: 03eb 8c3e 34b3 0bbe 87bf 26be 62f3 923e
00000010: 15d4 38bd f37a b0bd 5890 febd e17d cd3d
00000020: a3ef 23bd 9614 81be 0e61 b43e aa89 c9bd
00000030: fea1 8fbd 9a40 96be 2a43 fbbd 10c0 04be
00000040: 2d09 b43e 179d 4f3c 97e2 c5bd 165f 6cbe
00000050: 14db 15bb b534 823e f1a6 42be f178 a03e
00000060: b00b 21be 7bcb b83e 4972 9b3e b0c0 4bbe
00000070: d98f 403e b510 8b3e 97d0 723e da1d 21be
00000080: da1b 963e d9dd bd3e d92f 8e3e 2771 d5bd
00000090: a76c 30be b133 c93e 3620 a03e 9166 cb3e
000000a0: f7d7 693e ee47 9ebe 5557 adbe 5fed ffbd
000000b0: d7be 7dbe 6323 56be 1502 b53d da94 c73e
000000c0: 4b30 d63e a90b a4be fca9 783e 98e1 b53e
000000d0: 1133 0abe de6a 42be f771 a7bd 89e0 f23e
000000e0: 925b 44bd 4e9d 66be d853 92bd 0126 d5bb
000000f0: 4663 9d3e 8abf a2bd 9046 8abd 21c8 c0bd
00000100: 2ccf 60be a63d c53e 6c20 a93e b0a1 70be
00000110: d2c5 f8bd 3d84 fabd 1c1b a63e 10c7 1f3d
00000120: 4a07 a43e 7005 a23e 88b7 9d3e 184f 9e3e
00000130: 0557 2fbe 14e3 443e e70f ae3e a40e 3abe
00000140: 39ab 71bd ef4e 12bd 7961 b43e 57e1 8cbe
00000150: a2ca a2bd 9023 7dbe 95be 89be f97e e4bd
00000160: 72fd 6ebe 835d 973e 01bd e2bd 1691 80be
00000170: 072a 9a3e af7d 5a3e 673d 82be 2eb6 30be
00000180: 0fa0 42be 510d e5bd 11f6 0cbe 3e02 4ebe
00000190: 0f70 91bd 1fc3 6fbe 6b93 70be 585d 39bc
000001a0: c4a9 353e af4b 633e 27f2 8e3e 3957 95bc
000001b0: 9f7e 52be dc3d 513e 388e 4bbc d94d 36be
000001c0: 7a32 eabd d5d0 7a3e e7b9 2fbe b7d1 b1bd
000001d0: ffe5 fabd 41dc 8b3e f0c2 16be 7a1a b4bd
000001e0: 39b4 0ebe 7adb 1fbe 2367 a4bd 5cc3 c83e
000001f0: bdf0 873e b583 11be edcc b3bd beda bb3e
00000200: f38c b3bd 9dc4 6dbc 23ff 92bd c67b 923e
00000210: 6cfd a2bd 9e54 09be a4bc 05bd c398 e03c
00000220: f245 9e3e 703f 9a3e 1585 34be 07de d3bd
00000230: 05e5 c8bd 9ac7 553e 83ab 78bd 117a babd
00000240: eedd 9b3e 3996 0ebd 918c 753d 62dd 903e
00000250: 1111 be3e e3a1 72be 16f6 8d3e c223 20be
00000260: 063b 2abe 5e7d 0abe e5cd c5bd c207 583e
00000270: 146b 38be c393 85be a763 40be 9462 65bd
00000280: a75d ab3e 3d52 68be ef6e 57be 8af7 883e
00000290: ed22 0cbe d06e b5bd 2160 82bd 5601 b43e
000002a0: 6f3f 8fbe dad3 393e 0c2b 63be ff67 a7bd
000002b0: ba77 5ebe aad7 8cbe a048 4bbd 9457 47be
000002c0: 71af b13e 4db8 4d3e c79d 62be 37df 0abe
000002d0: c36c 923e 9127 56be 8eaa 17be 6de9 10be
000002e0: 610d b73e e971 9f3e b0d4 dfbd c632 bb3b
000002f0: 1982 f5bd fc81 b7bd 6720 df3e 6ba9 ad3e
00000300: 0d25 7abe 27b1 f4bd a7f3 24be 1353 82be
00000310: 2856 acbd 9333 ecbd 008a ddbd 11fe fdbd
00000320: d33a 54be 79ea 30be 6ff4 5dbe 8aa2 f6bd
00000330: 5ebb 06be c8f8 9bbe 19d4 abbd b87c cc3e
00000340: f5c9 86be 9f80 d9bd 8f17 a3bd 29b5 bf3e
00000350: 12ec 31be a8cf b43e 4f12 c03e 01bb d33e
00000360: db07 a43e a301 4bbe 255e b7bd 26ec 9b3e
00000370: ea97 abbe 387c 86be a91d ab3e a026 923e
00000380: dc5a 25be d0da 96be 6d5b 75be 38a8 43be
00000390: 1bf6 9c3e de32 67be c185 cf3e 60ca 87be
000003a0: f7fd 943e 2b07 a23e 4203 bf3e 556f e63e
000003b0: 0cf0 513e 714a 75be aee0 e9bd 840d 53be
000003c0: f6e2 74be 1227 9fbe 046b 6ebe a412 0ebe
000003d0: 9fb4 5fbe c652 0bbe fcb0 d23e f5aa b2bd
000003e0: c2ca 1fbe 46cf cf3e c771 9ebd c093 f2bc
000003f0: e6f8 7ebe 7c93 283d 506b 77bc 7652 04be
0.2752305 -0.1364258 -0.16284 0.2870131 -0.045124132 -0.08617201 -0.12429875 0.10033775
-0.040023457 -0.25211018 0.35230297 -0.098407105 -0.070133194 -0.29346162 -0.1226867 -0.12963891
0.3516325 0.0126717305 -0.09662359 -0.23083147 -0.0022866176 0.25430837 -0.19008996 0.3134227
-0.15727115 0.36092743 0.3036063 -0.19897723 0.18804874 0.27161184 0.23712383 -0.15734044
0.29318124 0.3708332 0.2777088 -0.10421973 -0.17228948 0.3929725 0.31274575 0.3972669
0.2283629 -0.30914253 -0.33855692 -0.12496447 -0.24779831 -0.20911936 0.08838288 0.38980752
0.4183372 -0.32040146 0.24283594 0.35523677 -0.13496043 -0.18986079 -0.08176034 0.47436932
-0.04793889 -0.22520944 -0.07144898 -0.0065047746 0.30739802 -0.079466894 -0.0675174 -0.094131716
-0.2195403 0.38523597 0.33032548 -0.23499179 -0.12147106 -0.12232254 0.32442558 0.0390082
0.3203681 0.31644773 0.30804086 0.3091972 -0.17123039 0.19227248 0.33996508 -0.18169647
-0.05900118 -0.03571981 0.35230616 -0.2751567 -0.079488054 -0.24720597 -0.26903215 -0.111570306
-0.23338869 0.2956353 -0.11071206 -0.25110692 0.3011019 0.21337007 -0.2543747 -0.17256996
-0.1900637 -0.111841805 -0.13765742 -0.20118043 -0.071014516 -0.23414277 -0.23493735 -0.011313759
0.17740542 0.2219684 0.27919123 -0.018230068 -0.20556115 0.20433754 -0.012424044 -0.17803134
-0.11435409 0.24493726 -0.1716076 -0.08682578 -0.122508995 0.27316478 -0.147228 -0.087941125
-0.13935937 -0.15611067 -0.08027484 0.39211547 0.26550856 -0.14210398 -0.08779321 0.36690325
-0.08767118 -0.014512208 -0.0717757 0.28610057 -0.07958493 -0.13411185 -0.032650605 0.027416592
0.3091274 0.30126524 -0.17628892 -0.10345083 -0.09809307 0.20876923 -0.06071044 -0.091053136
0.30442756 -0.034811232 0.059948508 0.28293902 0.37122396 -0.23694567 0.2772681 -0.1563864
-0.16624078 -0.13524386 -0.09658412 0.2109671 -0.18009597 -0.26089296 -0.18788014 -0.056002215
0.3346989 -0.22687621 -0.21038412 0.26751357 -0.13685198 -0.088590264 -0.063659914 0.3515727
-0.27978083 0.18147221 -0.2218439 -0.081741326 -0.2172536 -0.2750829 -0.049629807 -0.19467002
0.34704164 0.20089836 -0.221305 -0.13561712 0.28598604 -0.20913531 -0.14811155 -0.14151545
0.35752395 0.31141594 -0.10929239 0.00571284 -0.11987705 -0.089603394 0.4357941 0.33918318
-0.24428196 -0.11947852 -0.16108571 -0.25454006 -0.084148705 -0.115332745 -0.10817337 -0.12401975
-0.20725565 -0.17276944 -0.21675275 -0.120427206 -0.13157412 -0.30463243 -0.08390064 0.39938903
-0.26325956 -0.10620236 -0.07963478 0.37442902 -0.1737521 0.3531468 0.37513968 0.4135361
0.32037243 -0.19824843 -0.089535035 0.30453604 -0.3351434 -0.26266646 0.33421066 0.28545094
-0.16147941 -0.29463816 -0.23960657 -0.19107139 0.30656514 -0.22577998 0.40531734 -0.26521587
0.2910001 0.31646094 0.37307173 0.45006815 0.20501727 -0.23954178 -0.114198074 -0.20610625
-0.23914704 -0.31084496 -0.2328301 -0.13874298 -0.21846245 -0.13605794 0.41150653 -0.08724014
-0.1560469 0.40587825 -0.07736545 -0.029611468 -0.24899635 0.041156277 -0.015101269 -0.12922081

fc6.bias f4 [6]
00000000: ad75 5abe fd48 59be 08bf b4bb 840e 873e
00000010: dafc aa3e 9a3d bcbc
-0.21333952 -0.21219249 -0.0055159368 0.26378262 0.33396035 -0.022978593
