models/0.8/0.pt (torch, 747117 bytes, 12 tensors)

fc1.weight f4 [128, 36]
0	0x3dfb2aee	0.122640476
1	0xbcff875f	-0.03119248
2	0x3d2e8a2b	0.042612236
3	0xbe0a22f3	-0.13489895
4	0x3e193913	0.14963178
5	0xbe721a62	-0.23642877
6	0xbd415245	-0.0471976
7	0xbb0b3c5e	-0.0021245698
8	0xbcb1dc78	-0.021711573
9	0x3c34a03b	0.01102453
10	0x3ea00cbf	0.31259724
11	0x3dc8a447	0.097969584
12	0x399f47f6	0.00030380458
13	0xbe1cf5fd	-0.15328212
14	0x3e14d3ef	0.14533971
15	0x3e96c557	0.29447433
16	0xbe0ddf5d	-0.13854738
17	0x3ca57ad8	0.020200178
18	0xbb9bdc9a	-0.0047565224
19	0x3e2792ec	0.1636464
20	0xba717a80	-0.00092116743
21	0x3e370335	0.17872317
22	0xbea21e2f	-0.31663653
23	0x3d87e58a	0.06635578
24	0x3e0c0267	0.13672791
25	0xbe19bc54	-0.15013248
26	0xbdee6574	-0.116404444
27	0xbe12f241	-0.14350225
28	0x3d8d5db1	0.06902636
29	0x3ed004f7	0.40628788
30	0x3a94f681	0.0011364968
31	0x3d849936	0.06474535
32	0x3d950556	0.072764084
33	0x3e3b21a7	0.18274556
34	0xbe4506f0	-0.19240928
35	0xbed2936b	-0.41128096
36	0xbd35b341	-0.044360403
37	0xbbdb479d	-0.0066918866
38	0xbdbe7e51	-0.09301437
39	0xbca1c292	-0.019746099
40	0x3ca51af5	0.020154456
41	0xbd8c9c50	-0.06865752
42	0x3cd08024	0.025451727
43	0x3db90a04	0.090351135
44	0x3c64b0cd	0.013958168
45	0xbccd38c1	-0.025051476
46	0xbda146cd	-0.07874832
47	0x3ddd8c9c	0.10817835
48	0xbdf3edac	-0.11910567
49	0xbbe51b17	-0.0069917548
50	0xbd85c798	-0.0653221
51	0xbd323f9e	-0.0435177
52	0x3cbf19bd	0.023327703
53	0x3d64d56b	0.055867594
54	0x3ccca006	0.024978649
55	0x3d9b6906	0.07588391
56	0xbd1d0d96	-0.038343035
57	0x3d8efed3	0.069821976
58	0x3cf3ea5c	0.029774837
59	0x3c0b96d5	0.008519848
60	0x3c7b083a	0.015321786
61	0xbd9b3c04	-0.075798064
62	0xbdb1448e	-0.08655654
63	0xbbb3af3a	-0.005483535
64	0x3a0bafbf	0.00053286174
65	0x3ce17223	0.027520245
66	0xbe234652	-0.15944794
67	0xbe0e1ad2	-0.13877419
68	0x3e0a87b4	0.13528329
69	0xbe2165f7	-0.15761553
70	0xbd37ee60	-0.044905066
71	0x3d6ffecb	0.0585926
72	0xbbc20240	-0.0059206784
73	0xbd2f8857	-0.042854633
74	0x3d8b8fe8	0.06814557
75	0xbd588a13	-0.052866053
76	0x3eaefd49	0.34177616
77	0xbe6a6b34	-0.22892457
78	0xbddf3448	-0.10898644
79	0xbc6e492b	-0.014543812
80	0x3b8079d2	0.003920772
81	0xbe3c22ad	-0.18372603
82	0xbe252d1e	-0.16130492
83	0xbce121d0	-0.027481943
84	0xbe0d3e4a	-0.13793293
85	0x3d1941c9	0.037416253
86	0xbd255ddb	-0.04037271
87	0xbeef2d22	-0.4671412
88	0x3cf8cf56	0.030372303
89	0x3e748a13	0.23880796
90	0xbc11ec6a	-0.008906463
91	0x3db052eb	0.08609565
92	0xbdaef74a	-0.085432604
93	0x3e09bdbb	0.13451283
94	0xbcb29448	-0.021799222
95	0x3e018de4	0.12651783
96	0xbdb7597a	-0.08952613
97	0xbe197a34	-0.14988023
98	0x3e0cbe69	0.1374451
99	0x3d5beccb	0.05369262
100	0xbdb9087a	-0.0903482
101	0x3d10bc47	0.035335805
102	0x3e11dbae	0.14243957
103	0xbe10164d	-0.14071007
104	0x3d1d13c4	0.038348928
105	0x3dd9d263	0.10635831
106	0xbdcb0638	-0.099132955
107	0x3cdc9e8c	0.02693107
108	0xbd9ba0e0	-0.07599044
109	0x3e057f0b	0.13036744
110	0x3c3f8027	0.011688269
111	0xbdce326b	-0.1006821
112	0xbe17d9af	-0.14829133
113	0x3e38a93a	0.18033305
114	0xbe02bb18	-0.12766683
115	0xbe1cc529	-0.15309586
116	0x3c965ad9	0.018353866
117	0x3e91fff6	0.28515595
118	0xbdaef866	-0.08543472
119	0x3d03c4b2	0.032170005
120	0x3d5eec84	0.054424778
121	0x3de61371	0.11234177
122	0x3db64dfc	0.08901593
123	0x3e6256c6	0.22103414
124	0xbd7e7e90	-0.06213242
125	0x3be7facd	0.0070794583
126	0xbce13201	-0.027489664
127	0x3e1f1061	0.15533592
128	0x3d8f534b	0.06998309
129	0xbdf4a513	-0.11945548
130	0xbe1c9026	-0.15289363
131	0x3c51639a	0.0127800945
132	0xbd512956	-0.05106481
133	0xbda39b97	-0.07988661
134	0xbe177f20	-0.14794588
135	0x3d8299db	0.06377002
136	0xbe1b4f6c	-0.15167016
137	0xbe0b8b09	-0.13627256
138	0xbdbc24de	-0.09186719
139	0xbded65a0	-0.11591649
140	0x3b0dd707	0.002164306
141	0xbe08bfc2	-0.133544
142	0x3dad8518	0.08472651
143	0xbe3a740e	-0.18208334
144	0x3cf55fd8	0.029952928
145	0x3debe6ea	0.11518653
146	0x3dffd190	0.12491143
147	0xbe7c8e03	-0.24663548
148	0xbded4162	-0.115847364
149	0xbd9c98b7	-0.076463155
150	0xbdbdeeb6	-0.09274046
151	0x3dfc6033	0.12323036
152	0x3d562ebf	0.052290674
153	0x3e452822	0.1925359
154	0x3bc73313	0.0060790866
155	0x3db76f26	0.08956747
156	0x3da2f7a0	0.07957387
157	0x3d8b45e2	0.068004385
158	0xbda21547	-0.079142146
159	0xbe4e18d8	-0.20126665
160	0x3e4320b0	0.19055438
161	0x3dc1a245	0.094547786
162	0x3dfa946e	0.12235342
163	0xbd9d5480	-0.07682133
164	0xbd573b68	-0.05254689
165	0xbdbe0142	-0.09277584
166	0x3e532250	0.20618558
167	0xbd4a742f	-0.049427208
168	0x3e1dcae6	0.15409431
169	0xbd9e52a6	-0.07730608
170	0x3d4bf5da	0.04979501
171	0x3d64a99c	0.055825815
172	0xbe2849cb	-0.164344
173	0xbe0079bc	-0.12546438
174	0xbd12dbcb	-0.035854142
175	0x3daa511f	0.08316254
176	0x3de75347	0.11295181
177	0x3d96ea19	0.07368869
178	0xbe7daa21	-0.2477193
179	0x3e01a69b	0.12661211
180	0xbda95aa6	-0.08269243
181	0xbe2652d2	-0.16242531
182	0xbdccbd84	-0.09997085
183	0xbd2a8bf0	-0.04163736
184	0x3e879653	0.26481876
185	0x3e80f3ca	0.25185996
186	0x3dc73520	0.0972693
187	0x3cc7d157	0.024391813
188	0x3d8059e6	0.06267147
189	0x3ce8030f	0.028321771
190	0xbe95ebc1	-0.29281428
191	0x3d3d1713	0.046164583
192	0xbe1534fb	-0.14570992
193	0x3bc18e69	0.005906869
194	0xbd6345f8	-0.05548665
195	0x3dc8e1a7	0.09808665
196	0x3ee89c6e	0.45431846
197	0xbd85cc70	-0.06533134
198	0x3d8dba89	0.069203444
199	0xbdd31771	-0.103072055
200	0xbc73a294	-0.014870305
201	0xbe920fb3	-0.28527603
202	0xbded0e0e	-0.11574946
203	0xbdd0f664	-0.10203245
204	0x3dd93c4d	0.106072046
205	0xbdaba347	-0.08380752
206	0x3d91b09b	0.07113763
207	0xbdadf2d6	-0.08493583
208	0xbd3d8817	-0.046272364
209	0x3cebb63e	0.028773423
210	0xbe18b194	-0.1491149
211	0xbcbd1b12	-0.023084197
212	0xbd8e9ac9	-0.06963117
213	0x3d5166e2	0.051123507
214	0xbdf539f3	-0.119739436
215	0x3e7ee1e2	0.24890855
216	0xbdd4f461	-0.10398174
217	0x3e17ba00	0.14817047
218	0xbda71183	-0.08157637
219	0x3e14ee51	0.14544035
220	0x3dfb07bb	0.12257334
221	0xbe89bd39	-0.26902178
222	0xbdf0cac5	-0.11757425
223	0xbcb9e9de	-0.022694524
224	0x3dd46b18	0.10371989
225	0x3e25bbf8	0.16184986
226	0xbeedd01c	-0.46447837
227	0x3e2aa4e1	0.16664459
228	0x3a846517	0.0010100928
229	0xbdf17064	-0.11789015
230	0xbdd68519	-0.10474605
231	0x3d9285ba	0.071544126
232	0xbec68a47	-0.38777372
233	0xbd9250d2	-0.071443215
234	0x3dd666b9	0.104688115
235	0x3da86df9	0.082241006
236	0x3d47cda0	0.048780084
237	0xbcc608d7	-0.024174137
238	0x3c86befc	0.01644849
239	0xbd07cb1f	-0.033152696
240	0x3c38ae51	0.011272029
241	0x3e0cf743	0.13766198
242	0x3e170754	0.14748889
243	0x3d3e2959	0.04642615
244	0xbd7a80d4	-0.061158016
245	0x3e6e928a	0.23298088
246	0x3bc6c71b	0.0060662157
247	0xbe29144e	-0.16511652
248	0x3d3cf6f5	0.046133954
249	0x3e366c19	0.17814673
250	0x3d84aca3	0.0647824
251	0x3de550c3	0.11197045
252	0x3d47bb04	0.048762336
253	0xbd555cc8	-0.052090436
254	0xbd18677d	-0.03720807
255	0x3e331f6a	0.17492452

fc1.bias f4 [128]
0	0xbe750e92	-0.2393134
1	0xbe245a6a	-0.16050115
2	0xbd4bfbab	-0.049800556
3	0x3d97dbf6	0.07415001
4	0x3db6754c	0.08909091
5	0x3de9e109	0.11419875
6	0xbc570510	-0.013123766
7	0x3db5615b	0.0885646
8	0xbde79d6f	-0.11309325
9	0x3ccb10a0	0.0247882
10	0xbe35aa5c	-0.17740768
11	0xbe8fe6c5	-0.2810575
12	0x3dca2599	0.098704524
13	0x3e389bf3	0.1802824
14	0x3d635d6e	0.055509023
15	0x3e81edd7	0.2537677
16	0x3d762b2a	0.06009976
17	0xbe4de6bd	-0.20107551
18	0xbd6cfbbc	-0.05785726
19	0x3e0bea33	0.13663559
20	0x3d4cb7e0	0.049980044
21	0xbe9b82b4	-0.30373156
22	0xbb696df1	-0.0035618509
23	0x3e05a41c	0.13050884
24	0x3d0c6dbb	0.034284335
25	0xbe21a92a	-0.15787187
26	0x3d12bd52	0.03582508
27	0xbe35fbf6	-0.17771897
28	0x3dde4cde	0.10854505
29	0x3b3f2948	0.0029168893
30	0xbe165341	-0.14680196
31	0x3b013f4b	0.0019721563
32	0x3e0a2ce6	0.1349369
33	0x3e0bc6df	0.13650082
34	0x3dbfa576	0.09357731
35	0x3dd4c1ed	0.10388551
36	0x3e5b7cb3	0.21434288
37	0x3d95f28d	0.073216535
38	0xbd1a0e63	-0.037611376
39	0xbe230e95	-0.15923531
40	0xbe57c35d	-0.21070619
41	0x3d4684c8	0.048466474
42	0x3c43db59	0.011954152
43	0x3e4cd95a	0.20004788
44	0x3df843cc	0.12122306
45	0xbafedaaf	-0.0019443835
46	0xbc345901	-0.011007548
47	0xbe1f67a4	-0.1556688
48	0xbebd6bf7	-0.36996433
49	0x3af75def	0.0018872599
50	0xbe7d4c31	-0.24736096
51	0x3b6b04c2	0.003586099
52	0xbeae8fd3	-0.34094104
53	0xbb77e0e8	-0.0037823264
54	0xbe260bba	-0.16215411
55	0xbe4f647d	-0.20253177
56	0x3e101b5e	0.1407294
57	0x39a1858f	0.00030807822
58	0xbdd30ca1	-0.10305143
59	0xbeb64220	-0.35597324
60	0x3e7d1f77	0.24719034
61	0x3dc89145	0.09793333
62	0x3d8f522d	0.06998096
63	0xbd4b1cf0	-0.049588144
64	0x3d8ffed5	0.07031027
65	0x3e0263f7	0.12733446
66	0xbeb37225	-0.35048023
67	0xbe294fb0	-0.16534305
68	0x3dc85625	0.09782056
69	0x3d5bf470	0.05369991
70	0xbe0175c3	-0.12642579
71	0xba851363	-0.0010152872
72	0xbe8c1d4e	-0.27366108
73	0x3e1332b1	0.14374806
74	0xbe6a9f04	-0.22912222
75	0xbdc78919	-0.09742946
76	0xbe4d1823	-0.20028739
77	0x3d9dad96	0.076991245
78	0x3dadd91f	0.08488678
79	0x3df7813c	0.120851964
80	0xbe117bc2	-0.14207366
81	0xbdadd64e	-0.08488141
82	0xbe5fe359	-0.2186407
83	0xbe3acfb2	-0.18243292
84	0x3dcd6b91	0.10030282
85	0x3dac6a16	0.08418672
86	0xbe099c14	-0.13438445
87	0x3dda3f4d	0.10656605
88	0x3e6bf428	0.23042357
89	0x3d9a951c	0.075479716
90	0xbe8216bf	-0.2540798
91	0x3d8d4196	0.06897275
92	0x3dda739b	0.10666581
93	0x3d34412a	0.044007458
94	0xbe635a2f	-0.22202371
95	0xbeaabbc3	-0.33346376
96	0x3e047fa3	0.12939315
97	0x3ddfa548	0.10920197
98	0x3dff65c5	0.12470583
99	0x3d2cf5ab	0.042226475
100	0xbe5f5917	-0.21811329
101	0x3e3ad440	0.1824503
102	0xbe3f7e87	-0.1870061
103	0x3dc08e9d	0.09402201
104	0xbe1377b4	-0.14401132
105	0xbe64dd46	-0.22350034
106	0xbedfae46	-0.43687648
107	0x3de1660c	0.11005792
108	0x3de5bb2f	0.11217343
109	0x3d7e95f3	0.06215472
110	0xbc2df09b	-0.010616447
111	0x3e0865d1	0.1332009
112	0x3dad5345	0.08463148
113	0xbdd927ad	-0.10603271
114	0xbb9f185a	-0.004855198
115	0xbe9c6958	-0.3054912
116	0xba9a7e4c	-0.0011786907
117	0xbeb29520	-0.34879398
118	0x3dfd8dba	0.12380548
119	0x3e06a023	0.13147025
120	0xbeb67164	-0.35633385
121	0xbeb5fa0a	-0.35542327
122	0xbc8b9a3b	-0.017041316
123	0x3e0cc9f1	0.1374891
124	0x3da5dd87	0.080988936
125	0xbe50ce59	-0.20391215
126	0xbe8177fc	-0.25286853
127	0xbe25f4fc	-0.16206735

fc2.weight f4 [64, 128]
0	0xbd9b8b7b	-0.07594963
1	0xbd9e2dab	-0.07723554
2	0xba82fea7	-0.0009994105
3	0xbdd02254	-0.101627976
4	0xbdaf9778	-0.08573812
5	0x3c192b45	0.009348695
6	0x3d5759ad	0.052575756
7	0xbd69bf29	-0.05706707
8	0x3d174cd3	0.0369385
9	0xbd736d93	-0.05943067
10	0xbb9efb66	-0.0048517464
11	0x3c46f0ab	0.012142341
12	0xbdaf1f79	-0.08550925
13	0xbd50fd4b	-0.05102281
14	0xbd375c93	-0.04476602
15	0xbbd875df	-0.006605848
16	0xbcb5d315	-0.022195378
17	0x3c2bce1c	0.010486152
18	0xbb63ad09	-0.0034740588
19	0xbc82b044	-0.01595319
20	0x3d9fab69	0.07796366
21	0xbc12d7a4	-0.008962546
22	0xbc9ea37e	-0.019365069
23	0xbcea0945	-0.028568873
24	0xbcd7be2e	-0.026335802
25	0xbd149d46	-0.0362828
26	0x3cc9344b	0.024561068
27	0xbd66107f	-0.056168076
28	0x3d96f901	0.073717125
29	0xbd980bbd	-0.07424114
30	0x3bb71245	0.0055868947
31	0x3d476af5	0.048685987
32	0xbc9b3acf	-0.01894894
33	0xbdb37f9c	-0.08764574
34	0xbcd5c97e	-0.026097056
35	0xbc76da18	-0.015066646
36	0x3d25c339	0.040469382
37	0xbd8ae49c	-0.06781885
38	0xbd96a05c	-0.07354805
39	0xbd06ecf1	-0.03294081
40	0xbd438c8e	-0.047741465
41	0xbd60b2af	-0.054857906
42	0xbc394c31	-0.011309669
43	0x3d6187a8	0.055061013
44	0x3d158c8a	0.03651098
45	0xbd436601	-0.0477047
46	0xbc999dc0	-0.018751979
47	0xbccd7f10	-0.025085002
48	0xbcedf99d	-0.029049689
49	0x3c2406cd	0.010011387
50	0x3d5ac87f	0.053413864
51	0x3d7bbaf7	0.0614576
52	0x3d6d5e7d	0.05795144
53	0xbd053752	-0.03252346
54	0xbc7ee91d	-0.015558508
55	0x3c2804f1	0.010255084
56	0xbd8044e4	-0.0626314
57	0x3ca79fe1	0.020461978
58	0xbbf7b121	-0.007558957
59	0xbd775947	-0.060387876
60	0x3c8efdb8	0.017454967
61	0x3d532e21	0.051557664
62	0x3d25c81a	0.040474035
63	0xbd97f99b	-0.07420655
64	0x3d80899c	0.06276247
65	0xbd5feabb	-0.054667216
66	0xbd016ee1	-0.031599883
67	0xbd8f5733	-0.06999054
68	0x3d99d5bd	0.075114705
69	0x3c330881	0.01092732
70	0xbd737249	-0.059435163
71	0x3c0d3fd0	0.008621171
72	0x3d402cfe	0.046917908
73	0xbcddcb20	-0.027074397
74	0x3cc012ef	0.023446528
75	0xbdb59673	-0.088665865
76	0xbd84b452	-0.06479706
77	0x3d9f6105	0.07782177
78	0xbdb30c5a	-0.0874259
79	0xbdf51807	-0.119674735
80	0xbd0c1e48	-0.034208566
81	0xbc879158	-0.016548797
82	0x3d29be06	0.041440986
83	0x3d1b100a	0.037857093
84	0x3d28692b	0.04111592
85	0x3d84ce09	0.064846106
86	0xbdb9561f	-0.090496294
87	0xbd82ce27	-0.06386977
88	0xbd52542f	-0.051349815
89	0xbd351c59	-0.044216488
90	0xbbf1b473	-0.0073762476
91	0x3d4d47b6	0.050117217
92	0x3d99469e	0.07484172
93	0x3bad7a27	0.0052941027
94	0xbd90403f	-0.07043504
95	0x3d6c38d8	0.057671398
96	0xbdbc46d9	-0.091932006
97	0x3d3f7038	0.04673788
98	0x3cbdfb16	0.023191016
99	0x3cb87e29	0.022521095
100	0xbd847d6e	-0.06469236
101	0xbca14254	-0.019684948
102	0x3d42f1a2	0.04759372
103	0xbbd9908a	-0.006639545
104	0x3c49b72e	0.01231174
105	0x3d9d1927	0.07670813
106	0x3d8edb00	0.06975365
107	0x3d83c58d	0.06434164
108	0xbd8d88b5	-0.069108404
109	0xbd50c124	-0.050965443
110	0x3d61ae11	0.055097643
111	0x3d1568b1	0.036476795
112	0x3c83a742	0.016070966
113	0x3c149dcc	0.009070825
114	0x3b5db702	0.0033831005
115	0x3c2afbc7	0.010436005
116	0xbd86aacf	-0.06575548
117	0xbdacde0b	-0.08440789
118	0x3d3daa6b	0.0463051
119	0xbcddaa40	-0.02705872
120	0xba7fc314	-0.0009756547
121	0xbd3fed34	-0.046857074
122	0xbd704710	-0.05866152
123	0x3ca3b5ff	0.019984243
124	0xbbd4eb65	-0.006497788
125	0xbd2462ae	-0.04013317
126	0xbd0b5d60	-0.034024596
127	0xbbf68355	-0.00752298
128	0xbdb5f05f	-0.08883738
129	0xbd56b15b	-0.052415233
130	0x3d4702c0	0.048586607
131	0x3ae21167	0.0017247618
132	0xbdc3b26f	-0.09555518
133	0xbe1b463a	-0.15163508
134	0x3d8c83b1	0.06861056
135	0xbe0738be	-0.13205239
136	0xbe1bb0b1	-0.15204121
137	0xbe2e8d7e	-0.17046162
138	0xbe0ed4cb	-0.13948362
139	0xbddcadbf	-0.10775327
140	0xbe08d3ae	-0.13362
141	0xbe2cef5a	-0.1688818
142	0xbe5c9593	-0.21541433
143	0xbd0f76fb	-0.035025578
144	0xbb23ed71	-0.0025013352
145	0xbe1c69f8	-0.15274799
146	0xbc9b04f7	-0.018923266
147	0x3cd7be02	0.02633572
148	0xbc2a0e69	-0.010379412
149	0xbc6af4e3	-0.014340612
150	0x3e0b6909	0.13614286
151	0xbdacb240	-0.08432436
152	0x3c73f9b6	0.014891079
153	0xbdca7abe	-0.098866925
154	0x3d670c04	0.056407943
155	0x3dd2a1cf	0.10284769
156	0xbd900fb1	-0.07034243
157	0x3bbb900f	0.00572396
158	0x3a8c2a75	0.0010693806
159	0x3d907b04	0.07054713
160	0x3cc3d2f0	0.023904294
161	0xbdc7b82e	-0.09751926
162	0xbcabea94	-0.020985879
163	0xbc8717c0	-0.016490817
164	0x3da13d40	0.07873011
165	0x3dee2b41	0.11629344
166	0x3d895961	0.06706501
167	0x3c4e35b5	0.012586047
168	0xbd9c885a	-0.076431945
169	0xbe062a56	-0.13102087
170	0x3e3da599	0.18520202
171	0x3b80619d	0.0039178864
172	0xbdc09de6	-0.09405117
173	0x3defab77	0.11702626
174	0x3e00fcf1	0.1259649
175	0x3caf599c	0.021405034
176	0xbe124059	-0.14282359
177	0x3d6efa03	0.0583439
178	0xbe389b4d	-0.18027993
179	0x3da0ae4e	0.07845746
180	0xbd33a2c5	-0.0438564
181	0x3dc3a223	0.095524095
182	0xbdc1a5ec	-0.09455475
183	0xbd26f9db	-0.040765624
184	0xbe05b4c0	-0.13057232
185	0x3d8f6724	0.070020944
186	0xbde5243b	-0.11188551
187	0xbcba30f6	-0.022728425
188	0x3d8b4d62	0.06801869
189	0x3cb70bb6	0.022344451
190	0xbd316614	-0.04331024
191	0x3e068518	0.13136709
192	0xbcbaac42	-0.022787217
193	0xbd99df94	-0.07513347
194	0xbdfd717c	-0.12375161
195	0xbd8a08ef	-0.06739985
196	0xbe061105	-0.1309243
197	0x3d5d4619	0.05402193
198	0xbe421caa	-0.18956247
199	0xbe2cb568	-0.16866076
200	0xbdc181b0	-0.09448564
201	0xbe398098	-0.18115461
202	0xbd81cadb	-0.0633752
203	0xbdef6ca7	-0.11690646
204	0xbe22d1d6	-0.15900359
205	0xbe008a07	-0.12552653
206	0xbe353405	-0.17695625
207	0x3d3d3d26	0.046200894
208	0xbd6211c5	-0.055192728
209	0xbdd58b97	-0.10427015
210	0xbdc87d9d	-0.09789584
211	0xbe08df28	-0.13366377
212	0x3dc3a632	0.095531836
213	0xbd9a8337	-0.075445585
214	0xbda2dc74	-0.07952204
215	0xbd8bddee	-0.06829439
216	0xbe17ead4	-0.14835674
217	0xbdb5879d	-0.08863757
218	0xbdffa263	-0.12482145
219	0xbe010388	-0.12599003
220	0xbde5c075	-0.11218349
221	0xbdf9ef82	-0.122038856
222	0xbdc82a26	-0.09773664
223	0xbd46104a	-0.04835538
224	0x3c7e2f16	0.015514156
225	0xbd9b9872	-0.07597436
226	0x3dfaaa37	0.12239497
227	0xbde0dd85	-0.109797515
228	0xbdb49b86	-0.08818726
229	0xbd711531	-0.0588581
230	0xbe371929	-0.17880692
231	0x3dc44219	0.095829196
232	0xbd1b7836	-0.03795644
233	0x3d004221	0.031313065
234	0xbdb6490e	-0.08900653
235	0x3d2e3eca	0.04254035
236	0x3d4447ca	0.047920026
237	0xbd7b5f73	-0.061370324
238	0x3dc28760	0.09498477
239	0xbe13acdc	-0.1442141
240	0xbd01519a	-0.031571962
241	0x3da04c4b	0.07827052
242	0x3d8123bc	0.06305644
243	0xbd262e5a	-0.040571548
244	0x3d15e99b	0.036599737
245	0xbde545ce	-0.11194955
246	0x3cc57095	0.024101535
247	0xbe4e18e6	-0.20126686
248	0xbe380c3f	-0.17973422
249	0xbdfaaed1	-0.12240375
250	0xbe4424ba	-0.19154635
251	0xbdf5f54e	-0.12009679
252	0xbe2474ef	-0.16060232
253	0xbdc5e319	-0.09662456
254	0xbe436274	-0.19080526
255	0xbc973f73	-0.018462872

fc2.bias f4 [64]
0	0x3b9f1df2	0.0048558647
1	0x3e9cc4bf	0.30618855
2	0xbe1fd753	-0.15609483
3	0x3e8aee18	0.27134776
4	0x3b90a883	0.0044146194
5	0xbdbb422d	-0.091434814
6	0xbe2eefac	-0.17083615
7	0x3dac6c56	0.08419101
8	0x3d9135f1	0.07090367
9	0x3e2206e2	0.15822938
10	0x3eae1c24	0.34005845
11	0xbe2491bf	-0.16071223
12	0xbe458187	-0.19287692
13	0x3e4c2db8	0.19939315
14	0xbdca5c6a	-0.09880908
15	0xbcb6aacc	-0.02229824
16	0x3d369e12	0.04458434
17	0x3e637420	0.22212267
18	0xbd9dfb1f	-0.07713913
19	0xbe558034	-0.20849687
20	0xbd37edc2	-0.044904478
21	0xbe457cd0	-0.19285893
22	0x3a6e042e	0.00090796023
23	0xbe009129	-0.12555374
24	0xbe79151a	-0.24324456
25	0x3e024e55	0.12725194
26	0xbe3128d5	-0.17300732
27	0xbd62b7b2	-0.055350967
28	0xbe6ad596	-0.22933039
29	0xbbf5c920	-0.0075007826
30	0x3c0274c4	0.007962409
31	0xbdab26ec	-0.08357033
32	0xb891566d	-6.930237e-05
33	0xbc668d01	-0.014071704
34	0xbe47e86b	-0.19522254
35	0x3eb55f83	0.35424432
36	0xbdc530b5	-0.09628431
37	0x3d3cafb0	0.046065986
38	0xbe3ef7fd	-0.18649288
39	0x3d38d240	0.045122385
40	0x3eb5c453	0.35501346
41	0x3b0598ae	0.0020385194
42	0x3e9a9212	0.30189568
43	0xbe209a75	-0.1568392
44	0xbe178740	-0.14797688
45	0xbd4e664f	-0.050390538
46	0xbe61c32e	-0.22047111
47	0xbe17b492	-0.14814976
48	0x3e4974e6	0.196735
49	0x3e96230f	0.29323623
50	0x3e0609af	0.13089631
51	0xbe7789be	-0.24173638
52	0xbda30e35	-0.07961694
53	0xbe6042e8	-0.21900523
54	0x3ebc2453	0.36746463
55	0xbdee6e8a	-0.116421774
56	0xbe243e09	-0.1603929
57	0xbe46c195	-0.19409783
58	0x3dc2cfcb	0.095122896
59	0xbe1b8337	-0.15186773
60	0xbe53e6b4	-0.20693475
61	0xbb6ea4f2	-0.0036414233
62	0xbd8b2695	-0.06794468
63	0xbe203b75	-0.15647681

fc3.weight f4 [6, 64]
0	0xbbd65b6b	-0.0065416596
1	0xbee082e8	-0.43849874
2	0x3f6f588c	0.93494487
3	0x3ec7188d	0.38885918
4	0x3ef5847a	0.47952634
5	0xbdce6f78	-0.10079855
6	0x3f543dc3	0.8290674
7	0x3ea1ed4d	0.3162636
8	0x3ed7f1f5	0.42176786
9	0xbd5ca14f	-0.053864773
10	0xbf00c01a	-0.50293124
11	0x3f7fd28a	0.9993063
12	0x3f781563	0.96907634
13	0xbe867a73	-0.26265296
14	0x3f24c67c	0.64365363
15	0x3f0d3367	0.5515656
16	0x3f06faa9	0.5272623
17	0x3ee8e5cb	0.45487818
18	0xbdc83b89	-0.097769804
19	0x3e6bb74e	0.23019144
20	0x3f213860	0.62976646
21	0x3f5541e9	0.83303696
22	0x3f268c2b	0.6505763
23	0x3f71b076	0.94409883
24	0x3ee77176	0.4520375
25	0x3eed069b	0.46294102
26	0x3f809c4e	1.00477
27	0x3f044051	0.5166064
28	0x3f7ec0dd	0.99513036
29	0xbd91feab	-0.07128652
30	0x3f08603d	0.5327185
31	0x3f144820	0.57922554
32	0x3c6e26ef	0.01453565
33	0xbdabd5ed	-0.083904125
34	0x3f7d2a0a	0.9889227
35	0xbedb122a	-0.42787296
36	0xbde109eb	-0.1098822
37	0x3ed0e099	0.40796354
38	0x3f5c0c86	0.8595661
39	0x3c3e620f	0.011620059
40	0xbe92c5d6	-0.28666562
41	0x3f111d18	0.5668502
42	0xbe1ad1d4	-0.15119106
43	0x3f1ca607	0.6119084
44	0x3f833778	1.0251303
45	0x3d110fb7	0.035415377
46	0x3f6a99a7	0.91640705
47	0x3ef29a4c	0.47383344
48	0xbe0492d5	-0.12946637
49	0xbedbe401	-0.4294739
50	0x3f0ea687	0.5572285
51	0x3f27f68f	0.65610594
52	0xbdd3acfa	-0.10335727
53	0x3f374221	0.7158528
54	0xbf262881	-0.64905554
55	0x3f76dfcb	0.9643523
56	0x3f6cc79d	0.92492086
57	0x3f36aaad	0.7135418
58	0x3eca2ac9	0.39485767
59	0x3f5d7c91	0.865182
60	0x3f5c0ee7	0.8596024
61	0xbd532bf8	-0.051555604
62	0x3efb2992	0.49055153
63	0x3f1a3faa	0.60253394
64	0x3d0162c0	0.031588316
65	0xbeb98a29	-0.3623822
66	0xbe58839f	-0.2114396
67	0x3f08e78d	0.5347832
68	0xbf24717c	-0.64235663
69	0x3dc1a1e7	0.094547085
70	0xbef5d7e8	-0.48016286
71	0xbf0fab78	-0.56121016
72	0x3ec807fd	0.39068595
73	0xbeded424	-0.43521225
74	0x3f752ef9	0.957748
75	0xbe93e05f	-0.2888212
76	0xbea588a9	-0.32330826
77	0xbe66d3c0	-0.22541714
78	0x3effa55c	0.49930847
79	0xbf122ed7	-0.5710272
80	0xbe604dc2	-0.21904662
81	0xbe0c3aca	-0.13694301
82	0xbc677cfb	-0.014128919
83	0xbd97aa27	-0.07405501
84	0xbedb1fc0	-0.4279766
85	0xbe432fbe	-0.19061181
86	0xbee53a0a	-0.44770843
87	0xbe455a9c	-0.19272846
88	0xbe2ccb5e	-0.16874453
89	0x3ebb148f	0.36539122
90	0xbec33fed	-0.3813471
91	0x3f023aa2	0.50870717
92	0xbe244f3b	-0.16045849
93	0xbc75b7f2	-0.014997469
94	0x3f08aa76	0.533851
95	0xbe3f674e	-0.18691751
96	0xbd16cbfc	-0.03681563
97	0x3c99c22d	0.018769348
98	0xbed6dd68	-0.41965795
99	0x3f80789a	1.0036805
100	0xbdc8caef	-0.098043315
101	0xbf16a049	-0.58838326
102	0xbe6fe860	-0.23428488
103	0x3e4f89b0	0.20267367
104	0x3f808019	1.0039092
105	0x3f189c46	0.59613454
106	0x3eb8a2ef	0.36061808
107	0xbed663ae	-0.41872925
108	0xbe6be6c6	-0.23037252
109	0xbdcc0e2e	-0.09963642
110	0xbea7c7e6	-0.32769698
111	0xbf1510c9	-0.5822874
112	0xbe79e332	-0.24403074
113	0x3f5d3929	0.86415344
114	0x3eea8485	0.4580423
115	0xbe06d0ed	-0.13165636
116	0x3d4f26d6	0.050574146
117	0xbeae60f8	-0.34058356
118	0x3f0a4181	0.540062
119	0xbe6f9aac	-0.23398846
120	0xbdd54d85	-0.10415176
121	0xbefae3e0	-0.4900198
122	0x3f08bbc8	0.5341153
123	0xbc84b804	-0.016201027
124	0xbe9c9343	-0.30581102
125	0xbdb80f24	-0.08987263
126	0xbf0f25df	-0.5591716
127	0xbeec7bc8	-0.46188188
128	0x3d3b2b8f	0.045695838
129	0xbce6df05	-0.028182516
130	0xbde39465	-0.111122884
131	0xbe5b73f0	-0.21430945
132	0xbe5e6737	-0.21719061
133	0x3ce18eed	0.027533973
134	0xbe3dbc9f	-0.18528984
135	0xbe1a30d7	-0.15057693
136	0xbc563c11	-0.013075844
137	0x3c83aa2f	0.01607236
138	0xbe44693d	-0.1918077
139	0xbe519426	-0.2046667
140	0xbd9f76ac	-0.07786307
141	0xbda8ddfb	-0.082454644
142	0xbe9b4649	-0.3032706
143	0xbe51e615	-0.20497926
144	0xbeac07f4	-0.33599818
145	0xbe98acb5	-0.29819265
146	0xbce0df49	-0.02745022
147	0xbd497614	-0.049184874
148	0xbe10e839	-0.14151086
149	0xbd2749d9	-0.04084191
150	0xbe933092	-0.28747994
151	0xbe8fa685	-0.28056732
152	0xbde8cc5b	-0.11367103
153	0xbea333e2	-0.3187552
154	0xbe1a1866	-0.1504837
155	0xbe8f2178	-0.27955222
156	0xbe74b5b0	-0.23897433
157	0xbdb7f555	-0.0898234
158	0xbeb21dfe	-0.34788507
159	0xbe96d972	-0.29462773
160	0xbcb7bf80	-0.022430182
161	0x3db9d522	0.09073855
162	0xbcb124af	-0.021623937
163	0xbe44e6b9	-0.19228639
164	0xbdc3e6d4	-0.09565511
165	0xbcc4cd83	-0.024023777
166	0xbe861943	-0.26191148
167	0xbd83fd6a	-0.06444819
168	0xbe0dd921	-0.1385236
169	0xbe233f81	-0.15942194
170	0xbeaa69da	-0.33283883
171	0xbe9120ca	-0.2834533
172	0xbe3fc2f1	-0.18726708
173	0x3dcb2188	0.09918505
174	0xbdadd50b	-0.084879
175	0xbd5a0084	-0.053223148
176	0x3c96c1aa	0.018402893
177	0xbda456fb	-0.08024403
178	0xbe7027f2	-0.23452738
179	0x3cf63e21	0.030058922
180	0xbde647bf	-0.11244153
181	0xbda7c04c	-0.081909746
182	0xbe02912e	-0.12750694
183	0xbdfa622b	-0.12225755
184	0xbe1b116e	-0.15143368
185	0xbd81ac20	-0.06331658
186	0x39b32dbd	0.00034175618
187	0xbe76de73	-0.24108295
188	0xbdf0f0de	-0.11764692
189	0x3da02253	0.07819047
190	0xbe690ea6	-0.22759494
191	0xbe16706a	-0.1469132
192	0x3a32360f	0.00067982165
193	0xbdae619c	-0.08514711
194	0xbc338790	-0.010957614
195	0xbe40dc14	-0.18833953
196	0xbcde2e93	-0.027121818
197	0xbdbf22a3	-0.09332778
198	0x3c4c8a66	0.012484169
199	0xbd762386	-0.06009247
200	0xbd948638	-0.07252163
201	0x3d9ec18d	0.07751761
202	0xbdb97976	-0.0905637
203	0xbd35e940	-0.044411898
204	0xbe17624c	-0.14783591
205	0xbe006531	-0.12538601
206	0xbe63f896	-0.22262797
207	0xbe246a34	-0.16056138
208	0xbe60d72e	-0.21957085
209	0xbe8cfc33	-0.27536163
210	0x3d12498a	0.035714664
211	0xbdb02e8d	-0.08602629
212	0xbdd32e04	-0.10311511
213	0xbbb63475	-0.0055604526
214	0xbe07a0f5	-0.13244994
215	0xbd962d22	-0.07332827
216	0xbd73ac9d	-0.05949079
217	0xbe5d9083	-0.21637158
218	0xbdae4cf5	-0.08510772
219	0xbe44c94d	-0.19217415
220	0xbd2aa9f3	-0.041665982
221	0xbd6c9caf	-0.057766613
222	0xbe302f30	-0.172055
223	0xbe7f0662	-0.24904779
224	0x3cad586e	0.02116033
225	0xbc0b2b6d	-0.00849424
226	0xbd9b7792	-0.075911656
227	0x3c8804c9	0.016603844
228	0xbd0bd324	-0.034136906
229	0xbe39f802	-0.18161014
230	0xbe237768	-0.15963519
231	0xbd2b3ef2	-0.041808076
232	0x3b5e96b4	0.0033964338
233	0xbe4073f7	-0.18794237
234	0xbe8bf4e9	-0.2733529
235	0xbe578abb	-0.21049015
236	0xbcb3e775	-0.021960953
237	0xbd87b130	-0.06625593
238	0xbe063eba	-0.13109866
239	0xbcd09981	-0.025463821
240	0xbae5da10	-0.0017536301
241	0xbe273f25	-0.16332681
242	0xbe6d9a17	-0.23203312
243	0x3d199f94	0.0375057
244	0xbc37c880	-0.0112172365
245	0xbd890365	-0.066901006
246	0xbe6518c1	-0.22372724
247	0xbd998fd5	-0.07498137
248	0x3c26844a	0.010163376
249	0x3d7b760a	0.061391868
250	0xbd53c937	-0.051705565
251	0xbddeab97	-0.10872572
252	0xbdf864bc	-0.121285886
253	0xbbe3751a	-0.00694145
254	0xbe4e3d22	-0.20140508
255	0xbdd72cff	-0.10506629

fc3.bias f4 [6]
0	0xbeac425d	-0.3364438
1	0x40152a4b	2.3307064
2	0xbfaa0080	-1.3281403
3	0xbf3b0fb7	-0.73070854
4	0x3fc9417b	1.5723108
5	0xbfb5db08	-1.4207468

fc4.weight f4 [128, 1280]
0	0x3ba30e59	0.0049760756
1	0x3c95293f	0.018208144
2	0xbc9736a0	-0.018458664
3	0x3ca04039	0.019561874
4	0x3798b86b	1.8205688e-05
5	0xbc2c1c8b	-0.010504852
6	0x3b01c923	0.0019803725
7	0xbc89fd32	-0.016844366
8	0xbc05f00a	-0.008174906
9	0x3c65ed8a	0.0140336845
10	0x3cdda097	0.027054114
11	0x3c0ae98b	0.008478533
12	0xbc346dbe	-0.011012493
13	0x39845373	0.00025239176
14	0xbcce1c80	-0.025160074
15	0xbbfb26ca	-0.007664536
16	0x3b12bc06	0.0022389903
17	0xbc238d52	-0.009982424
18	0xbc2dcf6d	-0.010608536
19	0x3c2d8095	0.010589738
20	0x3b4b8e2d	0.0031060085
21	0xbc3b8ead	-0.011447591
22	0xbcc674eb	-0.024225673
23	0x3b22beca	0.0024832957
24	0xbc445386	-0.011982804
25	0x3cc59ab6	0.024121623
26	0x3caa545b	0.020792177
27	0x3c08bc62	0.008345695
28	0x3c307ac7	0.01077146
29	0x3c6370eb	0.013881902
30	0x3cd71947	0.02625717
31	0xbb694617	-0.0035594755
32	0x3c855b63	0.016278928
33	0xbc3e2297	-0.011604927
34	0x3ca8f084	0.0206225
35	0xbcda9ab7	-0.026685102
36	0x3ce0fdbb	0.027464738
37	0x3c1c99f3	0.009558189
38	0xbcb71e51	-0.022353323
39	0x3cc131e9	0.02358337
40	0xbce2d71b	-0.02769046
41	0xbce5cb30	-0.028050989
42	0xbc099943	-0.008398357
43	0xbc21ac1d	-0.009867695
44	0xbbf505c1	-0.0074774926
45	0xbcced356	-0.025247257
46	0x3cb43935	0.021999935
47	0xbcbb9b87	-0.02290131
48	0xbccef348	-0.02526249
49	0x3be184b8	0.0068822764
50	0x3cba942a	0.022775728
51	0x3c50b742	0.012739005
52	0x3c9bda13	0.019024884
53	0xbc8c987a	-0.01716255
54	0xbcd4b903	-0.025967127
55	0x3c899c21	0.01679808
56	0x3c8c5b4a	0.017133374
57	0xbc8e5844	-0.017376073
58	0xbb9c825f	-0.0047762836
59	0xbb4b9ea9	-0.003106991
60	0xbc03bcbe	-0.008040605
61	0xbc6bf79d	-0.014402297
62	0x3c4a9443	0.01236445
63	0xbc024e93	-0.007953304
64	0x3c09c5a0	0.008408934
65	0x3ccc7a4b	0.024960658
66	0x3c3cb7b0	0.011518404
67	0xbbe6df58	-0.0070456676
68	0xbc0a20b8	-0.008430652
69	0x3ce2a05c	0.027664356
70	0xbcc486c7	-0.023990048
71	0xbad48864	-0.0016214964
72	0x3a6a6b6b	0.0008942398
73	0x3cdb49bc	0.026768558
74	0x3ce5d2b7	0.028054578
75	0x3cca562a	0.02469929
76	0x3c124c9c	0.008929398
77	0xbbb2851c	-0.005447997
78	0xbca56e17	-0.020194096
79	0x3cb9d091	0.02268246
80	0x3cbb5521	0.022867741
81	0x3c5fec2b	0.013667147
82	0xbcc955c3	-0.024577027
83	0xbc4342ad	-0.011917752
84	0x3cacda21	0.021100106
85	0x3c618032	0.013763474
86	0xbc8ac7fa	-0.01694106
87	0xbc8e7ea0	-0.017394364
88	0xbc8e6dfd	-0.01738643
89	0x3b078b3c	0.0020682355
90	0x3c7adea1	0.015311868
91	0xbc3e86a4	-0.0116287805
92	0x3c9abce3	0.018888896
93	0xbc5bda04	-0.013418678
94	0xbc695358	-0.014241062
95	0xbc98670e	-0.018603828
96	0x3b9a6f99	0.0047130105
97	0x3c1e9967	0.009680129
98	0xbc6a4499	-0.0142985815
99	0x3c0b68de	0.008508889
100	0x3c87a88d	0.016559863
101	0xbcc12d57	-0.02358119
102	0x3c9b3155	0.018944422
103	0x3cd3c5bb	0.025851121
104	0xba7bc193	-0.0009603735
105	0x3cc35caa	0.023847897
106	0xba024550	-0.0004969435
107	0xbb80b225	-0.0039274865
108	0x3c165bda	0.009177173
109	0xbc439e30	-0.01193957
110	0xbc52ccec	-0.01286624
111	0x3c3d298e	0.011545552
112	0x3cd93b01	0.026517393
113	0x3c94f022	0.01818091
114	0x3b95ddd8	0.004573565
115	0xbc58a134	-0.013222028
116	0x3a2be467	0.0006557167
117	0xba0189ed	-0.0004941512
118	0x3c4d5976	0.012533536
119	0xbcdbfc86	-0.026853811
120	0xbc9c1358	-0.019052193
121	0x3ca7c4b8	0.020479545
122	0xbcb38fec	-0.021919213
123	0x3c1609e5	0.0091576325
124	0x3c0a6159	0.008446061
125	0xbcdbc1da	-0.026825834
126	0xbce7420f	-0.028229741
127	0x3cc5b892	0.024135862
128	0xbc2b223d	-0.010445175
129	0xbaf57b36	-0.0018728736
130	0xbb9f1604	-0.0048549194
131	0xbc499c05	-0.012305264
132	0x39b1b7d3	0.0003389703
133	0x3b4b2150	0.0030995198
134	0xbc909adb	-0.017651966
135	0x3c0ff274	0.008785833
136	0xbc88139f	-0.016610919
137	0x3c7ad6b7	0.015309981
138	0xbcb50805	-0.02209855
139	0xbc8ec396	-0.017427247
140	0xbbdbdd77	-0.0067097503
141	0xbca58d90	-0.020209104
142	0x3c3e28c7	0.011606402
143	0xbbb86a3a	-0.0056278976
144	0x3c82e0fe	0.015976425
145	0xbbc5ba61	-0.006034181
146	0x3c757901	0.014982463
147	0x3baeb15b	0.005331201
148	0x3cbcac0a	0.023031253
149	0x3c95bfa6	0.018279862
150	0x3c3d5654	0.011556227
151	0x3b611fbc	0.003435119
152	0x3bc705f4	0.0060737077
153	0x3c7735a7	0.015088475
154	0x3c89a90c	0.01680424
155	0x3c24dcfc	0.010062452
156	0xbc20c4eb	-0.009812574
157	0x3b532bea	0.003222222
158	0xbbedc3c5	-0.0072560036
159	0xbb1b8c24	-0.0023734653
160	0x3c8e9aa8	0.01740773
161	0x3cd1f7c6	0.025630843
162	0xbca98544	-0.020693429
163	0x3c0949c2	0.008379402
164	0x3b75e747	0.0037521885
165	0xbb6c9a20	-0.0036102608
166	0x3c932c3c	0.017965429
167	0xbbdcd563	-0.006739305
168	0xbcd5c70a	-0.026095886
169	0xbb08cc9b	-0.0020873907
170	0xbca9ec8c	-0.020742677
171	0x3cac5439	0.021036254
172	0x3cc5f8c2	0.024166469
173	0x3c8c6037	0.017135723
174	0x3c99b679	0.018763768
175	0xbbb4dce9	-0.0055194986
176	0x3cc07d76	0.023497324
177	0xbcd8dcbf	-0.026472447
178	0xbbe6bddd	-0.0070416764
179	0xbc68771a	-0.014188552
180	0xbc07eec5	-0.008296673
181	0xbcaff65e	-0.021479782
182	0x3ca2ff12	0.019897018
183	0xba8f268c	-0.0010921522
184	0x3ccdb4d0	0.025110632
185	0x3ca8b778	0.020595297
186	0xbaecf3d5	-0.0018078039
187	0x3a17613b	0.00057746813
188	0x3cbbfd9f	0.022948084
189	0x3c841196	0.016121667
190	0xbb99b9ce	-0.004691339
191	0xbcb746cc	-0.022372626
192	0x3c2ec9d3	0.010668236
193	0xbc5f642a	-0.013634721
194	0x3cb27874	0.021785952
195	0xbce8238d	-0.028337264
196	0xbb92eb6c	-0.004483631
197	0xbcc23080	-0.023704767
198	0xb9b6622b	-0.00034786886
199	0xbc984bc1	-0.01859081
200	0xbcf1030f	-0.029420404
201	0x3c9cb8db	0.019131115
202	0x3b9fb92f	0.0048743705
203	0x3cd70458	0.026247188
204	0xbb28d515	-0.0025761772
205	0x3b971a20	0.0046112686
206	0x3c4aacfa	0.012370342
207	0x3ce9ffa7	0.028564287
208	0xbca1dc52	-0.019758377
209	0x3c4e7719	0.012601637
210	0x3ac7fae0	0.0015257262
211	0x3c877c3f	0.016538737
212	0x3d023ab0	0.03179425
213	0x3c889e65	0.01667709
214	0x3c7c8c3c	0.015414294
215	0xbc8aca51	-0.016942175
216	0x3c48a817	0.012247107
217	0x3c6e5cf0	0.014548525
218	0x3beff903	0.0073233857
219	0xbc1bdf29	-0.009513655
220	0xbcd558be	-0.026043292
221	0x3b9697fa	0.0045957537
222	0x3c40043f	0.011719762
223	0x3cc4a5aa	0.024004776
224	0x3ca055c5	0.019572148
225	0xbc419e72	-0.011817561
226	0x3c6fa213	0.014626044
227	0xbc593348	-0.013256855
228	0xbc69257c	-0.014230128
229	0x3c9962c8	0.01872386
230	0x3ba5d289	0.005060498
231	0xbc7a5dd1	-0.015281157
232	0x3cd28677	0.025698883
233	0xbbb29898	-0.0054503195
234	0x3bd4f0b7	0.006498422
235	0xbccec769	-0.02524157
236	0xbb22df5a	-0.0024852366
237	0x3c909ae9	0.017651992
238	0xbcc907fc	-0.02453994
239	0xbd012356	-0.03152784
240	0xbc8e2513	-0.017351663
241	0x3bb29926	0.0054503856
242	0x3b6ab238	0.0035811793
243	0x3cf4766c	0.029841624
244	0xbc8ada8e	-0.016949918
245	0xbc9519ba	-0.018200744
246	0x3c9457d4	0.018108286
247	0x3b503071	0.0031767155
248	0xbcc967f7	-0.024585707
249	0x3a983aed	0.0011614241
250	0x3b589a6e	0.0033051032
251	0x3c1cd6dd	0.009572712
252	0x3c9479f0	0.01812455
253	0xbca42298	-0.020036027
254	0xbadbc59c	-0.0016767266
255	0xbbe2d960	-0.006922886

fc4.bias f4 [128]
0	0xbc2fe5fa	-0.010735983
1	0x3c211abc	0.009833034
2	0x3c70ce77	0.014697663
3	0xbbfa9f17	-0.0076483595
4	0x3d1a0a0f	0.03760725
5	0x3c8d5b8b	0.017255565
6	0x3c2c3032	0.0105095375
7	0x3d482efb	0.04887293
8	0xbbc7ca3d	-0.0060971067
9	0x3bbec09b	0.0058213
10	0x3c95dd39	0.018293964
11	0xbcfbfe64	-0.030760951
12	0x3d28a477	0.04117247
13	0x3c4046a5	0.011735593
14	0x3c1951e2	0.009357901
15	0x3b029d7f	0.00199303
16	0xbbad400a	-0.005287175
17	0x3d8426f8	0.06452745
18	0x3bca98fb	0.0061827875
19	0xbb7de516	-0.0038741282
20	0x3cc7f6ed	0.024409736
21	0x3c9c8456	0.019106071
22	0x3ccf9cb7	0.025343282
23	0xba188431	-0.0005818038
24	0xbbf9e4f2	-0.0076261694
25	0x38fea4c5	0.000121423545
26	0x3d823f9f	0.06359791
27	0x3c894cb8	0.016760215
28	0xbc15f67e	-0.009153007
29	0xbc804e24	-0.01566226
30	0x3bdf02b4	0.006805742
31	0x3d0efde9	0.034910116
32	0xbb786acd	-0.0037905455
33	0xba9547f8	-0.0011389246
34	0x3cda912e	0.026680555
35	0xbbed59e1	-0.0072433804
36	0xbc0f007c	-0.008728143
37	0xbcaac71d	-0.020846898
38	0xbcac8219	-0.02105813
39	0x3c5d9adf	0.013525694
40	0xbd38befb	-0.04510401
41	0x3cfa26c7	0.030536069
42	0x3d69e024	0.057098523
43	0x3b23f0d0	0.0025015362
44	0xbc6ccdb2	-0.014453338
45	0x3ca87a5f	0.020566164
46	0x3c87788b	0.016536972
47	0x38f278a7	0.000115619325
48	0xbcacc321	-0.021089138
49	0xbc82df73	-0.01597569
50	0xbd1ff910	-0.039055884
51	0xbc166789	-0.009179958
52	0xbc941a0a	-0.018078823
53	0xbc914772	-0.017734263
54	0xbd5a5626	-0.053304814
55	0xbc9460b3	-0.018112516
56	0x3c8b815b	0.017029455
57	0x3bc09837	0.0058775204
58	0x3c880e67	0.01660843
59	0xbd268f68	-0.040664107
60	0x3c83f30f	0.01610711
61	0xbbd970e2	-0.006635771
62	0xbbfdb234	-0.0077421907
63	0x3b17df0b	0.0023173715
64	0x3d180124	0.037110463
65	0x3bc625a6	0.0060469685
66	0xbc99162d	-0.018687332
67	0xbc2fd121	-0.010731013
68	0xbc930283	-0.017945534
69	0xbd0810ee	-0.03321927
70	0xbcafc368	-0.021455482
71	0x3ccff075	0.025383214
72	0x3c1cb671	0.009564982
73	0x3ce6342f	0.028101055
74	0x3d41134c	0.047137544
75	0xbc58e97b	-0.01323926
76	0x3ba32e82	0.0049799094
77	0x3c81c8bb	0.015842786
78	0x3d0396af	0.032126125
79	0xbb467d96	-0.0030287257
80	0xbd1cba68	-0.03826371
81	0xbc043ba6	-0.008070862
82	0x3c4ec4d5	0.012620171
83	0x3cdd8faa	0.027046043
84	0x3cd9c778	0.026584372
85	0x3b4b5ab1	0.0031029398
86	0xbd307225	-0.043077607
87	0xbc4400db	-0.011963095
88	0x3b8fac00	0.0043845177
89	0xbc767786	-0.015043145
90	0xbd357a27	-0.044305947
91	0xbc2f203f	-0.01068884
92	0x3ceefdd8	0.029173777
93	0xbc1333f6	-0.008984556
94	0x3cb1477a	0.021640528
95	0x3c6a7802	0.014310839
96	0xbc29f917	-0.010374329
97	0x3ce64271	0.028107854
98	0x3d174c40	0.036937952
99	0x3c9c63dc	0.019090585
100	0x3cd8e5ff	0.026476858
101	0x3d12dbaf	0.035854038
102	0x3cdf80d6	0.027283113
103	0xbca76052	-0.020431671
104	0xbc492ae3	-0.012278291
105	0x3bfa51b9	0.0076391366
106	0xbce899ba	-0.028393615
107	0xbc36e8b5	-0.01116388
108	0x3cd601c5	0.02612389
109	0x3ce2eced	0.027700866
110	0x3b937b09	0.004500751
111	0xbccb655b	-0.024828603
112	0x3c10d1b4	0.00883906
113	0x3c28ec70	0.010310277
114	0x3bbbe6c5	0.005734297
115	0xbd3f89dd	-0.046762336
116	0xbd1e6c29	-0.03867737
117	0x3d31f352	0.04344494
118	0x3d0bc575	0.034123857
119	0x3b4101a6	0.0029450445
120	0xbaa5a994	-0.0012639039
121	0xbc834ddd	-0.016028339
122	0x3cb37155	0.021904627
123	0xbc5fce54	-0.013660032
124	0xbcea6886	-0.028614294
125	0x3d17d1c0	0.037065268
126	0xbce1c6d3	-0.027560627
127	0x3ca3c6c3	0.019992238

fc5.weight f4 [64, 128]
0	0xbd5650b5	-0.052323062
1	0xbdd4f0f6	-0.10397522
2	0x3c8c5e39	0.017134773
3	0x3c8868cd	0.016651535
4	0x3a41712a	0.00073792285
5	0xbbde466c	-0.0067832973
6	0xbdeddc5f	-0.11614298
7	0x3bc9fadb	0.0061639375
8	0xbdeb19b7	-0.11479514
9	0xbd76bf9b	-0.060241323
10	0x3baaebf5	0.0052161166
11	0x3e42d4d9	0.19026507
12	0x3bf118a0	0.007357672
13	0xbd8ed20e	-0.069736585
14	0x3d4eaede	0.050459735
15	0xbc89abdf	-0.016805587
16	0x3e2bc37c	0.1677379
17	0xbe0b67a3	-0.13613753
18	0xbd12588a	-0.03572897
19	0xbdc8a4a5	-0.097970285
20	0xbd5050e2	-0.050858386
21	0x3d1d7b56	0.0384477
22	0xbe10a9a1	-0.14127208
23	0x3d7383b3	0.05945177
24	0xbd3d2c9c	-0.04618512
25	0xbb03ec47	-0.0020129846
26	0xbcb1fe88	-0.021727815
27	0x3cc0c568	0.02353163
28	0x3b59897d	0.0033193522
29	0xbcc1cd21	-0.023657383
30	0x3d92026c	0.07129368
31	0x3d7d545d	0.061848033
32	0xbcdac17c	-0.026703589
33	0x3b946eb2	0.0045297975
34	0x3c72e04e	0.014823986
35	0x3d3dd882	0.046349056
36	0xbdcc7925	-0.09984044
37	0x3c9271c3	0.017876511
38	0x3d27e2b0	0.04098767
39	0xbd0c7025	-0.034286637
40	0x3c9b68cc	0.01897087
41	0x3d9d10fe	0.07669257
42	0xbc43beb3	-0.011947322
43	0x3c9533f5	0.018213252
44	0x3d19569f	0.037436124
45	0xbd9664c5	-0.07343439
46	0x3c01c4d8	0.007920466
47	0x3dc8ed33	0.09810867
48	0xbba105cf	-0.0049140225
49	0xbd07222a	-0.032991566
50	0xbd77f04c	-0.0605319
51	0x3e3f737c	0.18696398
52	0xbcdc7a06	-0.026913654
53	0x3cad0837	0.021122081
54	0xbc9d8cbb	-0.019232145
55	0xbd94be56	-0.07262866
56	0x3df89102	0.12137033
57	0x3c0893d7	0.008336029
58	0x3d81c0bf	0.063355915
59	0xbdcd1322	-0.10013415
60	0xbd446754	-0.047950104
61	0xbcb00ad6	-0.021489542
62	0xbbdb833d	-0.0066989944
63	0xbd6a3042	-0.05717493
64	0xbd62b539	-0.05534861
65	0xbdfc224c	-0.12311229
66	0x3d87ffd9	0.06640596
67	0x3deebc19	0.116569705
68	0xbb8a3c8f	-0.004218645
69	0xbdc3b3b7	-0.09555762
70	0xbdbde36e	-0.092718944
71	0xbc84c358	-0.016206428
72	0x3db97b70	0.09056747
73	0x3e14ee90	0.1454413
74	0x3e14e272	0.14539507
75	0xb9fafe72	-0.00047873292
76	0x3cd0d142	0.025490407
77	0xbdcd7cab	-0.10033544
78	0x3ce25f47	0.027633322
79	0x3d85af33	0.06527557
80	0xbdf6bea5	-0.12048081
81	0x3dd7bd1a	0.10534115
82	0x3e1c3451	0.15254332
83	0xbdd909a4	-0.10597542
84	0xbccfc70a	-0.025363464
85	0x3c85d489	0.016336696
86	0xbdc8e19b	-0.09808656
87	0xbd912fdd	-0.07089207
88	0x3dba5691	0.090985425
89	0x3d2040ff	0.039124485
90	0xbddf83f0	-0.10913837
91	0x3d427d9b	0.047483068
92	0xbcf63f5e	-0.030059513
93	0xbd801cd4	-0.062554985
94	0x3db2e94a	0.087359026
95	0x3ce15464	0.02750606
96	0x3e0dbf1c	0.13842434
97	0x3bfeccb6	0.0077758683
98	0x3ddf490c	0.109026045
99	0xbd20b61b	-0.03923617
100	0xbd4e95b6	-0.050435744
101	0x3d9dee23	0.077114366
102	0xbcdaf8af	-0.02672991
103	0xbd989738	-0.07450718
104	0x3e0f2ba4	0.13981491
105	0xbb8e3672	-0.0043399865
106	0x3d21713b	0.039414626
107	0x3d223a0e	0.039606147
108	0xbbbe25e7	-0.005802858
109	0xbca58a9d	-0.020207698
110	0xbe1aff13	-0.15136366
111	0xbdb1db0a	-0.086843565
112	0x3c232155	0.009956677
113	0xbd4e98ab	-0.050438564
114	0xbdbf51fe	-0.09341811
115	0xbd90dc87	-0.07073312
116	0xbc736396	-0.014855286
117	0xbd29e2a1	-0.041475896
118	0x3d7eb62e	0.06218546
119	0xbdc065a3	-0.09394386
120	0xbd4ebf30	-0.0504753
121	0xbb4d0d0d	-0.0031288296
122	0x3d886ec3	0.06661751
123	0xbde477a8	-0.11155635
124	0x3e037744	0.12838465
125	0xbcd71f76	-0.026260119
126	0x3b500370	0.003174033
127	0x3d6ae37b	0.05734585
128	0xbd91b109	-0.07113845
129	0xbd84608c	-0.06463727
130	0x3c9dd91d	0.019268567
131	0x3d5514fd	0.05202197
132	0x3d36bdc0	0.044614553
133	0xbe07bcb4	-0.13255578
134	0xbdb224c7	-0.08698421
135	0x3d90a180	0.07062054
136	0xbd646137	-0.055756774
137	0x3d008484	0.031376377
138	0x3d72327c	0.059130177
139	0x3da759d6	0.08171432
140	0x3dab7eb4	0.08373776
141	0xbe11484f	-0.1418774
142	0xbda62e46	-0.08114295
143	0xbd7b627d	-0.061373223
144	0xbc00e5cd	-0.007867289
145	0xbd8559d2	-0.065112725
146	0x3d3c6c33	0.046001624
147	0xbddc3909	-0.10753066
148	0xbd5160cc	-0.051117703
149	0x3c4ae6f2	0.012384163
150	0xbd84918c	-0.06473073
151	0x3c834d16	0.016027968
152	0x3b499bbf	0.0030762998
153	0xbd9ec3ea	-0.077522114
154	0xbdefc805	-0.117080726
155	0x3d35721f	0.044298287
156	0x3d69cf70	0.057082593
157	0xbdacac21	-0.084312685
158	0x3c1d7a73	0.009611714
159	0x3dd9522e	0.10611378
160	0x3d8d4f71	0.06899918
161	0x3bc09dec	0.0058782008
162	0x3d9efe30	0.07763326
163	0x3a964a74	0.001146628
164	0xbd2981f5	-0.041383702
165	0x3d8fd5c2	0.07023193
166	0xbcd1ed0e	-0.025625732
167	0xbd7cdd3e	-0.06173443
168	0x3c9fd364	0.019509979
169	0xbd81d3a8	-0.06339198
170	0xbd074b61	-0.03303087
171	0xbd48e3d2	-0.04904539
172	0xbd53faca	-0.051752843
173	0xbd906d10	-0.07052052
174	0x3d8c90a1	0.06863523
175	0x3da3ecd4	0.08004156
176	0xbdc69995	-0.09697262
177	0xbd3bebb8	-0.045879096
178	0xb9bd70e4	-0.00036133
179	0x3de475d5	0.11155287
180	0xbd2d2432	-0.042270847
181	0xbc228bf1	-0.00992106
182	0xbd8cc2be	-0.068730816
183	0x3b61fe38	0.0034483802
184	0x3de81e51	0.113339074
185	0x3d6b1d82	0.057401188
186	0xbcadab96	-0.021199983
187	0x3d59fdd0	0.05322057
188	0x3d583b24	0.052790776
189	0x3cf51e13	0.029921567
190	0xbce73376	-0.02822278
191	0x3d6c7287	0.05772641
192	0xbdf159d6	-0.11784713
193	0xbdd4c557	-0.10389202
194	0xbd71a062	-0.058990844
195	0xbddd0abc	-0.10793063
196	0xbd00453d	-0.03131603
197	0xbdb6cce4	-0.089257985
198	0xbd17a4ab	-0.037022274
199	0x3d890126	0.06689672
200	0xbde84e41	-0.11343051
201	0x3db8b65d	0.09019158
202	0x3da1e388	0.07904726
203	0x3df683b9	0.12036843
204	0xbd1c57b1	-0.038169567
205	0xbd396610	-0.04526335
206	0x3d3f6a3f	0.046732184
207	0x3d0b49e6	0.034006022
208	0xbd905203	-0.070468925
209	0xbda37ecb	-0.07983168
210	0x3e24799a	0.16062012
211	0xbe0e2c31	-0.13884045
212	0xbc8cc1be	-0.017182227
213	0xbe01cf5b	-0.12676756
214	0x3d2afc82	0.041744716
215	0xbd8a8098	-0.067628086
216	0x3de50566	0.1118267
217	0xbd08b1ee	-0.033372812
218	0xbd82030e	-0.06348239
219	0x3db782cd	0.08960495
220	0x3c8bbab4	0.0170568
221	0xbd8304b4	-0.063973814
222	0xbcbaac68	-0.022787288
223	0xbcb5d259	-0.022195028
224	0xbc414bd1	-0.011797861
225	0xbd9878cc	-0.07444915
226	0xbd309c44	-0.043117777
227	0x3d0017f5	0.031272847
228	0x3d39d6e0	0.045370936
229	0x3dd9051f	0.1059668
230	0x3b5a98f2	0.0033355323
231	0xbd08534e	-0.03328257
232	0x3e218f7a	0.15777388
233	0xbd03bb9c	-0.03216134
234	0x3db6342c	0.0889667
235	0xb9bc4c1a	-0.00035914854
236	0x3dced9a1	0.10100103
237	0x3d9b5524	0.07584599
238	0xbd932d5c	-0.07186386
239	0x3cbc614c	0.022995614
240	0xbda10a4a	-0.078632906
241	0xbd91d26d	-0.07120214
242	0xbb2199c2	-0.0024658297
243	0xbd7cd0c9	-0.06172255
244	0xbdbec4a4	-0.0931485
245	0xbb1ba610	-0.0023750104
246	0x3dc801ee	0.09765993
247	0x3b1e9791	0.0024199227
248	0xbdb10d4a	-0.08645113
249	0xbd3a3d06	-0.045468353
250	0xbca1cee0	-0.019751966
251	0xbdb85e24	-0.09002331
252	0x3d7de43b	0.061985236
253	0x3d4d0d28	0.050061375
254	0xbdab48db	-0.083635055
255	0xbe0ab5b1	-0.13545872

fc5.bias f4 [64]
0	0xbcf2ba8e	-0.029629972
1	0x3b8aa183	0.0042306795
2	0xbc542f1d	-0.012950686
3	0xbdce4f17	-0.10073679
4	0xbc28735c	-0.01028141
5	0xbc0cac42	-0.008585991
6	0xbc2c61e9	-0.0105213905
7	0xbdb299f3	-0.0872077
8	0x3b1c9f25	0.0023898568
9	0xbce4219a	-0.027848054
10	0x3baea5c6	0.0053298203
11	0xbcd90ca9	-0.026495295
12	0x3d4f092d	0.05054586
13	0x3d160061	0.036621455
14	0x3dcd559d	0.10026095
15	0x3b0a152d	0.002106975
16	0xbd9d0dab	-0.076686226
17	0x3cb3291f	0.021870194
18	0xbd0838b9	-0.03325722
19	0xbd218d2a	-0.039441265
20	0xbc049190	-0.008091345
21	0x3bee506d	0.007272771
22	0xbcc04312	-0.023469482
23	0x3d48b1ae	0.048997574
24	0xbc640301	-0.013916732
25	0xbd8931b9	-0.06698937
26	0xbd4ff49a	-0.05077038
27	0x3dacb0e1	0.084321745
28	0x3cc4826f	0.023987977
29	0x3d3283c1	0.04358268
30	0x3db756cb	0.08952101
31	0x3c016b2e	0.007899089
32	0x3d988184	0.07446578
33	0xbd20b7fe	-0.03923797
34	0xbdaca31b	-0.084295474
35	0xbb0a8795	-0.0021137942
36	0x3c46bcfc	0.012130018
37	0x3cf390c0	0.029732108
38	0x3d280cf5	0.04102798
39	0xbdceb8b1	-0.10093821
40	0xbd48d53b	-0.049031477
41	0xbdae657e	-0.08515452
42	0xbd65253d	-0.055943716
43	0xbda85eef	-0.08221232
44	0x3d44a361	0.048007373
45	0xbd66d7d6	-0.05635818
46	0xbcfc49f0	-0.030796975
47	0x3d630107	0.0554209
48	0x3c9714f5	0.01844261
49	0x3e01eabc	0.126872
50	0x3cf1de47	0.029524935
51	0xbc84fd96	-0.0162342
52	0xbd414454	-0.047184303
53	0x3d99a08e	0.075013265
54	0xbdb6b413	-0.08921065
55	0x3d34c58e	0.044133715
56	0xbb53c80d	-0.0032315284
57	0xbda113fd	-0.078651406
58	0xbd6106ff	-0.054938313
59	0xbcaba4a0	-0.020952523
60	0x3d14c3d8	0.036319584
61	0xbd8f3956	-0.06993358
62	0x3bfe4913	0.007760176
63	0xbd849e25	-0.06475476
