models/0.3/0.pt (torch, 747117 bytes, 12 tensors)

fc1.weight f4 [128, 36]
00000000: a115 8fbd 6af5 a1bb 9122 2a3e 6c8e 3a3c
00000010: d184 12be f797 20be f663 14bd 5760 43bd
00000020: ee3f 413d c24f 1b3d 08cf 0abe 23cc 403e
00000030: 0115 e03b b53b 5c3d f27e f7bd b7a9 a4bd
00000040: dcf4 1b3d 73ae e4bc 40ff f9bd 4b36 253e
00000050: 7c7e ddbd 8636 0c3e a7fb adbd 2780 42bd
00000060: fa91 75bc 8531 19be 8d71 a9bc a78c 3cbe
00000070: 80e3 ad3d f7f0 d83b 2b19 acbb 236e 40bb
00000080: 0a82 17be aa40 19be 2b17 773c 7de5 bdbd
00000090: 3229 37bd 11bb cd3d 08be e3bc 5ebe ff3d
000000a0: ed1a d83d fcb7 873d 2e55 9b3d fad7 81bc
000000b0: a7af a23d fd05 f63d 0f5b 9b3c 725f 1abc
000000c0: 66e7 ae3d efb7 ddbd b1c3 183d 82c1 8f3d
000000d0: 9870 8ebd 330b d23d e7c8 273e ceab b83d
000000e0: 15f1 353d 6dac 0abe d4b4 bc3d 935d 123e
000000f0: 5b95 c73d 2932 023e 5fbb fcbd c5df 00be
00000100: 29a0 10be de15 ff3c 61e1 203e a31f c2bd
00000110: 9d27 c23d 2966 0f3e 86e8 8f3d 810e b33d
00000120: e96b 83bd f463 28be 4bda a43c b5b3 91bc
00000130: 9e87 e9bd 0e51 0cbd b2c9 003e 6800 b43d
00000140: 87ea 99bc 1a5f 04bd 8c16 e53d 4f0b 653d
00000150: 6f38 0e3e 253a ee3d aa95 b4bd f776 fabd
00000160: 1b3e 23be 239e cbbd 70d4 853d 012d 15bd
00000170: 4204 05be 8dd8 70bd 1fba 49bd 05c8 14be
00000180: 080c 19be a984 263e 9dca 423d bfc6 2c3d
00000190: 78ac 183d da0e 11be eb90 c7bd cb11 fb3c
000001a0: fa3c 153e 3cef 4dbc ff8b 99bd 8844 94bb
000001b0: 0452 9bbd de83 5cbc bbf7 1e3d ac22 303d
000001c0: 0d17 333e e322 25be 1b10 8e3d 20e9 f1bd
000001d0: 2990 a3bd b1ab 733e c3c0 053d 11ca 1e3d
000001e0: a247 dc3d 86f3 87bd 6059 db3d fe74 89bd
000001f0: 4a32 45bd 48d4 1e3e 9429 c2bb f86e 41bd
00000200: 1c36 1d3d 3c31 1dbd de5c 223d 6d8b 8fbe
00000210: 6c5c 0dbd 715a 1ebe 973e 59bd 0be8 b73d
00000220: ceea 0fbe 9878 2abd 1551 abbd c6b3 3ebc
00000230: ab57 dbbd 7533 093e e549 b4bd 24cc 7fbe
00000240: e58b 833d 1003 00bd d46c 05be 0bd9 b73c
00000250: d92c e93d f2ad 98bd 7742 b63d 39ea ffbd
00000260: b730 fd3d 8729 f23c 00e6 10bb 4d0a 35bd
00000270: 82e0 dd3d 069a 6cbc 2bbb 89bd e777 95bc
00000280: b3dc acbd 2ded 153e 7414 dc3d 06f1 cebd
00000290: 4c96 ecbd b2ee 3ebd c790 803d 699f a63d
000002a0: 3b93 0dbd efbc eabd 0a58 28bd 8eff 273d
000002b0: e1d2 fe3d a5cd b3bd aa1d d0bb f536 fc3d
000002c0: 3f17 ce3d 3ddb 04be b2d2 b63d cdc1 c33c
000002d0: 6f9b d13c fc8f 963d 7e10 ec3d e397 683d
000002e0: 327b c23d 7bc0 543c 9133 c3bd eeb8 52bd
000002f0: 9d48 f4bd d36f 833d e51b 55bc 6e73 71bc
00000300: 12f5 123e 05cf 103e 1989 5d3c e669 d0bd
00000310: 3afc e13d 90f0 f63d a97d c73d ae4c d2bd
00000320: a53f f8bd 6d7a 92bd bb6e a33d 0234 ff3d
00000330: 91c6 10be a743 8fbc 28b9 1bbe b677 fa3d
00000340: 15b6 b83d 1c7e 003e 11c9 303d 9afd b43d
00000350: db2b 18be e727 cd3d ba98 21be ccb1 e2bd
00000360: ddee 113e ca12 bbbd 7a30 f13d 64a0 5e3c
00000370: 75d9 91bd b664 313e 7ef6 0f3b 5c40 48bd
00000380: 804e 66bd e60a d13d f6cc 07bc aa31 1dbe
00000390: 99ae d1bd 35ad 69bd a7e8 c5bd 4493 efbd
000003a0: dbd9 00bc 434f 963d 1d41 df3d 5492 e3bd
000003b0: 5b2e bbbd 5f12 423d 9a88 cebd 9951 773d
000003c0: 4ad0 923d c7c3 85bd 9690 f9bd 2ec5 4b3d
000003d0: 2570 57be 6ec5 b9bc 707c 1e3e ac0c 02be
000003e0: 7365 803d 57ba 08be 38d4 95bd b1d2 8fbc
000003f0: 2e78 e43d 8a10 b33d 5412 f23d b5ad 90bd
-0.06986547 -0.0049425857 0.16614749 0.011386495 -0.14308478 -0.1568297 -0.036228143 -0.0476993
0.04718011 0.03791786 -0.13555539 0.18827872 0.0068384414 0.05376788 -0.1208476 -0.08040183
0.038075313 -0.027915215 -0.12206888 0.16133992 -0.108151406 0.13692674 -0.084952645 -0.047485497
-0.014988417 -0.14960296 -0.020684028 -0.1841303 0.08490658 0.006620522 -0.0052520237 -0.0029362522
-0.147957 -0.14966074 0.015081207 -0.09272287 -0.04471702 0.10045446 -0.027800575 0.124874815
0.10552011 0.06626889 0.07584606 -0.015850056 0.07943659 0.12012861 0.018964319 -0.00942217
0.085402295 -0.10826098 0.037296 0.070193306 -0.06955069 0.10256042 0.16385232 0.09017144
0.044419367 -0.13542338 0.09214178 0.14293508 0.09745284 0.12714447 -0.12340426 -0.12585361
-0.14123596 0.031138357 0.15710975 -0.094786905 0.09480212 0.14003815 0.07026772 0.08743001
-0.064170666 -0.16444379 0.020123621 -0.017785886 -0.1140282 -0.034256987 0.1257694 0.0878914
-0.01878859 -0.03231726 0.11185941 0.055918988 0.13888715 0.11632184 -0.08817609 -0.12229722
-0.1594166 -0.099422716 0.0653466 -0.036419872 -0.12989905 -0.05880027 -0.049249765 -0.14529426
-0.14945996 0.16261543 0.04755651 0.042181727 0.037273854 -0.14165822 -0.09744438 0.030648133
0.14574042 -0.012569245 -0.07497405 -0.004524771 -0.075840026 -0.013459174 0.038810473 0.043001816
0.17489262 -0.1612659 0.069366656 -0.11812043 -0.07986481 0.23795964 0.032654535 0.038766924
0.107558504 -0.06638245 0.10710406 -0.067117676 -0.048143663 0.15510666 -0.0059253667 -0.04722497
0.03838168 -0.03837703 0.039639346 -0.2803606 -0.03451197 -0.15464188 -0.053038206 0.089798056
-0.14054415 -0.041618913 -0.083650745 -0.011639541 -0.10710081 0.13398536 -0.08803157 -0.24980217
0.06423167 -0.03125292 -0.13029796 0.022442361 0.11385507 -0.074550524 0.08899396 -0.12495846
0.12362807 0.029560817 -0.0022109747 -0.044199277 0.10833837 -0.014441019 -0.067251526 -0.01824565
-0.084405325 0.14641257 0.107460886 -0.10104565 -0.11552104 -0.046614356 0.06277614 0.08135874
-0.034564238 -0.114618175 -0.041099586 0.0410152 0.12442566 -0.08779458 -0.0063511925 0.1231517
0.100630276 -0.12974258 0.08926906 0.023896122 0.025586812 0.073516816 0.11526583 0.056785475
0.09496154 0.012985344 -0.0953132 -0.051445894 -0.119279124 0.06417813 -0.013007139 -0.014736993
0.143513 0.14141472 0.013521456 -0.101764485 0.110344365 0.120576024 0.09740765 -0.10268532
-0.12121514 -0.07152257 0.079801045 0.124610916 -0.14138247 -0.017488314 -0.1520735 0.12229864
0.090191044 0.12548107 0.043160502 0.08837433 -0.1486048 0.100173764 -0.15780917 -0.11069068
0.14251275 -0.09134443 0.11776824 0.013588045 -0.07121555 0.17323574 0.002196699 -0.048889503
-0.056227207 0.10207157 -0.008288613 -0.15350977 -0.1023838 -0.05704995 -0.096635155 -0.116980106
-0.007864441 0.07339337 0.10901091 -0.11111894 -0.09139701 0.0473808 -0.100846484 0.060380552
0.07168634 -0.06531482 -0.12185781 0.049748592 -0.21038873 -0.02267715 0.15477157 -0.12700146
0.0626935 -0.13352333 -0.07315868 -0.01755652 0.11155735 0.08743389 0.11819902 -0.07064382

fc1.bias f4 [128]
00000000: 3ffa 923d 2da9 19be ef76 0abe fa8e 363e
00000010: 4b3a a7bd d2e4 1c3e 1c81 ee3d 2fda 0a3f
00000020: b90e 023e 8362 35bd a1a6 9dbd 393e 943e
00000030: e1be f4bd c659 e2bc a934 0a3e 5836 193e
00000040: 1803 a4bd 4138 ae3e 7d65 27bd f28d e13c
00000050: 8c2b 163e 91cb 1b3e 20ee a63d ef61 153e
00000060: 2f51 af3d a926 69bd 9643 843e 3364 193e
00000070: 4c7f 6c3d e593 0d3e 2ce4 b33d cd3a cabd
00000080: 2378 7b3d af5c 503e 6b25 bdbd d731 8c3d
00000090: 3fd7 b43d cd76 ef3d 243e a33d 2579 803d
000000a0: caca 103d ed3e 203d 8a1b 0ebe 4a1c 36bd
000000b0: 4e9f 013e 9184 c83c bb7f c4bc d3ef 743e
000000c0: 77d7 603d fbe5 4c3e 837f cabd 54f9 d3bd
000000d0: 0412 313e 3af4 e83d 9e93 a73d ccb0 24be
000000e0: 9412 94bd 6821 d53d 3a5a d63d 66e3 41bd
000000f0: f449 e13d 11d2 5f3e e7d1 3f3e 6de5 b23d
00000100: a7b3 563e d162 41be b561 a93d d2e2 c5bd
00000110: 56b8 b8bd 6707 67bd bac3 ccbd d52d 0d3e
00000120: 8752 0f3e ad04 1f3e bdcb e2bd e979 a33c
00000130: b5b4 fcbd 69d5 583d 84eb 18bd da75 803d
00000140: 8cc6 f6bd 8ad7 a9bd b413 bf3d 2f96 4e3d
00000150: 15b8 033d 1b6f ac3d d2b2 b8bd 9684 1c3e
00000160: 9647 173e ae4c 01be b322 233e 43ac debd
00000170: 9ac9 353e a72f b33d 3524 433e 66a4 42bd
00000180: 4044 8e3e 5dd6 233d 5921 ef3c 52f6 0e3d
00000190: 31f4 06be 01e4 0cbe 0935 2cbd 438f 173e
000001a0: 007c ee3d 3f63 aebd 9476 d33d 302f 283d
000001b0: 3074 4c3e 67f0 8d3d 0bd3 bf3d 0dcb 01be
000001c0: 5bee 573e d329 1fbd 72a2 033e 7cb0 d33d
000001d0: 3ede 023e e7ff a5bd d97a 58be 0164 7b3e
000001e0: 9989 88bd c025 b73d 3c1a d03d f13b cebd
000001f0: b72c 2fbe d566 e03d 3490 00be a20a 00be
0.07176637 -0.15005942 -0.13521932 0.17827979 -0.081654154 0.15321663 0.116457194 0.5423917
0.12700929 -0.0442834 -0.076977976 0.28953722 -0.1195047 -0.027630698 0.13496651 0.14962137
-0.080084026 0.34027293 -0.04086827 0.027533505 0.1466505 0.15214373 0.081508875 0.1458814
0.085604064 -0.056921635 0.25832814 0.14979629 0.057738587 0.13825949 0.08783755 -0.098744966
0.06139387 0.20347856 -0.092356525 0.06845444 0.088301174 0.11692581 0.07970837 0.062731065
0.035349645 0.03912251 -0.13877693 -0.044460572 0.12658426 0.024477275 -0.023986688 0.2391961
0.054892983 0.20009606 -0.09887602 -0.1035029 0.17292029 0.113747075 0.081824526 -0.16083068
-0.07230106 0.10406762 0.10466428 -0.047336005 0.110004336 0.21857478 0.18732415 0.08735166
0.2096697 -0.18885352 0.08270589 -0.09662403 -0.09019534 -0.056403544 -0.099982694 0.13787015
0.13996325 0.15529127 -0.11074016 0.019955592 -0.12339155 0.0529379 -0.03733398 0.062724784
-0.120495886 -0.08293064 0.0932993 0.050436195 0.032157976 0.08419629 -0.09018482 0.15284953
0.14773402 -0.12626907 0.15931205 -0.108727 0.17752686 0.08749323 0.1905678 -0.047520064
0.27786446 0.039999355 0.029190706 0.034902878 -0.13179089 -0.13758852 -0.042042766 0.14800744
0.11644745 -0.085150234 0.10325351 0.041060627 0.19966197 0.06930619 0.09366425 -0.12675114
0.21087019 -0.038858246 0.12854937 0.10336396 0.12780091 -0.0810545 -0.21140613 0.24549867
-0.0666687 0.08942747 0.10161254 -0.10070027 -0.17106901 0.10957114 -0.12555009 -0.12504056

fc2.weight f4 [64, 128]
00000000: 051d 9bbd ee76 1d3b 65cc 04bd 4c96 01be
00000010: 6196 e5bd 0cf8 a73d f90a 503d cb8a a23d
00000020: c3c7 d6bb b86a eabd 77e9 703d f591 803d
00000030: 8b94 dcbd 516e 22bd 7061 853c 2c60 b6bd
00000040: 1727 2a3d ff0d 083d e415 cf3b 62e5 51bd
00000050: d471 8c3c c5e9 d9bd a2e2 9ebd 3d6d ef3a
00000060: f571 abbd 48df 98bd 1f1f 8dbc 68c2 31bd
00000070: 0a7d 053d e364 423d 9cf9 04bb 6a35 81bc
00000080: f155 a03d d7d7 cfbd 18a5 283c 3666 bbbc
00000090: 8cdc b5bd a79e b0bc 51ac a1bc 071c 21bd
000000a0: 44b9 01bd 8d29 053c 4a8a a9bd 4a6d 8ebd
000000b0: 6a9d eabc f3d7 c4bd c507 5b3d cc61 0138
000000c0: 0468 87bc c605 293d 4af2 233d 8774 a4bd
000000d0: 7fbc c83d dd97 60bd 9a43 8cbd 8ac3 64bd
000000e0: 8434 9dbd 3287 7dbd a7db 6cbd 4b87 cdbd
000000f0: 61f3 c1bd 0987 ac3d 8764 f0bd 64ab 55bd
00000100: a359 0cbe 24e0 11bd 1992 683d 7ee4 ebbc
00000110: 54d4 aabd 885c 46bb ec05 e1bd 1c3f f9bd
00000120: d31c d5bd e3bd b3bd ae22 1cbb bd97 d9bc
00000130: a195 94bc 75bc 983c ff1e fabc 9340 c63c
00000140: fa28 0bbe be77 f1bd 92a8 c0bc 6936 01bd
00000150: 9295 c4bc c5ea 4f3c 2234 50bd 64bb 5bba
00000160: c424 dbbd a7e5 583d 54e2 19be 7593 24bd
00000170: dbb6 cdbd a1e6 43bd e9a0 20bd cfec e7bc
00000180: c86d db3d 111f 24bd 9899 15bd 1526 c3bd
00000190: 51a5 e3bd cd11 8bbd fe7e 823d d6fa 00be
000001a0: 0f70 e03b 5df8 05be ef2a f7bc f56a c8bd
000001b0: 62cc 933d 2bf3 a1bb ff78 9cbd c565 abbd
000001c0: 9109 caba 49a7 88bc 2010 24bc 0985 d9bc
000001d0: b150 f5bd 74d1 48bd 3423 9fbc f806 95bb
000001e0: 1a4f 4dbc 5349 013d 7bed 5abd 2e03 dfbd
000001f0: 4f4f 19be 737f a33c 5fb2 fabd bf87 a9bd
00000200: 8855 33bd db47 ff3c 88aa 47bc 3c7b eb3d
00000210: 1a3b dc3b 3d66 e23b be55 7fbc 1ccf e4bd
00000220: 1f79 f63d 7a40 e53d a892 d83c 2ba8 d7bc
00000230: d26f 46bc 91ab 3f3c fc5c 083d 371c e83d
00000240: 9d87 de3c db41 f5ba 1bb4 503d 3421 e13d
00000250: 874a 063e 42d8 603d 6729 7bbc f44a f43c
00000260: 6bca a43d d0a6 833b 7157 3a3e 6de1 bc3d
00000270: 69af 643d 8be3 f1bb f14a 223d c224 85bc
00000280: fafd 023d 8eb6 693d 6ab4 c23c cd9a aa3d
00000290: 88c5 db3d 5210 eb3c fe49 073e 4916 5d3d
000002a0: 826b 973d 14bd 18bc 9129 0e3e 0658 463b
000002b0: 52bb b13d 1560 a63d 0fbc 30bd 3bdd 623c
000002c0: 8eb3 153d 8b77 863d 6187 be3d 281b d6bb
000002d0: 382a 133d 4931 18bd af5f 0dbd 94a1 ddbc
000002e0: 4023 ca3b 8e96 803d 0fb4 963d db3c 913d
000002f0: 4ff6 b13d 0200 b53c c483 a93d 16e5 aa3d
00000300: 0323 c83d 39bc 093e cb6b acbc b8bb 33bd
00000310: feb6 1b3d e095 57bc cf67 993d e97c 063e
00000320: 0be5 1e3e 2a31 9b3d 6f1b 79bc 41d9 7c3d
00000330: 0905 f43c 838b 3bbd ec74 d53d 92d2 db3d
00000340: 7cd6 ec3d 3fe3 413d 39f6 c43c 0f61 68bc
00000350: b463 cf3b 1334 3d3d 157e 7a3d 099a da3d
00000360: 7a51 533b 1f3d 6a3d 7041 033d d772 3f3d
00000370: 87fd 28bc d0a1 a93d ad42 b8bd 7d54 9c3d
00000380: 5cdb 25bd 47e4 d5bc ed09 b53d e2ca e43a
00000390: bf2b 8a3d ef34 08bc e938 eebc df4e a83d
000003a0: 548a a8bc 27ce 8d3d a3b7 ec3d 9534 a13d
000003b0: bd1c 85bd 6f53 053e 9ce6 4f3d 8bd9 5c3d
000003c0: 1f25 323e 2f68 e83d 0051 dc3d 5d55 a73b
000003d0: 6ff0 0d3d a1b2 483c db4c 7e3c cc23 f63d
000003e0: d660 d03d 687c c63c 1cd7 003e 68a4 3ebb
000003f0: 1c30 a53d 7086 45bd b2a3 9d3c 1c73 4c3d
-0.075738944 0.0024027186 -0.03242149 -0.1265499 -0.11210323 0.08201608 0.050791714 0.07936629
-0.006554575 -0.11446136 0.0588164 0.06277839 -0.1077052 -0.039655987 0.016281813 -0.08905062
0.041541185 0.033216473 0.0063197482 -0.051244147 0.017144121 -0.10640291 -0.077580705 0.0018266808
-0.08371345 -0.074644625 -0.017226754 -0.04339829 0.03258995 0.047459494 -0.002029038 -0.01577254
0.07828892 -0.1014859 0.010293268 -0.022875886 -0.088799566 -0.021560026 -0.019735487 -0.03933337
-0.031670824 0.008127582 -0.0827833 -0.06954439 -0.028639514 -0.096115015 0.053474206 3.0847077e-05
-0.01652909 0.04126527 0.040025987 -0.08030038 0.09801578 -0.054832328 -0.068488315 -0.055850543
-0.07676032 -0.06189651 -0.057826664 -0.10035571 -0.09470249 0.084241934 -0.11737924 -0.052165404
-0.13706069 -0.035614148 0.056779955 -0.028795477 -0.083412796 -0.0030267555 -0.10987458 -0.1217024
-0.104058884 -0.087764524 -0.0023824382 -0.026561612 -0.018137755 0.01864455 -0.030532358 0.024200713
-0.1358985 -0.11790417 -0.02351788 -0.03154603 -0.023997102 0.012690251 -0.050830968 -0.00083821104
-0.10700372 0.05295339 -0.15027744 -0.04017969 -0.100446425 -0.047827367 -0.039215956 -0.028311161
0.107142985 -0.04006869 -0.03652343 -0.09528748 -0.11115516 -0.067905046 0.06371878 -0.12595686
0.006849296 -0.13083024 -0.03017184 -0.097860254 0.07216717 -0.004942318 -0.07640266 -0.083690204
-0.0015414228 -0.01668133 -0.01001361 -0.026552694 -0.11978281 -0.049027875 -0.019425966 -0.00454795
-0.012531066 0.031564068 -0.053449135 -0.10889278 -0.1497166 0.019958233 -0.12241053 -0.08277845
-0.04378274 0.031162193 -0.012186654 0.114981145 0.0067209126 0.0069091604 -0.015584407 -0.111723155
0.12034821 0.111939386 0.026437119 -0.026325306 -0.012111621 0.011698619 0.0332918 0.113335066
0.027164275 -0.0018711643 0.050953012 0.10992661 0.13114367 0.05489374 -0.015329695 0.029820897
0.08046421 0.0040176883 0.18197419 0.09222684 0.055831347 -0.0073818616 0.03962225 -0.016252879
0.031980492 0.057058863 0.023767669 0.08330307 0.107310355 0.028694306 0.1321182 0.05397633
0.07393552 -0.0093224235 0.13883044 0.0030264868 0.08678307 0.08123795 -0.043148097 0.013846691
0.03654819 0.0656577 0.09303165 -0.006533999 0.035928935 -0.037156377 -0.03451508 -0.027054586
0.006168753 0.06278716 0.07358562 0.070916854 0.08689558 0.02209473 0.082770854 0.08344476
0.09772303 0.13450707 -0.021047493 -0.043880194 0.03801631 -0.013158292 0.07490503 0.13133587
0.1551706 0.07577737 -0.015204295 0.061730627 0.029787557 -0.045787346 0.10422692 0.107335225
0.11564347 0.04733586 0.02404319 -0.014183297 0.006329024 0.04619224 0.061155397 0.10673911
0.0032244609 0.057187196 0.032044828 0.04674038 -0.010314352 0.082828164 -0.089970924 0.07633302
-0.0404924 -0.026109828 0.08839784 0.0017455483 0.06746625 -0.008313402 -0.029079871 0.082181685
-0.020573772 0.06924086 0.115584634 0.07871357 -0.06499622 0.13020109 0.050757036 0.053918403
0.17396973 0.113479964 0.10757637 0.0051066116 0.034653123 0.01224962 0.015521253 0.120185465
0.1017472 0.024229243 0.12582058 -0.0029089693 0.08065817 -0.048223913 0.019243095 0.049914464

fc2.bias f4 [64]
00000000: 7ded 4a3e caf6 a7bd 9450 a53e d0d1 80bd
00000010: 023b 683e d1fd 67bd 7c73 3d3d 1dee 583d
00000020: 0f8d 6abd 6fa8 17bd d84c 843e 9d96 63bc
00000030: b985 0d3c a1b5 2bbd 6121 3a3e dc54 4abd
00000040: 7253 8abd 2790 93bc df33 843e f02b 1dbd
00000050: 3925 aabd 3d71 7ebb 234a 893e b4bc 803c
00000060: 6f71 923e e39b c8bd fe09 0f3d 9a79 0b3d
00000070: b531 b23d 9211 923e 5870 46bd 0965 363d
00000080: d3aa d93c bfc1 a63d 5aba 55bd 0629 84bd
00000090: 20a6 fe3d a219 38bd bb42 363e 48d0 6dbb
000000a0: 4f8e 5e3d 451c c8bd eb67 8fbc c5fc 7fbd
000000b0: 140e ca3d cb89 a13d b729 f2bc 9c54 c33d
000000c0: e85f f8bc b040 3fbd 75ef 7dbd 492c 233e
000000d0: ae92 b8bd 974c 4f3d f0c2 573c fcec 0cbc
000000e0: e701 8cbd 81e9 19bc 01aa 7cbd e7e8 923b
000000f0: ad1f a2bd beff d83c 2ded 983e 4ac9 a33e
0.19817157 -0.08201368 0.3228804 -0.062900186 0.2267876 -0.056638543 0.046252713 0.052961458
-0.05726343 -0.037025865 0.25839877 -0.0138908895 0.008637839 -0.04192126 0.18176796 -0.049397334
-0.06754197 -0.018013073 0.25820825 -0.03837198 -0.08307881 -0.003882482 0.26814374 0.01571498
0.28602168 -0.09795358 0.03492164 0.034051515 0.08700887 0.2852903 -0.048446983 0.04452995
0.026570713 0.08142423 -0.05217967 -0.06453137 0.124340296 -0.04494632 0.17798893 -0.0036287475
0.054334935 -0.09771017 -0.017505607 -0.06249692 0.098659664 0.0788761 -0.029560907 0.09537622
-0.03031917 -0.04669255 -0.061995942 0.15934862 -0.09012352 0.05061015 0.013169035 -0.008601423
-0.068363 -0.009394051 -0.061685566 0.0044833305 -0.07916198 0.026489135 0.2986845 0.3198951

fc3.weight f4 [6, 64]
00000000: 0c7d 88be 1a0a 043f c434 9c3e e599 943d
00000010: d3c5 69be 7ad9 f53e b1c9 fd3e 436a 093d
00000020: c94e a23e 6835 f33e e803 5f3e 3c12 f53e
00000030: dd01 933e ff43 213e 4766 963e 47c4 0d3f
00000040: a4a8 153f de43 88bd b74b 733e 8f32 113f
00000050: 152f 013f 4472 ec3e a18a aebe 7d8f 9e3e
00000060: 5359 a6bd 6826 033f d27b f23c 6bcd f53d
00000070: 561d c83e b241 bebc dfe7 9ebd e798 8d3e
00000080: 0393 003f 7053 cb3e 6eda 003e a11a 163f
00000090: 1ea8 523e 86ea 76bd 91dc 1dbe 6d46 dc3e
000000a0: d4be b73d b264 163f 38fc b43e 0472 743e
000000b0: 1222 fabd 3316 be3e 6046 c23e b7d0 ef3e
000000c0: ed0d f83e f394 003f d4d4 143f 9a5e 593e
000000d0: 8cee 3cbd e63c 8f3a 1f6a e53e e3e4 e93e
000000e0: 92ea 013e ae18 0b3f 8d57 173f eaff ecb9
000000f0: fb5e 0e3e 98b8 f83d 4c26 a03e f71f 503e
00000100: 3826 fa3e 4847 8abe eb6d c23e 84d9 a03c
00000110: d1c1 fb3e 97ad e0bc adc4 a43c 423a ce3c
00000120: 9200 81be 5e44 173d fbdc 893e ed2e 22be
00000130: a6a6 53be 918b 33be 09ad a13e 9c9e 85bd
00000140: 0e9e 82be cfdc 2d3d c072 a23e ecda 65be
00000150: ea82 dbbd 889d 36be d7aa 0b3f b1d1 77bd
00000160: c017 e73e a152 6fbe 5558 a3bd 3a3a 533d
00000170: 8d59 4e3e 6bc9 c43e b9de d1bb da63 3bbe
00000180: bce5 d2bd 18f3 393e 4b7d 43bd 466b 42be
00000190: 289d 293e 8c4e 5abd df01 b03e 0bab 7ebe
000001a0: 867c 573e c044 afbd 7092 c9bd 1a3c 88be
000001b0: 1a86 1d3e 0581 b9bd d100 9cbd 61fd 1b3d
000001c0: e524 f9bd dc20 5bbe bf5d 18bd 0cb6 8d3e
000001d0: c1da 023d 50b4 d6bc 976f 8cbd c2b1 a2bd
000001e0: f9a1 913c d283 46be a1b3 cbbc b397 2bbe
000001f0: c335 10be d1e5 e6bd ca84 b73e bf4a bb3e
00000200: 804a d33c 3059 99bd 8522 c9bd c388 2e3c
00000210: dc32 b6bd f35d 38be ab97 bfbd c236 a2bd
00000220: 1409 15be 32fe dfbd f241 69be 157f 2abe
00000230: 1db1 17be 98ca 98bc 34f7 f5bd 5c56 28bd
00000240: 0121 56be 95e8 d1bd a467 adbd a8f5 58bd
00000250: 88be 2fbd 3cf1 ddbc 8479 b2bd 3e2c 74bd
00000260: e5d9 63be 59d7 c1bd fb74 48bd 9be3 2e3d
00000270: c4be 61be cfc9 e5bd a8b0 97bc 9aa7 5dbb
00000280: 257b 30be 818e 4dbe 047a 0dbe 6b3f 13be
00000290: 812a 35be 405e 49bd ee05 96bb c204 17be
000002a0: 69ca 5b3c 9133 a4bd 7418 2abe f312 a8bd
000002b0: c88e bebc 811a 22be 472f d73b b18d 04be
000002c0: 02b8 47be 59c7 053c 93c4 44be da99 b2bd
000002d0: c91d 913d 17fe 98bd 7949 23bd 6b65 4abe
000002e0: 59a4 34bc d549 5fbc f113 32be 87ee 77bd
000002f0: bffd 06be 7253 fe3b 45d0 1cbe 7abf ecbd
00000300: bf9e a93a 7540 f0bb f676 33be 3425 16bd
00000310: e8ac 84bd 5274 d53c 1a2e 34be c998 06be
00000320: 7751 f8bd e906 303d 2706 3ebd c77a 2bbe
00000330: f8a7 89bd fa78 313d d642 71bd 9770 b7bd
00000340: d41c 35be 51ad 973d 9a8e 3abe bfd2 06bc
00000350: cf53 03be f0e7 5dbd 06a5 81bd 37f3 0b3d
00000360: 3441 93bd 7aa8 cbbd 8f25 d83d a9f5 543d
00000370: 327c 2fbe 272c 68bd d792 703d 4c29 123d
00000380: b1cb 1fbe 7a0d 06be a6dc 23bc 0770 06be
00000390: 439d fdbd be3c f8bd 5e4f a53d ce31 2ebe
000003a0: 56fd a23d a9b0 35bd dd27 b0bd 0ede f8bd
000003b0: 275b eabc 3a4f 00bb cc12 e73c b3f9 4fbd
000003c0: a57d 0ebd 6f77 953b d7da 5bbd 0985 243c
000003d0: a6be f4bb 7ba7 01be b59b 9cb9 12b7 99bd
000003e0: 2926 7a3d 4117 a83c a1ca c73a d663 073d
000003f0: 8214 723d 6a59 ad3d 237f 35be f3e1 2ebe
-0.26657903 0.51577914 0.30509007 0.072559156 -0.2282937 0.48017484 0.4956794 0.033548605
0.31700733 0.47501683 0.21778834 0.47865474 0.2871236 0.15748595 0.29374906 0.5537762
0.5846045 -0.0665357 0.23759352 0.5671777 0.50462466 0.46180928 -0.3409014 0.30968848
-0.08122506 0.5123048 0.029600058 0.12002071 0.39084882 -0.023224685 -0.0775907 0.27655718
0.5022432 0.39712095 0.12583324 0.5863438 0.20571944 -0.060282253 -0.1541617 0.4302248
0.089719445 0.587474 0.35348678 0.23871619 -0.1221353 0.37126312 0.37944317 0.46838924
0.48448125 0.5022728 0.5813725 0.21227494 -0.046125934 0.0010928183 0.44807526 0.4568244
0.12687138 0.54334533 0.59117967 -0.000452041 0.1390342 0.121445835 0.31279218 0.20324694
0.48857284 -0.27007508 0.37974486 0.01963497 0.49171308 -0.027426524 0.020113314 0.025174264
-0.25195748 0.036930434 0.26926407 -0.15838213 -0.2066904 -0.17533709 0.31577328 -0.06524393
-0.2551121 0.042446908 0.31728172 -0.22446793 -0.10718329 -0.17833531 0.54557556 -0.06050271
0.45135307 -0.23371364 -0.079758324 0.0515692 0.20151348 0.3843492 -0.0064047244 -0.18299809
-0.102977246 0.18159139 -0.04772691 -0.18986234 0.16563857 -0.053297564 0.34376428 -0.24869935
0.21043596 -0.08558035 -0.09842384 -0.26608354 0.15383187 -0.09057812 -0.07617343 0.038083438
-0.1216524 -0.21399254 -0.03719878 0.27677953 0.0319469 -0.026209027 -0.068572216 -0.07944061
0.01777743 -0.19386223 -0.024865927 -0.16757087 -0.14083008 -0.11274303 0.35843498 0.36580464
0.02579236 -0.07487714 -0.09821037 0.010652724 -0.088964194 -0.18004589 -0.093551 -0.079206005
-0.14554244 -0.10937156 -0.22779062 -0.1665004 -0.14813657 -0.018651292 -0.12010041 -0.041097984
-0.20911027 -0.102494396 -0.084670335 -0.05296865 -0.042906314 -0.027092569 -0.087145835 -0.059612505
-0.22251089 -0.094649024 -0.048939686 0.04269753 -0.22045428 -0.112201326 -0.018516853 -0.0033821822
-0.17234476 -0.20073892 -0.13816077 -0.14379661 -0.17691995 -0.04916215 -0.0045783436 -0.14747909
0.013414958 -0.08017648 -0.1661089 -0.08206739 -0.023261443 -0.15830423 0.006566915 -0.12944676
-0.19503787 0.008165204 -0.19215612 -0.08720751 0.07085759 -0.07470339 -0.03986499 -0.1976525
-0.011025512 -0.013628443 -0.1739042 -0.06053021 -0.13182734 0.0077614123 -0.15313824 -0.11559959
0.0012940987 -0.0073319026 -0.17525849 -0.036656573 -0.06478292 0.026056442 -0.17595711 -0.1314422
-0.12124913 0.04297534 -0.046392586 -0.16746055 -0.067214906 0.043328263 -0.05890163 -0.08957022
-0.17686778 0.07406104 -0.1821846 -0.008228957 -0.12824939 -0.05417627 -0.06330304 0.034167495
-0.07190171 -0.09944244 0.10554039 0.051992092 -0.1713722 -0.056682732 0.058733787 0.035683915
-0.15605046 -0.13091078 -0.010001337 -0.13128673 -0.12383511 -0.12120961 0.08071779 -0.17011186
0.07958476 -0.04435793 -0.08601353 -0.121517286 -0.028607918 -0.0019578473 0.028207205 -0.05077524
-0.034787793 0.0045613567 -0.0536755 0.010041484 -0.007469016 -0.12661545 -0.0002987065 -0.07505621
0.06107155 0.0205189 0.0015242883 0.033054195 0.05910159 0.0846432 -0.1772428 -0.1707838

fc3.bias f4 [6]
00000000: 6d3c 873d 5079 d73f 11a6 28bf e72c aabe
00000010: 76c5 4fbe 3076 23bf
0.06603322 1.6833897 -0.658784 -0.33237383 -0.20290169 -0.63852215

fc4.weight f4 [128, 1280]
00000000: 09e8 1bba 0e2e 433c 0c52 403a 101a 29bc
00000010: 005a 3a3c 8a2e 483c 64c7 513b 1335 f4ba
00000020: 13f8 ad3b f55d 0a3b 40b1 b4bb 830d e63b
00000030: 939c 5f3c 17ef 133b 51fa 7e3c 5e79 9ebb
00000040: 3f38 45bc 29d9 fdbc 8af6 e3bb ca15 cbbc
00000050: dc0c b03c b6b1 253c 7899 f93c 8753 83bb
00000060: 5434 09bb e94d 8d3c 4754 833a 65cb 9cbb
00000070: 5bb5 85bc b115 9fbb 8df2 3d3c b650 fe3c
00000080: 2930 823c 1fe1 66bc 0960 5abc ff64 1dbc
00000090: 9710 9d3c 0a21 80bc 616d ad3b ddf0 f8b9
000000a0: 6973 be3b 7db2 b83c c893 dfbc 51cb c13c
000000b0: 17eb 793c ada2 41ba 6cb5 343c 3fac 483b
000000c0: 181a 04bd 0465 0cbd e409 3dbc b594 833b
000000d0: bcb6 c3bc e797 07ba 0320 0d3d f224 24bc
000000e0: e63a 7cbc 5460 e5bc 1c8c 423b a1c5 bfbc
000000f0: 6cb2 10bc f4f3 e33c ff02 4abc b442 8e3c
00000100: dcfb 813b 532d 673c 6fb7 ba3c 843c 693c
00000110: 67c6 533b d6aa 543c 3c1f 793c b471 d83c
00000120: 11aa 303d 9f65 9bbc e09b 023d d1ec c53b
00000130: fd85 f1bb c9c0 083d d933 39ba 4d54 b43c
00000140: ee03 0b3d f026 67b8 f0f9 313c abba 123b
00000150: 6773 34bc 45d9 83bc 24b2 b43b 2e93 07bd
00000160: e9d2 d03c 0e76 51bc 48ca bf3c 34ac c53b
00000170: 897a efbc d8b8 e53c 0b28 193c faed 00bc
00000180: ee86 c13c 7686 6dbc cfa6 9dbc 939b 683c
00000190: e6c1 b2bc ce10 8b3b 4a43 dcbc 3f3b a43b
000001a0: 7439 23bc bdb0 8e3a b3e2 9b3b 9e1b 0d3d
000001b0: a055 363a da86 f8ba af68 c63c c456 713c
000001c0: 1efd f33c c433 4a3c 50da fbba fbb2 8abb
000001d0: ec5a 783c e769 6d3b c34d 903c 0c34 8cbc
000001e0: 5bdb b1bc 315e ffbc 0b87 1cbc cfb1 75bb
000001f0: 0d16 593c 7da7 0b3c 23bb 483c 5cf4 31b9
00000200: ea9a 8cbc 452f 593a 4de0 823c 0124 6c3c
00000210: a186 95bb a06d da3c 696b b4bb 79ce fcbc
00000220: f1b0 70bc d7dc debc 2e33 a7bb ac81 aabc
00000230: 5fdf 1bbb a6f8 143c abf3 9d3c 1f23 cb3b
00000240: f719 263c 71ff c53c dcae 953c 2764 273c
00000250: 7cf9 c4bc e9e8 b7bc 5f4d fd3b 4035 9e3c
00000260: 4e16 95bc 777b db3c ddaf 0fbd d619 f6bb
00000270: a0b7 a4bc 1df6 34bc 8386 ad3b 63e5 d0bc
00000280: ec31 d73b f52f 1c3c 9c0b d83c ed01 da3c
00000290: 116b ffbc 70db fe3a 15ad 9abc 9869 6ebb
000002a0: ff81 86ba 0ea3 d53c 8a53 f83c ee37 133c
000002b0: c8aa 7d3c adef 6e3c b879 3fbc 7951 3a3d
000002c0: 7223 83bc da3b 72bc 3f2f 81bc 3f8d d73c
000002d0: 136e 92bc 4d2c f2bc 3580 91ba 872b 4d3c
000002e0: 93c3 ee3c 91ee 7ebc 4315 ac3c d37a 1c3d
000002f0: db88 e6bb e992 4bbd 6674 d53a f384 4d3c
00000300: 5d8d a83c bbb5 1ebc 31fb 9b3c ab92 94bc
00000310: c34c 2d3c aee7 e2bb 3c5e 4fbc 3165 a6bc
00000320: 777a bfbc 5e22 bbbc e908 2e3d 7279 2dbc
00000330: 628e 1d3c d01d 183b 2423 55bc aca6 ff3c
00000340: 8e89 5ebc 764f 813a 8726 dd3b 44fa 893c
00000350: c90d 8a3c 2701 a0bc 54e0 a03b fee4 b2bc
00000360: fc85 bdbc 4122 c6bc f6a5 68bb 6424 1bbd
00000370: 2f40 b5ba 4688 bd3c f713 83bc eefe c03c
00000380: 70e0 023d a03c a3ba 1f06 f73c f0c6 f7bb
00000390: 2fff 29bc 3e9d 1cba 9248 a3bc 567d 6a3c
000003a0: 5189 b43c 92e4 89bc 178f e83b 91e6 ca3c
000003b0: f1d4 b5bc 8c35 2ebc 62ee 963c cfa4 16bc
000003c0: 0e80 393c 3bda fabc a824 20bc 935a 1e3a
000003d0: 46c4 093d 42bc 993c 4536 6fba 4aec b93c
000003e0: 530a 403c 4aa1 08bd 22cf 723c 3f4c 3dba
000003f0: c1c4 13bc 64a8 743c 7cdb 833c c643 ec3b
-0.00059473567 0.011912836 0.00073364447 -0.010321155 0.011373997 0.012218127 0.0032009715 -0.001863154
0.0053091138 0.0021113132 -0.005514294 0.0070206537 0.01364817 0.0022572929 0.01556261 -0.0048362454
-0.012037336 -0.03098734 -0.00695688 -0.024790663 0.021490507 0.01011317 0.030468687 -0.00400776
-0.002093573 0.017249065 0.0010019623 -0.0047849887 -0.016321829 -0.0048548807 0.011593473 0.031044345
0.015892105 -0.014091759 -0.013328561 -0.009606599 0.01917295 -0.015640754 0.00529258 -0.00047481703
0.005812098 0.022546047 -0.027292147 0.02365652 0.015253804 -0.00073866063 0.0110295825 0.0030620245
-0.032251447 -0.034276024 -0.011538003 0.00401553 -0.023890845 -0.00051724765 0.034454357 -0.010018574
-0.015394902 -0.028000034 0.0029685562 -0.023409666 -0.008831602 0.027826287 -0.012329816 0.01736579
0.0039667916 0.014109927 0.022792546 0.014235619 0.0032314302 0.012980184 0.015205201 0.026421405
0.043130938 -0.018969355 0.031886935 0.0060401936 -0.007370709 0.03338698 -0.0007064916 0.022012854
0.033939295 -5.5110955e-05 0.010862812 0.0022389095 -0.011013842 -0.016094813 0.0055144 -0.033099346
0.025491195 -0.012784494 0.023411885 0.006032491 -0.029233234 0.028042242 0.009347926 -0.007869238
0.02362391 -0.01449739 -0.01924458 0.014197248 -0.021820974 0.0042439466 -0.026887555 0.0050119455
-0.009962428 0.0010886412 0.0047572493 0.034450166 0.0006955508 -0.0018961087 0.024219839 0.014730159
0.029783782 0.012341443 -0.0019214842 -0.004232762 0.015158396 0.0036226453 0.017615205 -0.017114662
-0.021711042 -0.031172844 -0.009553681 -0.0037490015 0.013249886 0.008523819 0.012251648 -0.00016971066
-0.017163713 0.0008284937 0.015976096 0.014412881 -0.004563168 0.026663601 -0.0055059684 -0.030860173
-0.014690624 -0.027204914 -0.0051025366 -0.020813785 -0.0023784263 0.0090924855 0.019281229 0.006199255
0.010138026 0.024169656 0.018271856 0.010216749 -0.024044745 -0.022449927 0.0077301706 0.019312501
-0.018199112 0.026792271 -0.035079826 -0.007510404 -0.02010709 -0.011045006 0.005295576 -0.025500005
0.0065672304 0.009532918 0.026372723 0.026612246 -0.031178983 0.001944406 -0.01888136 -0.0036378857
-0.001026213 0.026078727 0.030313272 0.008985503 0.015482612 0.01458351 -0.011686735 0.045487855
-0.016008113 -0.014784778 -0.015769599 0.026312469 -0.017874753 -0.02956214 -0.0011100831 0.012522585
0.029145991 -0.015559808 0.021006232 0.03820307 -0.0070353574 -0.04970065 0.00162853 0.012543905
0.02057522 -0.009686883 0.019040676 -0.018136343 0.010577383 -0.006924591 -0.012656745 -0.020311924
-0.023373825 -0.022843536 0.042488966 -0.010588037 0.009616466 0.002321113 -0.013008866 0.031207405
-0.0135826 0.00098656 0.0067489776 0.016842969 0.016852276 -0.0195318 0.0049095545 -0.021837708
-0.023135178 -0.024186255 -0.003549931 -0.0378765 -0.0013828332 0.02313627 -0.01600073 0.02355906
0.03195232 -0.0012453981 0.030154286 -0.007561557 -0.010375782 -0.00059743586 -0.019932065 0.014312109
0.022038134 -0.016832624 0.0070971358 0.024768146 -0.022196265 -0.010632884 0.018424217 -0.009194567
0.0113220345 -0.030621639 -0.0097743645 0.0006040718 0.033634447 0.018766526 -0.0009125213 0.02269568
0.0117212115 -0.033356942 0.014819892 -0.00072211394 -0.009019078 0.014932726 0.01609587 0.0072102277

fc4.bias f4 [128]
00000000: 387e bcbc fd9c 873b 5bad ac3d 9956 90bd
00000010: 110f c4bc f475 92bc 918f 813d e97d 1dbd
00000020: 64db 513d 394f d9bc 7aa0 2dbd a1db 09bd
00000030: 82e1 8dbd d69d 04be 1181 223d ecbc fcbd
00000040: 5811 89bc 5937 a03b fbe8 b63c 8e7f 9dbd
00000050: 7e7a e33c 7d75 04bd 47d4 aebc 43b3 643c
00000060: 6bbb a2bd 0282 4ebd 13a5 12bc 2cd4 8dbc
00000070: df32 4fbd c57c 51bd 547f 1cbc 60d4 38bd
00000080: b437 5bbc 3645 283a 041b ca3d f99a fdbc
00000090: d4d7 acbd d0e3 6bbd 1091 23bd 81a3 d63b
000000a0: 56d1 8b38 bf3c 873b 12d1 6fbd b471 1fbd
000000b0: 77a9 3dbb f8e8 013c ac0c 22bc 5e78 ee3a
000000c0: 5d26 d2bc 9679 113d 8017 42bc 092b 583c
000000d0: 548d 873c 6b5a 203b 0d85 bdbc a98c 203d
000000e0: acf6 d7bc 8b5d 4e3c cb27 ce3c 0985 86bb
000000f0: 4ea9 d4bc 1b95 c7bc e169 27bd 1165 cbbd
00000100: 9891 a1bc e04e aebc 410a a8bb a755 e0bb
00000110: 112b febb 42e2 44bd f007 d2bb 7e95 b3bc
00000120: e8b6 993c b5c6 42bd 0963 4f3a 281d f7bc
00000130: 969a 593d ee6a 843d a9d5 d7bc 283a a7bd
00000140: 4b98 58bd c916 29bd 3f5a 70bd 9cd6 043d
00000150: 7724 be3c 1bb9 6cbd 6e6c eb3c 4b20 39bc
00000160: 5306 34bc 8275 743c 2c35 34bd 69da b33b
00000170: 7565 d33b 931a bdbb 51c3 5cbc 8fe7 65bb
00000180: f86c a43c e72a 033c 0cf7 7fbd 4429 febd
00000190: d0cc 12bd 83b3 e4bc 2ded debc 3b2c 543b
000001a0: 22df 5dbc 80c1 89bd 9f96 73bc e355 0b3c
000001b0: 355b 2fbd 201c e0bc ba72 2bbc 039e 12bd
000001c0: d58d bfbc 70a5 2dbd ea5d 8a3b 8351 06be
000001d0: d5a0 05bd 8cc6 a83c 3306 aebd 4350 a3bc
000001e0: 962c bebd 88f4 cabc 2089 4fbd 7d04 23bc
000001f0: 7650 aabd ba9d 96bd 6f14 2abd a6b9 8ebd
-0.023009405 0.0041385875 0.084315024 -0.07047767 -0.023932965 -0.01787851 0.06326211 -0.038450155
0.051234618 -0.026527034 -0.04238937 -0.03365672 -0.06927778 -0.12950835 0.03967387 -0.123407215
-0.016731903 0.0048894105 0.02232789 -0.07690345 0.02776837 -0.032338608 -0.021341456 0.013958755
-0.079459034 -0.050416954 -0.00895049 -0.017313085 -0.050585624 -0.05114438 -0.009551842 -0.04512441
-0.01337998 0.00064190046 0.09868434 -0.030957686 -0.084396034 -0.057590306 -0.039933264 0.006550253
6.667028e-05 0.0041271145 -0.058548994 -0.038926795 -0.002894012 0.007929079 -0.0098907165 0.0018193831
-0.025653059 0.035516344 -0.011846423 0.013193854 0.016546883 0.0024467956 -0.023134733 0.039196644
-0.02636274 0.012595545 0.02516546 -0.0041052145 -0.025959637 -0.024363091 -0.04087246 -0.09931386
-0.019722745 -0.021277845 -0.0051281755 -0.006846148 -0.0077565988 -0.04806734 -0.0064096376 -0.02192187
0.018763974 -0.047552783 0.0007911181 -0.03016527 0.05312594 0.06465708 -0.026346998 -0.08165389
-0.052879613 -0.041281495 -0.058679815 0.03243123 0.023210747 -0.057793718 0.028738227 -0.011299203
-0.010987836 0.014920594 -0.04399602 0.005488683 0.0064513036 -0.00577099 -0.013474301 -0.0035080647
0.020071492 0.008005834 -0.06249146 -0.124102145 -0.035839856 -0.02791763 -0.027212704 0.0032374996
-0.013541969 -0.0672636 -0.014867454 0.008504364 -0.04281159 -0.027357161 -0.010464365 -0.035795223
-0.02338306 -0.0423941 0.004222621 -0.13117032 -0.032624085 0.020602487 -0.08497276 -0.019935733
-0.09285848 -0.024774805 -0.050667882 -0.009949801 -0.08316128 -0.07354303 -0.041523393 -0.069690034

fc5.weight f4 [64, 128]
00000000: d9c4 2c3d 7183 6b3c b541 bcbd e637 20bc
00000010: 3fc4 3b3b 9828 843d cfb8 05be 8111 8c3d
00000020: b80e 3d3d d13e 7ebd 7329 dc3d 7945 bfbd
00000030: 77a9 183e 4cc9 773e f34d 823d c38f 423e
00000040: 8a6e b1bd a0ec bdbd 8935 4b3d 16a0 cf3d
00000050: 6aae 3cba 6956 adbd bd7f 7dbd 570c 4e3d
00000060: 8c34 7ebd 36c6 723c 0eff 81bd 4643 9f3d
00000070: 8747 b3bd c713 debd 7412 84bd 265b ea3b
00000080: 3f3a c1bc 60fe f9bd 1b64 503c 4139 893d
00000090: 059f 393e 6cd3 6abc 71da 063d 30ed d83c
000000a0: 9836 6ebd a0f9 203e 5b97 0ebe 1a5b e4bc
000000b0: 7370 ad3c b75b 263d 5966 033d 100c 9f3d
000000c0: 0da7 d8bd a35a e73d 7c73 26bd 2e17 f4bd
000000d0: 8fdf 4cbc bc99 ebbd 3a16 283d af71 abbb
000000e0: 6c56 0ebe 1d16 443d 2047 94bd 2d70 493d
000000f0: 5d76 4fbc 28df b33d 7707 453b fb41 b4bd
00000100: 351f 81bd 6597 b8bb 49fc 543b d5f6 e5bc
00000110: 203c b53d c545 adbd ffef c6bd 0c82 44be
00000120: 9756 07bd 8cc3 3c3d dfbc 593d 06e2 693d
00000130: d873 1dbe b4fa 20bd 9ff1 93bd 57a3 153e
00000140: 9ff5 73bd ebbd d9bd 607e f9bd d354 5f3d
00000150: 26d4 793d 937e a9bd 264f 983d 3d69 35bd
00000160: 8a21 34be e776 4ebc eca2 a63c 6ed4 02be
00000170: 7b63 0cbe c318 aebd 35da ea3c b5e2 84bb
00000180: 3144 9ebd de52 31bd b595 0f3d 1afe 833d
00000190: 8819 1e3d 0e90 e13d da8e e6bd c533 8a3d
000001a0: 92ff bebd 3fed 233e a298 a33d 5e1d 9c3d
000001b0: 65a5 bbbc f005 bb3b 565f fbbd 9cbf 64bd
000001c0: a412 8abd a67b 79bc bd20 823d b413 6c3e
000001d0: a0c9 263d afdd 053d 2606 82bd ad58 a8bd
000001e0: 46b9 17be c69e 0dbc b36a 293d 3870 c0bc
000001f0: 2c96 a6bd 22c7 273e 3409 63bd b103 4abd
00000200: 675a 063d 7d4e 90bd d297 333e 44dc d3bc
00000210: f9cd 00be 09fa fbbc ae98 453d c043 ffbc
00000220: 3036 d03b c718 8bbc 7a35 0dbe 1d73 efbc
00000230: 514d c0bd 57c2 2f3b 177c 36bd fc51 d5bd
00000240: 105d c6bb 4608 02bc 0c8c 913c e595 ecbd
00000250: 9e2e f03d a5cf 4dbe 10f1 383e 6702 293d
00000260: 5aa0 abbd ace7 2fbd bdd4 05be 91c8 14be
00000270: e6d7 96bd 082a 02be 3928 babc 0413 22bd
00000280: c8e4 28bd 1bb6 cb3d 6655 233e 2154 353c
00000290: 1307 aabd f4e9 883c bc70 c0bb 7d00 74bc
000002a0: feb1 55bd 7aeb c6bc 9ddb c73d 0587 533d
000002b0: c76e 6ebd 95f9 4fbd 7bf2 0ebd 5540 263d
000002c0: 1d31 263e 037f 21bd 480f acbd 2613 c93d
000002d0: 8f5b 2e3d 0f6c ff3d fdfb 42bc 5abe 073e
000002e0: 4946 9e3d 4e99 8a3d 4d62 fc3d 50b2 1c3d
000002f0: 0f04 5cbc 5993 88bd 75f4 20be 5058 27be
00000300: 0790 a73d f91d 2d3d ebb8 c03d b024 ddbc
00000310: f465 2c3d 2b46 8ebd 7336 193e 3413 2e3e
00000320: ca7f 2d3d df1f 0f3c 65ba 21be 94fe aabd
00000330: c5d2 1a3e 7205 a43d 826c 89bc 221a b9bd
00000340: e823 0a3e d73b 6c3b fdae 8abd 2eb1 36bc
00000350: b94f 573d b28f 09be fab5 513e f314 00bc
00000360: 3c83 033d 06a3 9cbd ea19 41bd 6812 0a3c
00000370: 6951 013e 90a2 70bd 119b b4bd 4580 be3c
00000380: 6b8d 04be 4f23 883c 6e09 44bd b79d f33c
00000390: dc49 063d 846f b4bd d199 f43d fe50 afbd
000003a0: e941 c23d ea34 a33c abe5 873c f835 07be
000003b0: c93f 53bd 2400 5d3d d9fa c9bd f365 6fbd
000003c0: 4e57 993d 9b4a 86bc 33c2 643d aa24 06be
000003d0: cac6 8bbd a046 46bd a7f0 b93d 8f0d 223e
000003e0: ef30 a1bd b0b7 c2bd 76d3 483d 91da b0bd
000003f0: f5fc e9bd c9b3 1fbd 9dc5 893d 9268 0bbc
0.042179916 0.0143746 -0.0919222 -0.009778952 0.0028650907 0.06453055 -0.1305878 0.06839276
0.046156615 -0.062071625 0.10750093 -0.09339423 0.14908396 0.24197882 0.06362524 0.19000153
-0.08663662 -0.09273648 0.049611602 0.10137956 -0.00071976206 -0.08463747 -0.0618894 0.050304737
-0.06206183 0.014817765 -0.06347476 0.07776503 -0.08753877 -0.10843616 -0.06448832 0.007151979
-0.023587344 -0.12206721 0.0127191795 0.067003734 0.18127067 -0.014332633 0.032923166 0.026480287
-0.058157533 0.15720224 -0.13924925 -0.027875472 0.021171784 0.04061481 0.03208003 0.077659726
-0.105787374 0.112965845 -0.04063748 -0.11918484 -0.012504472 -0.11503932 0.041036822 -0.005232058
-0.13900155 0.04787265 -0.072401285 0.049179245 -0.012662497 0.08782798 0.0030064264 -0.08801647
-0.063047804 -0.005633282 0.0032499006 -0.0280718 0.088493586 -0.08460573 -0.09713744 -0.19190234
-0.033041563 0.046084926 0.053158637 0.05710032 -0.15376222 -0.03930159 -0.0722382 0.1461309
-0.059560414 -0.10631927 -0.12182307 0.054524254 0.060993336 -0.08276095 0.07436971 -0.044289816
-0.17590919 -0.012601591 0.02034136 -0.12776348 -0.13709824 -0.08500817 0.028668502 -0.004055346
-0.0772785 -0.04329192 0.03505488 0.064449504 0.038598567 0.110138044 -0.112577155 0.067481555
-0.0932609 0.16008471 0.07988097 0.07622789 -0.022906015 0.005707495 -0.12274043 -0.055846795
-0.06741837 -0.015227234 0.063539006 0.23054391 0.04071963 0.032682117 -0.06348829 -0.082200386
-0.1481677 -0.008643812 0.041361522 -0.02349101 -0.08134112 0.16384557 -0.0554287 -0.049319927
0.03280106 -0.070462205 0.17538384 -0.025861867 -0.12578572 -0.030758874 0.04824131 -0.031160235
0.006354116 -0.016979588 -0.13789931 -0.029229695 -0.09389747 0.0026818716 -0.044551935 -0.10416028
-0.0060535744 -0.007936543 0.017766975 -0.115520276 0.117276415 -0.20098741 0.18060708 0.041262057
-0.08380194 -0.04294555 -0.13069434 -0.14529635 -0.07365398 -0.12711346 -0.022724258 -0.039568916
-0.041233808 0.09946843 0.15950546 0.011067421 -0.083021306 0.01671312 -0.005872814 -0.014892695
-0.0521717 -0.024282206 0.09758685 0.051642437 -0.058211114 -0.05077513 -0.034899216 0.040588696
0.16229673 -0.03942777 -0.08401352 0.098181054 0.042567786 0.124717824 -0.011900899 0.13256207
0.077282496 0.06767522 0.12323437 0.03825599 -0.013428702 -0.06668729 -0.15718253 -0.16342282
0.08181768 0.042264912 0.0941027 -0.026995033 0.042089418 -0.06946977 0.14962177 0.16999513
0.042358197 0.008735626 -0.1579376 -0.08349338 0.15119465 0.08008851 -0.016775373 -0.090381876
0.1349026 0.003604641 -0.067716576 -0.011150641 0.052566264 -0.13433722 0.20479575 -0.007817495
0.032107577 -0.07648282 -0.047143854 0.00842724 0.12628712 -0.05874878 -0.08818639 0.023254523
-0.12944572 0.016618399 -0.047860555 0.02973829 0.03278528 -0.088103324 0.11943401 -0.0856037
0.094852276 0.019922692 0.016589006 -0.13204181 -0.051574502 0.053955212 -0.098622985 -0.058446836
0.07487355 -0.016392997 0.055849265 -0.13099924 -0.068250254 -0.048407197 0.09079104 0.15825485
-0.078706615 -0.09507692 0.04902979 -0.08635438 -0.11425201 -0.038989816 0.06727145 -0.008508818

fc5.bias f4 [64]
00000000: 2fe8 983d 0f27 043d 5b32 943d fe3c a2bc
00000010: e05b 023d 61f0 debb be06 f3bc f362 a33d
00000020: 37c6 44bd 2b88 053d e884 c53c 5f14 c13c
00000030: 6bed 8d3d 2208 9dbd 0a77 d3bc c287 4d3d
00000040: f946 c83d 784e cf3c b871 0a3d 9c90 54bd
00000050: ef7a 88bd b6fe 5e3d a7d3 e43c 7a71 aabd
00000060: a8ea 53bd f77c 54bd 8f3f 433d 7557 113c
00000070: 401e a53d e639 123d b10e 93bd e776 223c
00000080: 6065 753c 4812 a53d b83f e83b 6508 093d
00000090: 9fd8 01bd c3f7 cd3d 3a81 01bc e9e5 fb3c
000000a0: 5018 4abd 3af1 c13c a5d6 fa3c 6d90 633d
000000b0: d2e2 a83b 2813 0abc aa4f 993d 9c7b 883d
000000c0: fa96 b23d c435 79bd 42bc ac3d a9a0 553d
000000d0: d835 42bd 2e7d 9a3d 6ba5 7cbb 70be 0fbd
000000e0: 7211 bcbd 2fab 10bd 0b88 fcbc 63c4 6b3d
000000f0: 78ba 42bb 0566 2d3c 570e ff3c 3f97 68bd
0.074661605 0.03226381 0.07236167 -0.019804474 0.0318259 -0.0068035577 -0.0296663 0.079778574
-0.048040595 0.032600563 0.024111226 0.023569284 0.069300495 -0.07667567 -0.025813598 0.050178297
0.09779162 0.025305972 0.033799857 -0.051895723 -0.06664073 0.05444213 0.027932955 -0.08322425
-0.051737458 -0.05187699 0.047668036 0.008870949 0.0806241 0.035699748 -0.071805365 0.009916044
0.014977783 0.080601275 0.007087674 0.03345527 -0.031700727 0.100570224 -0.007904345 0.030749278
-0.049339592 0.023674596 0.030619929 0.055557657 0.005153992 -0.008427419 0.07485898 0.066642016
0.08720203 -0.06084229 0.08434345 0.05215517 -0.04741463 0.075434074 -0.0038550745 -0.035093725
-0.09183015 -0.035319503 -0.03082659 0.057560336 -0.0029713195 0.010583405 0.031134767 -0.056784865

fc6.weight f4 [6, 64]
00000000: 9b31 0fbe c8b8 f43e 832e 86be c42d 043f
00000010: 360e 42be 1ab4 bb3e 1f4b 50be a3ab 0e3f
00000020: 0c4f e8bc beae d33e 5fb1 c4bd 5645 88be
00000030: 88e9 3bbe d99a d7bd fdcb e53e a540 dc3e
00000040: 121e b63e 4ed0 10be bfec 2bbe 3275 52be
00000050: b20c 92bc ccab f43e 0ec4 03bf 9f79 9bbd
00000060: b51e 1dbe 538b 45bd a8a4 f13e e2fe 11b9
00000070: 6a3b b53e 47f0 133f 5e6a 4bbc 5da8 fb3e
00000080: f603 ca3e 83c7 003f 27ea 04be 9094 a7be
00000090: e2e6 83be 51a0 e2bd 1140 b1bd e86b 82be
000000a0: ba87 a9be 30a5 39be dbc8 0cbe 3637 f23e
000000b0: 7086 003f 517d 27be e1a3 ecbd 0eae 29be
000000c0: e84f 6e3e bbcf 71be 0678 9fbe 566c 1a3f
000000d0: 4b2a f33d a756 093f e252 7c3e d95e eb3e
000000e0: 2d98 cdbd 48b5 83be ba49 aebe d09a 89be
000000f0: a66a da3e 4fe4 b23c 02cd 33be 4ec1 c63e
00000100: 98a2 9dbe 28bb ce3e 9eee 99be 35ed 5bbe
00000110: 51c5 b3be f08e 9cbe 8106 c5be 22a3 f93e
00000120: 6eb1 5dbe da2f b0be d94d 13be 0d58 fb3e
00000130: 0188 f33e 6390 2bbe f57d 92be 8647 003f
00000140: f9b0 dabe 7af9 aa3e e871 b5be 8404 90be
00000150: ea77 06be 8fe4 82be be04 c63e a92a 3cbe
00000160: f39d e33e 0e12 d3bd a493 9dbe 9728 43be
00000170: 9b68 5dbe 28c9 58be 05cf d7bd f137 82bd
00000180: 8384 f93e cea3 84be 1a8f 1cbe fd7a 173e
00000190: 7584 adbe 1e07 ea3e 24a1 ee3e c4aa a1be
000001a0: f77b d73e 802e a6be cddb 89be 1fba 9cbe
000001b0: 2bfc a7be af93 e93e 9d62 84be 9ec5 9fbe
000001c0: 9fe7 e2be 4ef1 71be 67a4 9cbe e1f1 923c
000001d0: f347 9cbd 3bc2 a0be ba70 03bf 05b9 75be
000001e0: 89a5 30be 5eed cd3e 3c35 ce3e a609 053f
000001f0: 10fe 013f 688c 60be 3443 013f b7eb 8ebe
00000200: 6b6c cf3e 91d4 6ebe 1945 4dbe 0410 56be
00000210: d6c3 c73e 629c 7fbe 5549 b33e 7d10 89be
00000220: 3f40 073f 9cf7 b33e 52d4 cebd b692 b4bc
00000230: 453f c73e 7c7c ff3e aac5 78be 8b34 e8bd
00000240: ba6e b73e af9c 2dbe 56ac ba3e f505 7dbe
00000250: 342b 1cbe d1d6 57be f933 d3bd 76db 01be
00000260: 116a bc3e 5eb5 413d b81e 83be 91ae 053f
00000270: 8b6e 39be 48cd 73be 3ca8 aebd b76b 46be
00000280: 8c4f 31be 90e1 73be 1916 14be d499 b63e
00000290: 3f04 3dbe 9c86 cf3e 5b5d be3e 9fd0 79be
000002a0: 6c3f 7dbe 699d eb3e a652 72be b2e1 8ebe
000002b0: dc97 76be f833 bb3e c798 ed3e 2f7b fb3e
000002c0: 8400 933e bc5c 57bd 905d 4abe 8a0e febd
000002d0: bf1b e43b 7984 5dbe d559 88be 4869 b73e
000002e0: 114b b6bb 5a10 62be 2526 4dbe f0e5 27bd
000002f0: cf4f d7bc 992e f83e 5080 4fbe b985 10be
00000300: 3d9f f73e a624 a2be 9e10 f23e d569 d43e
00000310: 57cb f83e f126 ec3e b72e 803e 6dcf 09be
00000320: 0884 36be 41e3 b3be a0e4 4c3d 2b47 cd3e
00000330: dc01 89be 1026 bd3e 6120 6cbe cda0 4fbe
00000340: c4bc e73e 40a0 8cbe 25eb eb3e 354a c13e
00000350: e46d 89bc 478a 22be 225a 913e d599 fc3e
00000360: d499 9cbe e7d7 1c3c fb67 be3e 6d0a a9bd
00000370: 3833 7ebe f277 ea3e ea99 ab3d e914 96be
00000380: 83a6 80be 9cf9 a9be 5bde ad3a 4467 cdbe
00000390: 85ad db3e dd68 97be 47dc 97be 294d b03e
000003a0: 151f a6be bb9c 7ebe 5422 c43e c93a afbe
000003b0: f0f2 b0be 121e 86be 9bb0 23be 3dfb 36be
000003c0: 19dd c4be 1789 0e3f a7da d53e 6df9 69be
000003d0: 93bc fe3d b759 8cbe ff5a dbbe c9bc 8fbe
000003e0: b92f e83e b998 93be 6050 b1be 8579 46be
000003f0: 4d7d 8fbe 6372 44be aa96 d93e 444c 72be
-0.13983767 0.47797227 -0.2620736 0.5163233 -0.18950734 0.36660844 -0.20341156 0.55730647
-0.028358005 0.41344255 -0.09604143 -0.266154 -0.18350804 -0.10527582 0.44882193 0.4301807
0.35569817 -0.14141962 -0.1678953 -0.20552519 -0.01782832 0.4778732 -0.5147103 -0.07591557
-0.15343745 -0.048228573 0.47195935 -0.00013923229 0.35396892 0.5778851 -0.012415497 0.49151888
0.39456147 0.5030443 -0.12979947 -0.32730532 -0.25762087 -0.11065734 -0.08654798 -0.2547295
-0.33111364 -0.1812942 -0.13748495 0.47307748 0.50205135 -0.16356398 -0.11554695 -0.16570303
0.2327267 -0.23614399 -0.31146258 0.6032156 0.11873301 0.53647846 0.24640992 0.459708
-0.10038791 -0.25724244 -0.34040624 -0.26875925 0.4265949 0.021837382 -0.17558673 0.38819355
-0.30788112 0.40377164 -0.30064863 -0.21477206 -0.35111478 -0.30577803 -0.38481525 0.48757273
-0.21649715 -0.34411508 -0.14385165 0.49090615 0.475647 -0.16754298 -0.28611723 0.50109136
-0.42713144 0.3339346 -0.35438466 -0.28128445 -0.13131681 -0.25565 0.38675493 -0.18375649
0.44456443 -0.10306178 -0.30776703 -0.19058453 -0.21621935 -0.21170485 -0.10537533 -0.06358326
0.4873391 -0.25906223 -0.15288964 0.1479301 -0.3389012 0.45708555 0.46607316 -0.31575596
0.42086765 -0.32457352 -0.26925507 -0.3061075 -0.32809576 0.45620486 -0.25856486 -0.31205457
-0.44317338 -0.23627207 -0.3059418 0.017937602 -0.07630911 -0.31398186 -0.5134388 -0.2399636
-0.17250647 0.4022016 0.4027499 0.5196785 0.50778294 -0.2192856 0.5049317 -0.2791421
0.40512404 -0.23323275 -0.2004589 -0.20904547 0.39016598 -0.24961999 0.35016885 -0.26770392
0.52832407 0.35149848 -0.10099091 -0.022042613 0.38915458 0.49899662 -0.24294153 -0.11338147
0.35826665 -0.16954301 0.36459607 -0.24709304 -0.15250856 -0.2107804 -0.10312647 -0.12681374
0.36799672 0.047292106 -0.25609374 0.5221949 -0.18108575 -0.23808777 -0.08528182 -0.19377027
-0.17315501 -0.23816514 -0.14461555 0.35664237 -0.18458651 0.40532386 0.371806 -0.24395989
-0.24731225 0.46018532 -0.2366434 -0.27906567 -0.24081367 0.36563087 0.46405622 0.4911742
0.2871133 -0.052578673 -0.19762254 -0.12405117 0.0069613154 -0.21632566 -0.26631036 0.3582251
-0.005563148 -0.2207655 -0.20034082 -0.04099077 -0.026283173 0.4847305 -0.20263791 -0.14113511
0.48363677 -0.31668586 0.47278303 0.41486993 0.48592636 0.4612346 0.2503564 -0.13458033
-0.17823803 -0.35134318 0.05002272 0.4009336 -0.2675923 0.36943102 -0.23059227 -0.20276184
0.45261204 -0.2746601 0.4607784 0.37751928 -0.016776033 -0.15873061 0.28389078 0.49336115
-0.30586112 0.0095729595 0.37188706 -0.08253942 -0.24824226 0.45794636 0.08378966 -0.29312828
-0.25127038 -0.3319825 0.001326512 -0.40117848 0.42905822 -0.29572192 -0.29660246 0.3443387
-0.3244559 -0.24864475 0.3830744 -0.34224537 -0.34560347 -0.26194817 -0.15985338 -0.17869277
-0.38449934 0.5567793 0.4176838 -0.22849055 0.124383114 -0.27412197 -0.42842862 -0.2807372
0.4534891 -0.28827456 -0.34631634 -0.19382294 -0.28025284 -0.1918426 0.4249776 -0.23661906

fc6.bias f4 [6]
00000000: 25ad 9ebd 5622 e73d 4739 bc3d 855e ca3e
00000010: 7d26 2fbe 5e43 383e
-0.077478684 0.11285846 0.09190612 0.39525238 -0.17104526 0.17994449
