models/0.2/0.pt (torch, 747117 bytes, 12 tensors)

fc1.weight f4 [128, 36]
000000 eb 05 28 be 87 2f fd bd 55 67 19 be f7 5f 85 3d
       -0.16408508 -0.12362581 -0.14980824 0.065124445
000010 2e f0 05 3e b2 e5 9a bc b2 60 73 3d 4b 26 20 3e
       0.13079903 -0.018908355 0.059418388 0.15639608
000020 a6 8e 85 3d c6 01 12 3e 2f c7 1e be 44 d5 b1 3d
       0.06521349 0.14258489 -0.1550567 0.08683255
000030 40 24 fc bd fd 53 fc bd 15 e5 81 3d 26 cd 21 be
       -0.12311602 -0.12320707 0.06342522 -0.15800914
000040 78 53 d9 3d 1e 1c 1b bd a1 43 0a 3e e6 86 5d bd
       0.106116235 -0.03786861 0.13502361 -0.054083727
000050 1c c6 19 bc 52 08 1e be c7 12 19 3e a7 f7 a4 3d
       -0.009385612 -0.15432861 0.14948569 0.080550484
000060 13 01 0b be 73 37 d5 bd 50 36 af bc e7 97 ed 3c
       -0.13574629 -0.10410967 -0.021388203 0.029003097
000070 72 5a 44 3d e9 5e 92 bc 2d 6c 07 3c bf a9 f6 3d
       0.047937818 -0.017867522 0.008265537 0.12044095
000080 a3 f9 cf 3c 83 ff 1f be 53 3a 1d 3e 73 32 18 3e
       0.02538759 -0.15624814 0.1535428 0.14862995
000090 6f 9a 10 3d 3e 99 64 bc 55 c0 04 bd fb 33 ee bd
       0.03530353 -0.013952551 -0.032409985 -0.11631008
0000a0 c1 1d 8b bd 8e ab 80 bd f9 e6 3a bd 89 3e 0a be
       -0.067927845 -0.062827215 -0.04563043 -0.13500418
0000b0 37 31 86 bd 4d 06 19 3e 5e 5e 07 be 22 07 f8 3c
       -0.06552356 0.1494381 -0.13219592 0.030276839
0000c0 36 d1 0c 3e d9 40 22 be 89 10 aa bd bb 2f 9f bd
       0.13751683 -0.1584505 -0.08303935 -0.07772776
0000d0 d3 e6 64 3d e6 97 e7 3c 0e db 4c 3d 7e cb 87 3d
       0.055884194 0.028270673 0.050013594 0.0663061
0000e0 f7 27 a2 bd 51 4f e7 3d e1 37 ce 3c 1f dd 67 bd
       -0.07917779 0.11294425 0.02517313 -0.056607362
0000f0 4b b2 02 3d b1 fa 54 bc f5 59 4f 3d 48 2a 44 bd
       0.031908315 -0.012999223 0.0506229 -0.047891885
000100 e3 ba e3 bd a5 f1 ec bd 89 7a ff bd 8f 17 f8 bd
       -0.1111963 -0.115695275 -0.124745436 -0.121138684
000110 cc 0b 4a 3d 6b 2e 1b be 2f 34 4a bd 89 f8 02 3d
       0.049327657 -0.15154426 -0.049366172 0.031975303
000120 02 b6 ed 3d 58 e8 25 be f0 76 20 3e 0c dc e2 bc
       0.11606981 -0.16201913 0.15670371 -0.027692817
000130 e9 c6 c8 bd 46 0a 66 bd a5 a5 fb 3d ba 1b 09 bd
       -0.09803564 -0.05616214 0.122874536 -0.033473708
000140 35 eb 3a bd 34 b4 1f be ba 84 0b be 3b 9d 02 3e
       -0.045634467 -0.15596086 -0.1362485 0.12755291
000150 ae 18 b0 3d 6f 46 62 3d 5f 1a f8 3a 06 0d 23 be
       0.08598457 0.055242952 0.0018928758 -0.15922937
000160 49 0a 20 be 87 19 92 3c 70 b0 8a 3c ce 0d 28 3e
       -0.15628923 0.017834438 0.016929835 0.16411516
000170 6b a6 b9 bc 56 07 96 bd cb 5b c6 bd 80 47 46 bd
       -0.022662362 -0.07325618 -0.09685477 -0.04840803
000180 b5 d3 0e be 3e d4 db 3c e4 71 ab 3d a9 7c 38 3c
       -0.13947947 0.026834603 0.08371332 0.01126019
000190 44 ba 5a 3d 4f d8 cd bd 16 fc c9 3c f3 2d 29 3e
       0.053400293 -0.10051023 0.024656337 0.16521434
0001a0 54 c9 24 bc 48 f5 14 3d b9 e7 e1 3d f1 8d d0 3d
       -0.010057766 0.03636673 0.11030526 0.10183323
0001b0 2f eb 5b bd c5 c5 0e 3e 95 48 42 3d 5e d8 ce 3c
       -0.053691085 0.1394263 0.0474325 0.025249656
0001c0 e4 cb 24 bd 4e 72 ca 3c 49 66 48 3d 2c 95 8a 3d
       -0.040233508 0.024712708 0.04892567 0.067667335
0001d0 ab 42 07 3d e0 8f a5 bc f8 4d 26 bd 58 0f b9 3a
       0.033022564 -0.020210207 -0.0406017 0.0014118953
0001e0 53 81 12 be da c5 6e 3d 2c e2 72 3c b1 09 05 be
       -0.14307146 0.058294155 0.014824431 -0.12991978
0001f0 b5 37 b1 bb 10 fc 01 3e 01 3e 1c 3e dc c3 9c 3d
       -0.005408252 0.1269381 0.15258028 0.07654545
000200 22 0c f3 3d 92 ca 28 3e 3b b5 d1 3d 9f 1a ac bc
       0.118675485 0.16483524 0.10239645 -0.021008788
000210 34 16 8f 3d 58 e6 b7 3c 65 90 1f 3e 1d e1 d4 3d
       0.06986657 0.022448704 0.15582426 0.103944995
000220 58 58 e9 3b b7 69 d8 3d 00 ff 6d 3d 1f 68 94 bc
       0.007121127 0.105670385 0.058104515 -0.018116055
000230 a4 55 0b bd ab 38 0b 3e 19 2b d4 bc 99 5f 29 be
       -0.03401722 0.13595836 -0.025899457 -0.16540374
000240 25 66 ac bb 18 81 4d 3c 81 72 92 3c 4a 81 1a 3e
       -0.0052612 0.012542985 0.017876865 0.15088382
000250 6a 4a 1e 3e 5a 72 32 be 02 17 93 3d 19 0d b4 3d
       0.15458074 -0.17426434 0.07182123 0.08791561
000260 78 02 f1 3d c7 fd c9 3d 35 2f 0a bc 6d a9 2a bd
       0.11768049 0.09862857 -0.008434107 -0.041665483
000270 10 8e cd 3d 76 33 0e bd 31 fa 08 be cf 80 a0 bd
       0.10036862 -0.034717046 -0.1337669 -0.07837068
000280 ab c4 f0 bd 3c 18 d3 3d 44 16 f2 bd 37 21 01 be
       -0.117562614 0.10307357 -0.11820653 -0.12610327
000290 0d 61 1a 3c 72 06 2a be 54 72 67 3c 18 e1 89 bd
       0.009422553 -0.16604021 0.014126379 -0.06732386
0002a0 38 7f d4 bd 44 9b c7 3b 2f b2 0c bd ff d6 1e be
       -0.103758276 0.006091507 -0.034349617 -0.15511702
0002b0 42 c5 18 be 6a 7b 73 bd 0d c0 87 3c 24 7c 06 3d
       -0.14918998 -0.05944387 0.01657107 0.032833233
0002c0 29 56 a6 3c e0 09 1f be 34 a3 67 3d 59 84 0b be
       0.020304756 -0.15531111 0.056552127 -0.13624705
0002d0 6c ae d1 bd 97 30 e3 bb 9c 2d d3 3c 63 d4 2d bc
       -0.102383465 -0.0069332826 0.025778584 -0.010609719
0002e0 4e 8e 9c 3d 1a b1 7e bd ce a8 f4 3d 2b be 9e bc
       0.0764433 -0.062180616 0.119462594 -0.019377789
0002f0 16 df cd 3c 7d 14 e3 3d 88 a2 46 bd 83 6b e2 3d
       0.02513079 0.11087892 -0.048494846 0.110556625
000300 f7 ed 00 3e cb 5c 84 bd 45 b6 89 3d 3e 18 a1 3d
       0.12590776 -0.06463011 0.06724218 0.07865952
000310 e5 3a 83 3d 8b 07 18 be d2 69 cd bd 46 fb 3a bd
       0.064077176 -0.14846627 -0.10029949 -0.04564979
000320 5b f3 0a 3e e2 9e 20 be 17 f5 0f 3d 11 6a 42 be
       0.13569395 -0.15685609 0.035145845 -0.18985774
000330 e5 94 ea 3c c8 91 50 3d 70 c8 04 3e 50 28 08 be
       0.028635452 0.050920278 0.12967086 -0.13296628
000340 55 75 86 bc a6 17 0c be 0a e0 17 3e c5 1a 31 bd
       -0.01641337 -0.13680896 0.14831558 -0.04323842
000350 38 22 20 bd 55 69 63 3c 98 a9 cf 3d 3b 2e ad bd
       -0.039095134 0.013880094 0.10139769 -0.084560834
000360 74 16 07 be 34 39 16 be 87 bb 16 3e 58 c9 1b 3e
       -0.13192159 -0.14670259 0.14719974 0.15213525
000370 a6 4b 98 3d 01 d8 01 3e af 65 30 3c a8 b0 4d bc
       0.07436304 0.12680055 0.010766431 -0.012554325
000380 a4 43 88 3d a7 21 12 be 58 cc b0 bd 1b 8c af bd
       0.066535264 -0.1427065 -0.086327255 -0.08571645
000390 7c 92 07 be fe a6 14 3e e2 10 de bc 4a 0d 25 be
       -0.13239473 0.14516827 -0.02710766 -0.1611835
0003a0 15 0c 29 3e 02 ca 3b 3d 2d 39 e2 bd 90 e1 90 3d
       0.16508515 0.045846947 -0.11046062 0.07074273
0003b0 4c 96 ba bd 15 68 25 be bc 44 60 bd 71 76 44 3b
       -0.09110698 -0.16152985 -0.05475305 0.0029977823
0003c0 5b 7b b6 3d 26 b9 e6 3d 6a 66 2e bd 4b 9f ce bd
       0.08910247 0.11265783 -0.04257814 -0.100889765
0003d0 3d 56 3a be f0 a2 1a 3d 86 b2 b8 bd 90 fa 55 bd
       -0.1819696 0.037753046 -0.09018426 -0.05224091
0003e0 91 3c 83 3c 44 f7 8e bb 64 0e df bc 9c 4e b6 3d
       0.016020091 -0.0043629725 -0.027228542 0.08901712
0003f0 e0 59 1c be e9 80 06 be 49 b6 04 be fd bf 55 3d
       -0.1526866 -0.13135113 -0.12960161 0.052185047

fc1.bias f4 [128]
000000 fb 1f 0f 3d ef 20 a1 bd 70 08 38 3d cc 89 4b 3d
       0.03494261 -0.0786761 0.04492992 0.04969196
000010 a4 5d 4d 3e 9c d0 72 3e 49 0b b1 3e 5a 1b d9 3d
       0.20055252 0.2371239 0.34578922 0.1060092
000020 49 55 c2 3d b6 aa 04 3e cf d5 4c 3e 8b 93 e0 bd
       0.09488923 0.12955746 0.20003437 -0.109656416
000030 37 21 dc 3d 64 71 c2 bc bb 02 09 bd 58 ca 6a 3e
       0.10748523 -0.02373571 -0.03344987 0.2292875
000040 a3 00 e6 3c e1 6c 91 3e 8f 13 69 3e ba 60 14 be
       0.028076475 0.2840338 0.22761367 -0.14490023
000050 57 8a 90 3d 94 6b c9 bd 83 e5 2d 3e ec 1f 93 bd
       0.07057636 -0.09834972 0.16982083 -0.07183823
000060 03 f1 48 bd 58 7e 48 bd b0 42 b3 3d 63 f7 76 3e
       -0.04905797 -0.048948616 0.08752954 0.24117808
000070 27 52 68 3e ff ce c9 bd ea d9 c0 3e 02 1e 2c 3e
       0.22687589 -0.098539345 0.37666255 0.16808322
000080 92 64 3f bd 9c ad c3 bd 54 7a 89 3d ee c8 2d 3e
       -0.04672677 -0.09554598 0.06712785 0.1697118
000090 ab f1 dd bc 30 cd 1a be 77 8f 31 bd 0f ba 1d 3e
       -0.027092775 -0.15117335 -0.04334971 0.15403007
0000a0 f7 eb ee 3d 26 c1 1e be a5 83 a4 3d e4 d2 e1 3d
       0.116661005 -0.15503368 0.08032922 0.11026552
0000b0 e4 4b 81 3e 25 2f 81 3e b5 fa 88 3d fb 65 d2 bd
       0.25253212 0.2523128 0.066884436 -0.102733575
0000c0 11 aa df bd b2 08 57 3c 31 f6 92 bc 08 27 70 bc
       -0.109211095 0.013124632 -0.017939659 -0.014657743
0000d0 e8 a5 d7 bd 35 fa 28 bd 5b 4d 8d 3e bf 42 ed 3c
       -0.10529691 -0.04125424 0.2759808 0.028962491
0000e0 07 df 19 3e ef 5f 65 bc eb a2 51 3e d7 82 ca bd
       0.15026484 -0.013999923 0.20472305 -0.09888237
0000f0 91 58 81 bd 72 e5 c4 3d ba aa f4 3d 9f 91 68 3e
       -0.06315721 0.09614076 0.11946626 0.227118
000100 c8 70 12 bd 23 e3 88 bd 9d d1 51 3e 68 09 17 3e
       -0.035752088 -0.06683948 0.20490117 0.14749682
000110 c8 a5 0f 3e 59 22 8f bd bc 88 69 3e 77 f8 43 3e
       0.14028084 -0.06988973 0.22806066 0.1913775
000120 42 95 46 3e 12 62 4b 3d 38 fb 69 bc 60 78 9e 3c
       0.19392875 0.049654074 -0.014281087 0.019344509
000130 48 5b db 3d 15 b8 8c 3e d6 2f 49 3e 44 6e 97 3e
       0.1071077 0.27484193 0.19647154 0.29576313
000140 07 1f 68 bd 96 ab 37 3d 15 f2 da 3d b4 c9 8f bd
       -0.056670215 0.04484137 0.10690705 -0.07020894
000150 09 f1 97 3e ca a7 6a 3e 33 2f 12 3d af 42 ba 3e
       0.29676083 0.22915569 0.035689544 0.36379
000160 32 89 2e 3e ca 19 a8 bb 6c 42 13 3e bf eb 0e be
       0.17044523 -0.0051300274 0.14380807 -0.13957117
000170 4d ef 09 be ed b8 35 3e 19 04 84 bd e8 0f d5 3d
       -0.13470192 0.17746325 -0.06446094 0.104034245
000180 e4 e5 8a 3e 34 16 d8 3d c9 63 28 3c 88 85 19 bc
       0.27128518 0.1055111 0.010277697 -0.009370215
000190 01 6b 6b 3e 1c d0 c9 bc ad eb 8d bd 1b 70 f4 3d
       0.22990038 -0.024635367 -0.06929717 0.11935445
0001a0 88 c6 4a bd ee de 99 3e 8b 96 e7 bd 9e 87 12 3e
       -0.04950574 0.30052894 -0.11308011 0.14309546
0001b0 9c c9 32 3e 6d 54 ce bd ed db 2e bd 34 cb 9d 3d
       0.1745972 -0.10074697 -0.042690206 0.077047735
0001c0 09 d6 a4 bd d8 ed 6a 3e 68 b3 b1 bd ce f4 17 3e
       -0.080486365 0.22942293 -0.08676797 0.1483948
0001d0 87 b2 e9 bd a3 18 d7 3d 84 61 21 bd f8 53 87 3e
       -0.114110045 0.10502746 -0.03939964 0.2643125
0001e0 fd 60 3a bd 53 e5 09 be 91 94 bb bd 68 66 32 bd
       -0.04550265 -0.13466386 -0.09159196 -0.043554693
0001f0 1f 7b 7c 3e 1b a0 d4 bc ae 43 a4 bc 87 4d fc bd
       0.24656342 -0.02595525 -0.020051803 -0.12319475

fc2.weight f4 [64, 128]
000000 1e 74 19 bd 29 47 ec bc 14 a4 b3 3c b2 fc 10 bd
       -0.037464254 -0.028842526 0.021928824 -0.03539724
000010 9c 3c ff 3c 35 03 5c 3d 71 b8 b2 bb d0 b0 8b 3c
       0.03115683 0.053713996 -0.005454116 0.017052084
000020 54 ad af 3d 30 43 09 3d 90 34 3d bd 06 b5 83 bd
       0.085779816 0.03351134 -0.046192706 -0.06431012
000030 e4 dc be 3c 4b 5f 13 bd f1 76 79 3d df bc 39 3c
       0.023298688 -0.03597955 0.060904447 0.011336534
000040 4e 7d 32 bd 0b a0 09 3d 33 d4 06 bd b6 78 8a 3d
       -0.04357653 0.033599894 -0.032917213 0.06761305
000050 99 6e ea bc 98 c8 a4 3d c1 ac 95 bd 8d ed 85 39
       -0.02861719 0.08046073 -0.07308341 0.00025544726
000060 8a 9a 4b bd 68 46 29 3d 82 c5 47 bd 14 35 33 bd
       -0.049707927 0.04132691 -0.048772343 -0.04375179
000070 67 38 06 bd 4f d2 2e ba 29 d2 1f bd 61 a5 a3 bd
       -0.032768633 -0.00066689117 -0.039018784 -0.07990528
000080 0d bb fc ba 4d 0f 95 3c 31 1b 50 bd 0a 40 d8 bc
       -0.001928182 0.018195773 -0.05080718 -0.026397724
000090 1b 63 a0 3d 20 de 92 3c 1a b2 9c 3d 3d fc 8b 3d
       0.07831403 0.017928183 0.07651158 0.0683522
0000a0 94 c4 d6 3c 67 e9 f1 bc 4f 1b 66 3c 64 c2 33 3d
       0.026216783 -0.02953024 0.014044597 0.043886557
0000b0 bc 4a 33 3d ca 33 a8 bd 04 13 99 bc 5a 47 87 3d
       0.043772444 -0.08213003 -0.018685825 0.06605406
0000c0 0a 18 6b bd ec 23 ee 3c bf 86 07 bc b8 73 30 bd
       -0.057395972 0.029069863 -0.008271872 -0.043079108
0000d0 60 42 91 bc 74 8d 24 bd 97 88 b4 bc 27 c3 9a 3d
       -0.017731845 -0.040173963 -0.022037787 0.075567536
0000e0 42 78 e1 3c 8a 96 2c 3c 24 55 f5 bb 8e 99 9c bd
       0.027523164 0.010533938 -0.007486956 -0.07646476
0000f0 b4 24 87 bd 9e d9 b0 3d 02 61 6a 3d 9a 97 8b bd
       -0.065987974 0.08635257 0.05722142 -0.06816025
000100 db 7c 82 bd 80 04 19 3d 9a 25 7b bb ac 62 7b 3d
       -0.063714705 0.037357807 -0.0038321973 0.061373398
000110 f3 5c b6 bb 3e 35 8f 3d 53 2e 03 3d c4 f9 45 3d
       -0.0055652796 0.06992577 0.0320266 0.0483339
000120 35 f9 64 3d 81 c4 d5 3c 48 a0 80 bd de 99 3b bd
       0.055901725 0.026094677 -0.06280571 -0.045801036
000130 05 4e 4b 3d f3 85 4e 3d a5 0e 2d 3d 6b 17 af 3d
       0.049634952 0.050420713 0.042250294 0.085493885
000140 da cb 3f bb 65 66 78 bd 98 26 ab 3d e9 d2 e0 3c
       -0.0029265792 -0.060644526 0.083569705 0.02744432
000150 71 31 43 3c 92 19 89 bd 0a 33 e4 bc 04 bd 98 3d
       0.011913643 -0.0669433 -0.027856369 0.07457927
000160 8d be 45 3c c7 cc 11 bd 99 c2 34 bd dc 9b 58 bd
       0.012069357 -0.03559568 -0.044130895 -0.052883014
000170 41 83 14 3d c1 b3 10 bd a9 82 49 3d fd e4 81 bc
       0.036257986 -0.035327677 0.049196873 -0.01585626
000180 18 88 44 3d 85 e3 3c bc 7c ac af bd 7a 56 44 3d
       0.04798135 -0.011528854 -0.08577821 0.047934033
000190 2a a1 9a bb cc 85 90 bd 17 9d 7b 3d 83 b1 a4 3d
       -0.0047189193 -0.0705677 0.06142911 0.0804167
0001a0 16 c4 86 3d 09 01 b7 bd 7f e5 45 bd 55 c5 78 3d
       0.06580369 -0.08935744 -0.048314568 0.060735065
0001b0 ae 3f 4e 3c 72 ee 98 3d 6b 92 b4 bb e2 f7 b5 bd
       0.012588425 0.07467355 -0.0055106184 -0.088851705
0001c0 25 49 68 bd 5f 58 8d ba e3 3d 24 bc bf b5 cc 3c
       -0.05671038 -0.0010783783 -0.010024521 0.024989007
0001d0 ce d4 a0 3d 78 6b a6 bd 23 27 b1 bd b4 36 86 bd
       0.07853089 -0.08125967 -0.08650043 -0.065534025
0001e0 2f 60 44 3c a1 ca 82 bd 79 d1 c7 3c f0 b8 91 3c
       0.011985823 -0.06386305 0.024391877 0.01778838
0001f0 83 2c 06 bd 76 4b 05 3d 93 1a fb bc 72 7d 9a bd
       -0.032757293 0.03254267 -0.03065232 -0.07543458
000200 9f 86 7b 3b 2c 81 b6 3d 2f e8 83 3c 51 0c 7d 3d
       0.00383798 0.08911356 0.016101925 0.061779324
000210 69 3f 66 3c c4 ad 91 3c 18 ec db 3d b6 cf 54 3a
       0.014053204 0.017783053 0.10738391 0.00081181095
000220 a3 6f ac bc 73 2c 21 bc fc 41 0d 3c 5b 4a 88 3d
       -0.021049326 -0.009837258 0.008621689 0.06654807
000230 7c b1 39 bc c8 76 ae 3b f3 b9 44 3d 52 ac df bc
       -0.0113338195 0.0053242184 0.048028897 -0.027303848
000240 67 e1 6c bb 91 35 ef 3d f7 56 4a bb 41 bf b9 3d
       -0.0036145092 0.11680139 -0.003087459 0.09069682
000250 57 36 87 3d f8 d3 02 bd 16 0d b8 3d 93 c3 80 3d
       0.066021614 -0.03194043 0.08986871 0.06287303
000260 29 17 e6 3c 33 20 89 bd 83 d7 62 3d d7 08 c0 3d
       0.028087215 -0.06695595 0.05538131 0.09376686
000270 60 84 a0 3d 13 4e fb bb 69 82 20 3d a4 ee 4b 3d
       0.078377485 -0.0076692193 0.03918687 0.049788132
000280 c4 9f 96 bc 0b 6f ad bc 8c d0 72 3c 16 44 c9 bc
       -0.018386729 -0.021171113 0.014820229 -0.024568599
000290 c8 ef d1 3d 1d c1 69 3d 00 f8 3d 3c 68 0f b1 bc
       0.10250813 0.057068933 0.011594772 -0.021613792
0002a0 51 4b 12 bd c2 3e 10 bd a8 d1 43 3c 15 1a 3b 3d
       -0.03571636 -0.0352161 0.011951841 0.04567917
0002b0 f5 d3 00 3d 1b b2 ce 3d 74 7d b1 bb d0 ea 99 3d
       0.031452138 0.10092565 -0.0054165665 0.0751549
0002c0 4f 09 5c 3d 35 2e d1 ba 4a 5a ac 3d 76 96 a7 3d
       0.053719815 -0.0015959205 0.08415659 0.08182995
0002d0 16 af 86 3d 99 55 53 bd f0 28 21 3d d8 5c 4c bc
       0.06576364 -0.051595304 0.03934568 -0.012473308
0002e0 cb 44 5a bc 37 0b af bc a0 3c 25 3d 6b 25 73 bc
       -0.013322066 -0.021367652 0.04034102 -0.014840464
0002f0 2e b2 7c bd 62 c2 6c 3d 39 a8 d8 3d a3 13 48 3d
       -0.061693363 0.057802565 0.10578961 0.048846852
000300 2b b5 97 3d 7c da 43 bd cb 73 18 3d e9 d3 b3 ba
       0.07407602 -0.047815785 0.037219804 -0.001371977
000310 0d 86 33 3d 34 3c 99 3b 8a 63 f4 3d bd bf 75 3c
       0.043829013 0.004676366 0.11933048 0.014999327
000320 5d 45 9d 3d 45 d8 42 3b 70 53 6b 3d 2c 0f 9f 3c
       0.076792456 0.0029730957 0.05745262 0.019416414
000330 79 65 87 3d 1e 7e 28 3d b4 44 c0 3d bb 25 39 3c
       0.06611151 0.0411359 0.09388104 0.0113005
000340 3f 28 c2 3c 2b 7c f1 3c 45 33 68 bc 1a 4f 9e 3d
       0.023700831 0.029478153 -0.01417238 0.07729931
000350 5c e3 07 bc da f3 d1 3d b2 8d c0 3c c0 59 06 3d
       -0.008293953 0.10251589 0.023505066 0.032800436
000360 7f 61 b9 3d da 1f db 3d ef 5e 65 3d 84 86 d2 3d
       0.09051799 0.106994346 0.05599874 0.10279563
000370 b6 28 09 bd 2f e0 df 3b 78 53 d0 3c 74 9a 46 3c
       -0.03348609 0.0068321447 0.025430426 0.012121785
000380 11 09 fb bc c2 2b 47 bd 82 e2 1d 3d 61 9c cd 3c
       -0.030643972 -0.048625715 0.038546093 0.025098981
000390 88 67 4c 3d a4 e8 91 3d 14 39 e9 3d ea 43 0b bb
       0.049903423 0.07124451 0.1138784 -0.0021250197
0003a0 37 bd 29 3d 22 b8 d9 bb 8c 09 24 bd a8 45 ce 3d
       0.041440215 -0.006644265 -0.040048167 0.100718796
0003b0 54 bf 9a 3d 6b 25 9e bc cf db 9a 3d 8f 9a 90 3d
       0.07556024 -0.019304952 0.075614564 0.0706073
0003c0 e2 8e d7 3d 98 4a 88 3d 67 45 a6 3d a8 c7 81 3d
       0.105252996 0.06654853 0.08118706 0.063369095
0003d0 d6 3a 62 3d f7 47 95 3d ab 2c c9 3c 79 9a df 3d
       0.05523189 0.07289117 0.024557432 0.10918135
0003e0 97 c9 b8 bc 4e 0d 5b 3d bf fa e6 3b 11 9f 0e bb
       -0.022557063 0.053479485 0.007048934 -0.0021762291
0003f0 a7 99 e8 3d fa f0 6e bd 1c 7a 8b bd 07 42 ad 3d
       0.11357432 -0.058335282 -0.068104 0.08459859

fc2.bias f4 [64]
000000 f9 15 c6 3b d3 db f3 3d 15 9c 1a 3e f1 68 11 bd
       0.0060451 0.119071625 0.15098603 -0.03550047
000010 8c c9 48 3e 4b c1 9c 3b 6c b3 88 3d 22 36 64 3e
       0.19608134 0.0047837845 0.06674847 0.22286275
000020 92 1b 39 3d 19 23 85 3d cf 2a 41 3c 1a 14 7a 3e
       0.04519231 0.06500835 0.0117899915 0.2442173
000030 bf a0 61 3e 90 97 85 bc 9e 24 67 3e d9 92 19 3e
       0.22033976 -0.016307622 0.22572562 0.14997424
000040 0a ed 83 3a 56 9d 33 3e 9c b7 ec 3d b1 6a 13 3e
       0.001006515 0.17540488 0.11558458 0.14396168
000050 86 b2 9d 3d df f4 9e 3b 6b e4 ee 3c d5 26 95 bd
       0.07700066 0.0048509683 0.029161653 -0.07282797
000060 9a 22 83 3c 61 ef c7 3c 73 50 12 bc e1 24 8a 3e
       0.01600771 0.024406137 -0.008930313 0.2698126
000070 88 09 b4 bc cd f9 fb 3d 86 d1 1a 3d ec 80 17 3e
       -0.021977201 0.12303505 0.037797473 0.14795274
000080 88 6b e4 3c f7 ca 09 3e df 20 a2 bb b1 73 6c 3e
       0.027883306 0.13456331 -0.004947766 0.23091008
000090 f0 99 77 3e 04 04 4b 3e c9 0e 7a 3e 5f 27 63 3e
       0.24179816 0.1982575 0.24419703 0.22182988
0000a0 c7 ee 80 3e d3 ae 16 3e cc c2 cf 3d 6b b2 62 bd
       0.25182173 0.14715128 0.101445764 -0.055345934
0000b0 ee c1 61 3e 80 9f ea 3c 70 81 6c 3e b1 eb 5a 3e
       0.22046635 0.028640509 0.23096251 0.21378972
0000c0 11 0e 61 bd 64 03 be 3c ba 7e 9c 3d 67 02 82 3e
       -0.054945055 0.023194976 0.07641359 0.25392458
0000d0 1e f2 2e bd 83 25 92 bd 4f 37 c2 3d 76 85 07 bd
       -0.04271137 -0.07136061 0.094832055 -0.033086263
0000e0 30 b3 63 3e ed 8c 0f 3d b3 b1 0d 3d eb 9b 0f 3e
       0.22236323 0.035046507 0.034593295 0.14024322
0000f0 65 e2 c1 bd 95 1f 6b bc 5d df 3f 3d fd 2e 18 3d
       -0.094670095 -0.014350791 0.046843875 0.037154187

fc3.weight f4 [6, 64]
000000 32 ce 91 bc 10 8b ab 3e f1 1d bd 3e 68 ae 61 bd
       -0.017798517 0.33504534 0.36936906 -0.055097967
000010 c2 64 ac 3e 3b cd 9e 3d 20 24 2f bd 87 a9 c5 3e
       0.33670622 0.07753988 -0.04275906 0.38605902
000020 79 b8 99 3d 1a 16 21 3e ff bc 8c 3d 29 f4 be 3e
       0.075058885 0.15731087 0.06871986 0.37295654
000030 1b 39 ac 3e fa 37 d8 bd f0 53 01 3f 08 a2 69 3e
       0.33637318 -0.10557552 0.50518703 0.22815716
000040 eb 1c ce bd 1f 04 db 3e d0 96 b1 3e 88 53 b4 3e
       -0.100641094 0.42776582 0.34685373 0.3521998
000050 ee ff 3a 3e e3 74 60 3e d7 0f 9f bc 41 1d 36 3c
       0.18261692 0.21919589 -0.019416733 0.011115373
000060 50 bc cc 3c b3 82 8c bd a4 39 b3 3d 12 c1 d7 3e
       0.024992138 -0.068608664 0.087512285 0.42139488
000070 94 13 93 3d 54 8f b7 3d 07 36 98 bd 1e 82 c0 3e
       0.071814686 0.089628845 -0.0743218 0.37599272
000080 a4 c1 7f bd 2d 2c 1a 3e 39 e9 4d 3d c1 08 95 3e
       -0.06244053 0.15055914 0.050271247 0.2910824
000090 d2 ad e8 3e 64 9a c2 3e a7 c5 e1 3e 5b d8 bf 3e
       0.45445114 0.38008416 0.4409611 0.37469754
0000a0 19 6e d6 3e 13 ce 84 3e a5 1d 82 3e bd 03 9c bc
       0.41880873 0.25938472 0.25413242 -0.019044751
0000b0 28 a6 bf 3e ff 80 b7 bd ba 5d e1 3e 6f 43 ab 3e
       0.37431455 -0.08960151 0.4401682 0.33449885
0000c0 90 f8 82 bd 7e e3 16 3e ea 3d a2 3e 42 8d c4 3e
       -0.06395066 0.14735219 0.31687862 0.3838902
0000d0 50 b9 c1 bb 6a 0a ad 3c 1e 86 5e 3e 30 a4 c9 3d
       -0.0059119835 0.02112313 0.21730849 0.098457694
0000e0 3e dd e8 3e 57 d6 e9 bc f0 66 c0 bd be 0e b8 3e
       0.45481294 -0.028544588 -0.09394634 0.35948747
0000f0 46 c0 b7 bd 43 85 bd 3d df f7 2a 3d 8f c2 63 3e
       -0.0897222 0.09253933 0.041740295 0.22242187
000100 2f b2 79 bb 96 3d df bd 72 cf 75 bd 78 e3 98 3d
       -0.003810059 -0.109004185 -0.06001229 0.07465261
000110 66 ab 4f 3d ba d5 d0 bd 9c d0 0f 3d 76 b7 c8 3c
       0.050700568 -0.10197015 0.035111055 0.024501543
000120 f0 c7 96 bb 28 47 01 3d 4b a0 ac bd 0b 4b a1 3d
       -0.004601471 0.031562 -0.08429011 0.078756414
000130 bf ae f5 bd 88 3e 86 bb ac a7 a6 3c e9 21 91 3d
       -0.11996221 -0.00409681 0.020343624 0.07086546
000140 42 96 3e 3d 52 48 82 bd 97 f2 15 3d 16 56 af ba
       0.046530016 -0.0636145 0.036608305 -0.0013377096
000150 3c dd 05 3d 86 51 a8 3d fb 02 91 bb 3c e4 c2 3d
       0.03268169 0.08218674 -0.004425404 0.095161885
000160 55 bc bb 3d 40 0d 6b bd d0 5c 4b bd 2d dc e0 3b
       0.09166781 -0.057385683 -0.04964906 0.0068621845
000170 86 4a 73 3d 85 df 02 be 36 99 ec bd 19 0f 55 3d
       0.059397243 -0.12780578 -0.1155266 0.05201635
000180 38 99 af 3d 83 dc d2 bd 39 f5 ff bc 4a 0a 3e bd
       0.08574146 -0.102959655 -0.031244861 -0.04639653
000190 a5 23 c8 bd 5e d0 3a 3d 98 36 f8 bc 3e 61 8d bd
       -0.09772424 0.04560887 -0.03029947 -0.06903313
0001a0 c8 cd e0 bd 33 33 a3 bb 64 06 d9 3c 3c 41 93 bd
       -0.1097675 -0.0049804687 0.026492305 -0.07190177
0001b0 27 0b 62 bd d2 51 aa 3d d2 4a c4 bc 77 04 10 bd
       -0.055186417 0.08316387 -0.023961458 -0.035160508
0001c0 27 94 81 bd e4 41 a0 bd 6c 16 61 bd a8 ae 98 3c
       -0.06327086 -0.07825068 -0.054953024 0.01863797
0001d0 6b ee d0 3d 77 b1 a4 3b d1 65 da bd f4 23 fe bd
       0.102017246 0.0050260383 -0.10663951 -0.12409201
0001e0 e8 11 6a 3d 60 be cd bd ae 45 0f 3d c9 a2 5a 3d
       0.057145983 -0.10046077 0.03497856 0.0533779
0001f0 50 a6 8b 3d aa c8 0f be 9d 8a fb bc c7 b3 8d bd
       0.06818831 -0.14041391 -0.030705744 -0.069190554
000200 3c 07 81 bc 1d 40 db bd 15 68 8c bd 94 fe a4 3d
       -0.01575052 -0.10705588 -0.068557896 0.080563694
000210 80 5e df bd 6a 64 0e bc 5f 78 df bb 86 5d ec bd
       -0.10906696 -0.008690933 -0.0068197693 -0.11541276
000220 41 a6 d5 bd 00 cb 27 be 5e 4c 0e be a4 d1 0c be
       -0.10432101 -0.16386032 -0.1389632 -0.13751847
000230 72 21 0b be 40 8a a9 bd 77 e1 29 bd c4 b3 df bd
       -0.13586977 -0.08278322 -0.041474786 -0.109229594
000240 cf d0 e8 3c b6 83 1a be dc 15 39 bd c1 57 01 be
       0.02841988 -0.15089306 -0.045186862 -0.12631132
000250 90 b5 33 bd 3c 4a 8f ba 7d 4f d0 bd 49 ba d5 3d
       -0.043874323 -0.0010932158 -0.10171411 0.10435922
000260 ec 59 ca bd 1d 2a c3 bd d1 23 c0 3d 59 d8 3c be
       -0.098804325 -0.09529517 0.093818314 -0.18441905
000270 00 e0 07 3d 06 c2 5e bd 9c 9a 61 3d 71 2f 31 be
       0.033172607 -0.054384254 0.055079088 -0.17303254
000280 e6 88 ca 3d 52 f5 5b bc 5e 77 fb bc 77 1a ce bd
       0.098893926 -0.013425188 -0.030696567 -0.100636415
000290 67 47 11 be c6 5f 55 bd 53 1a ce bd 9d 63 20 be
       -0.14187394 -0.05209329 -0.10063615 -0.15663
0002a0 fa 43 22 be 80 d9 ef bc a4 a3 87 bd 42 ff a0 3d
       -0.15846244 -0.029278517 -0.06623009 0.078611866
0002b0 31 c3 17 be 5f 87 08 bc 74 d2 e6 bd 93 21 97 bd
       -0.14820553 -0.008333056 -0.112706095 -0.07379451
0002c0 23 28 94 bc ee 99 0b bc 74 7b a1 3c 6f a5 6f bd
       -0.018085545 -0.008520586 0.019712187 -0.05850738
0002d0 ba 41 55 bd 30 69 e2 3d d6 3f c8 bd 74 48 1d 3c
       -0.052064635 0.11055219 -0.09777801 0.009599794
0002e0 5f 96 ca bd 6f 2b fa 3c 6d 09 ba 3c 3c b3 12 be
       -0.09891962 0.030538289 0.022709573 -0.14326185
0002f0 5c c3 f1 bd 4e 35 2e 3d da de 6b 3d a9 89 f1 3c
       -0.1180484 0.042531304 0.057585575 0.029484587
000300 0b e0 b8 bc 3b 93 b4 bd a2 39 ec bc bb 4c af 3d
       -0.02256777 -0.088171445 -0.028836075 0.08559557
000310 d0 0a e3 3c 63 21 f7 bd 21 94 e2 3d c8 32 23 be
       0.027715117 -0.12066915 0.110634096 -0.1593734
000320 69 fe bd bd e0 92 8f bd 2c aa 1b bd 58 71 86 bd
       -0.092770405 -0.07010436 -0.038004085 -0.06564587
000330 4c 3a 02 3d a1 01 b9 3d ef 2a 3b bd 26 49 81 3d
       0.031793877 0.09033514 -0.04569524 0.0631278
000340 5b 4a a3 bd 96 40 19 bc 2f 78 13 3d 6c ec f8 bd
       -0.079731666 -0.009353777 0.036003288 -0.12154469
000350 a4 1b e5 3c 32 cb a3 3d 02 e1 dd 3b ad 89 71 bd
       0.027967282 0.07997741 0.006771208 -0.05896919
000360 70 2d 38 bd 8e d7 ca 3c 71 93 d9 3d b9 05 10 be
       -0.044965208 0.024760988 0.10623825 -0.14064683
000370 28 a6 5d bd cd 41 1b 3c fd 2a eb 3d 29 8e fa 3c
       -0.054113537 0.009476137 0.11482809 0.030585365
000380 e9 57 22 bd b9 a8 16 3d f9 46 08 3d 27 8c cb bd
       -0.03963462 0.036782 0.03327081 -0.09938841
000390 60 fd bd bb c1 22 f8 bd 4a 93 e4 bd 83 fa 12 be
       -0.005798027 -0.12116004 -0.11160906 -0.14353375
0003a0 e6 4e 94 bd 1a 22 41 3d f8 26 60 bd f7 74 af bc
       -0.07241611 0.047151662 -0.054724663 -0.021418078
0003b0 f2 2b a8 3c 38 38 be 3d f2 1f e7 bd 25 fa 37 bd
       0.020528767 0.092880666 -0.1128539 -0.04491629
0003c0 a9 be b2 3c 9e 34 82 bd 8a 98 0c be e4 40 86 bd
       0.02181943 -0.06357692 -0.13730064 -0.06555346
0003d0 96 89 3b bd c6 39 d2 3d da e2 87 bd 26 5c 0d 3d
       -0.04578551 0.10264926 -0.066350654 0.034511708
0003e0 e4 a9 b2 bc 93 6e 8a bc 25 c1 51 3d 74 59 15 3c
       -0.021809526 -0.016898429 0.051209588 0.009115566
0003f0 52 9a 9d bd 5d cf 5a bd 91 a3 84 3d 2d db 1b bd
       -0.0769545 -0.053420413 0.0647651 -0.03805082

fc3.bias f4 [6]
000000 c6 40 83 3f 9e c6 c5 bd db bc d2 be 93 00 06 be
       1.0254142 -0.09657024 -0.4115971 -0.13086157
000010 58 df 5d bd 9b 2f a0 be
       -0.054168075 -0.3128632

fc4.weight f4 [128, 1280]
000000 86 79 58 3c 20 0e e8 bb 05 4e 3f bc 15 95 e6 bb
       0.013212567 -0.007081762 -0.011676316 -0.007036815
000010 4f 34 ba bc 1d 45 0a bc 02 0a 2d 3d 9a bc 90 3c
       -0.02273002 -0.008439329 0.042245872 0.017668057
000020 e5 59 d6 3b 5d d0 0a 3c 9b 0a a1 3c d7 ff ec 39
       0.006541478 0.008472529 0.019658377 0.00045204043
000030 c4 64 92 3b 34 56 84 3c 8d bb ef bb a9 09 3a bc
       0.0044675786 0.016154386 -0.007316059 -0.011354842
000040 15 43 10 bc a1 67 cd b8 fc 44 0e 3c ab 0f 77 3b
       -0.008805056 -9.794464e-05 0.008683439 0.0037698548
000050 3d 40 ad bc c0 fb 1e bc 14 bf bc bc 8b 63 31 3c
       -0.021148795 -0.009703577 -0.023040332 0.010826956
000060 da fa df 3b 38 b6 e6 3c e3 3e 04 3d d0 ba 8b bc
       0.0068353238 0.02816306 0.032286536 -0.017056853
000070 3f 1b f3 3c c0 1a 3c 3d 37 40 02 3d 11 fd 0a 3c
       0.029676078 0.04592395 0.03179952 0.008483187
000080 ee 66 7a 3b 2d e0 97 bc 07 d2 ab 3b bc b5 21 bd
       0.0038208324 -0.018539513 0.005243543 -0.039479956
000090 59 25 ec 3c 62 82 f4 bc 48 84 97 3c c4 15 af 3c
       0.028826403 -0.029847328 0.018495694 0.021372683
0000a0 be c7 b7 bc 27 d5 d9 3c 65 bc f3 bc fa 09 65 3c
       -0.022434112 0.026590897 -0.02975292 0.013979429
0000b0 ee 2f a2 bc fd 21 49 3c db 9c 10 3d c0 b8 df bc
       -0.019798245 0.01227617 0.03530584 -0.027309775
0000c0 e4 6b 98 3a 62 86 4a 3c c6 34 7e bc 38 5a a3 3b
       0.0011628834 0.012361141 -0.015515512 0.00498512
0000d0 ba 1e 1c 3b be 6d 30 bc 63 53 02 3c f7 26 fb bc
       0.0023822025 -0.010768352 0.007954451 -0.030658228
0000e0 42 1a 7f 3c ba 28 af 3c fc 4e 82 3c 74 a8 05 bd
       0.015570225 0.021381725 0.015906803 -0.032631353
0000f0 0b 27 cf bc ca 37 a9 3c 9b c9 4a 3c 8b 20 20 3c
       -0.025287172 0.020656485 0.012377168 0.009773384
000100 5a 6a 00 3c 77 74 a9 3c 33 da c9 3b a0 e1 67 bc
       0.007837856 0.020685418 0.0061600446 -0.014152914
000110 d0 2b 91 3c 88 ba 31 bc 14 93 47 bb 6b b9 b3 3b
       0.017721087 -0.010847695 -0.0030452656 0.00548475
000120 bc d7 0a 3c 4d 86 5b bb 2c da 9d 3b 7a 05 92 3c
       0.008474287 -0.0033496798 0.004817268 0.017824877
000130 ed 46 ae ba 5b 8c ef 3c 47 03 f2 b8 a4 f5 3c 3c
       -0.0013296284 0.029241731 -0.0001154007 0.011533175
000140 80 06 59 bc 93 91 5c bc f2 fd 84 bc 37 65 ab bc
       -0.013246179 -0.013462442 -0.016234372 -0.020922286
000150 8f d3 01 3d 76 bd 05 bd 66 43 20 3c 0c 13 63 3c
       0.0316959 -0.032651387 0.009781694 0.013859522
000160 a0 52 9c bc a1 fe a8 bb 4b b3 47 bc 3a 56 8a 39
       -0.019082367 -0.0051573073 -0.012188743 0.00026385655
000170 fd ae 31 bc db 6e f0 bc b2 5e d5 3a b8 5d 4d bc
       -0.010844943 -0.029349735 0.0016278832 -0.012534551
000180 82 a6 ba 3c 87 5b 81 3c c9 3f 08 bd 98 d4 6d 3c
       0.022784475 0.015790714 -0.033263955 0.014516018
000190 40 6f bb bc bd 39 7a 3b d6 f5 19 3d 9c 43 34 3b
       -0.022880197 0.0038181387 0.037587963 0.0027506119
0001a0 3b 01 1c ba 2f 94 42 3d c7 d0 de 3c c7 48 de 3c
       -0.0005951111 0.0475046 0.027199162 0.027134312
0001b0 6f 2a e3 3c cc c0 01 3d 35 84 98 3c e1 84 a5 3c
       0.027730195 0.031678006 0.018617729 0.020204963
0001c0 be 1f 93 3b 95 bf 71 bc 50 97 86 bb 18 e5 aa 3c
       0.004489868 -0.014755149 -0.0041073933 0.020861194
0001d0 9d 53 ef 3c 8c a5 07 bd 90 96 0a bc 4a ed 21 3a
       0.029214675 -0.033116862 -0.008458748 0.00061770214
0001e0 8f 3c b1 bc 46 58 cb bc 84 c3 3c 3c 47 7d a8 bc
       -0.021635322 -0.024822365 0.011521224 -0.02056755
0001f0 8a ff b0 3b 7b ba e4 bc a5 75 1a 3c 6d c1 88 bc
       0.0054015564 -0.027920952 0.009427463 -0.016693795
000200 ff bf fa bc c0 1b 45 3c 55 6d 76 3c e0 8e 7d 3c
       -0.030609129 0.012030542 0.015040715 0.015475959
000210 ae 30 9f bc c6 9b 52 bc 82 97 d6 bc 7d fd e2 bc
       -0.019432392 -0.012854522 -0.026195291 -0.027708763
000220 2e 14 8b bc bf f6 b0 bc 80 92 06 3c 2c 46 6f bc
       -0.016977396 -0.021602033 0.008213639 -0.014604133
000230 cc 12 9d ba ab c6 05 3c 6b a2 0f bb 11 cb 62 ba
       -0.0011983751 0.008165042 -0.0021916877 -0.0008651475
000240 64 ed 45 3c 78 df b9 3c ef 91 95 bc 54 f7 5a bc
       0.012080524 0.022689566 -0.018258063 -0.013364632
000250 40 bb b7 3c db ee da bc a4 e0 74 3d 69 ee 11 bb
       0.022428155 -0.026725223 0.059784546 -0.0022267348
000260 27 78 2d 3d 76 c1 e7 3c d9 d9 de bc 96 4c cc 3a
       0.042350914 0.028290492 -0.027203487 0.0015586789
000270 bf 6a b1 3c 3f 68 1d 3b de ec a4 bb 27 b4 b6 bc
       0.021657346 0.0024018434 -0.0050331196 -0.0223027
000280 be cb be 3c 71 2a 93 3c e8 3a f2 3b fa 89 8f bc
       0.023290511 0.017964574 0.007392276 -0.017521847
000290 63 55 43 39 97 71 05 3c ae 92 ac bc a7 2e 15 3c
       0.00018628458 0.008144758 -0.021066036 0.009105361
0002a0 f9 9c aa 3a 2f de 39 b8 7a 26 e4 bb b5 4d 1e 3c
       0.0013016752 -4.431436e-05 -0.0069625946 0.0096620815
0002b0 16 4c 74 3c e7 52 f9 bb 4f bf a1 3c 0a 2c 5f 3b
       0.014910718 -0.0076087597 0.019744543 0.003405335
0002c0 ff 77 4f 3c 0c 0b f8 bb 79 4c ef bc 51 60 37 bc
       0.012662887 -0.0075696763 -0.02921127 -0.011192397
0002d0 10 d5 61 3b fe 8f a5 bc 27 49 c0 3c e5 eb aa bb
       0.003445927 -0.020210262 0.023472382 -0.005216109
0002e0 b4 0c f7 3c f2 f0 ff bc 45 37 0a 3c 62 ff 82 3b
       0.030157425 -0.031242821 0.008436029 0.003997729
0002f0 17 66 c0 bc 75 88 21 bd b2 b0 9b 3c 7d 33 fe 3c
       -0.02348618 -0.039436776 0.019005153 0.03103041
000300 76 6f 1e 3d b9 41 99 3c 92 7c 35 bb 6a a4 22 3c
       0.038680516 0.018708097 -0.0027692658 0.009926895
000310 df c2 04 3b 65 eb dc 3c e2 e5 09 3d b5 bb 0b bd
       0.0020257754 0.026967714 0.0336665 -0.03411456
000320 df 86 95 3c b4 89 3c bc 76 68 09 3b bf 5d 13 bc
       0.018252788 -0.01150744 0.0020966805 -0.008994519
000330 63 2d 96 3c eb 9f 17 bd 3b 86 97 3b a9 78 f1 3c
       0.018332189 -0.037017744 0.004624156 0.02947648
000340 97 83 30 3c 28 36 f6 3c e8 20 05 bc 12 ca 56 bc
       0.010773561 0.03005512 -0.008125521 -0.013109701
000350 1b 36 55 3c 06 78 ba bc ce 58 0e ba 18 18 1c bd
       0.013013388 -0.02276231 -0.0005430103 -0.038108915
000360 26 52 4d 3c 53 55 11 39 e5 75 d8 bc 9c c4 7b 3c
       0.012531793 0.00013860063 -0.026423404 0.0153667
000370 f3 b0 ee bc 8e 76 bd bc d4 6c d0 3c 6b a1 86 3b
       -0.02913711 -0.02312782 0.025442518 0.004108598
000380 91 a9 db 3c 2e db 12 bc a1 06 33 3c cd 04 99 bc
       0.026814254 -0.008963389 0.010926873 -0.018679047
000390 05 40 73 bb 8a c0 9f bb b7 5f fd 3c 25 63 a6 bb
       -0.0037117016 -0.0048752474 0.03092943 -0.005077737
0003a0 4c 3d 1e 3d 63 df e8 b9 71 42 f3 bc b4 20 de 3b
       0.038632676 -0.00044416924 -0.029694768 0.006778801
0003b0 ce 7a 51 bc d7 4b ef bc 84 30 8f bc 74 6c 80 bc
       -0.012785627 -0.029210968 -0.017479189 -0.015676714
0003c0 aa ff dd 3c c2 0e 36 bc fb 2b 85 bb c9 d8 7f bb
       0.02709945 -0.011111917 -0.004064081 -0.0039039126
0003d0 c4 ac 19 3d 05 85 2a 3c 12 31 55 3a 6e 78 48 3c
       0.037518278 0.010407691 0.0008132617 0.012235744
0003e0 36 51 87 bc 69 79 21 bc 68 fa 21 3b d1 de 70 bc
       -0.016518217 -0.009855607 0.0024715904 -0.014701561
0003f0 a8 4d 78 3c fd 31 6b 3c 15 1b 49 bb 69 a9 dd bb
       0.015155233 0.01435518 -0.0030686308 -0.00676458

fc4.bias f4 [128]
000000 90 d3 db 3b 74 ef 24 bc ab 82 e5 bc a2 d4 a8 bc
       0.00670857 -0.010066856 -0.028016409 -0.020609204
000010 22 f5 85 bc 4b fe 0e bd bb dc 22 bd 11 a1 9a bd
       -0.01635224 -0.03491048 -0.039761286 -0.07550252
000020 66 c1 4e bd e5 73 3e bd 28 cb a5 bc d9 bc 23 bc
       -0.050477408 -0.046497244 -0.020238474 -0.009993755
000030 a8 d8 7c 3d ca 70 0d bc 47 a3 ae bd 39 fa 11 bc
       0.061730057 -0.008632848 -0.085272364 -0.008909755
000040 7d c0 f1 bc a7 58 67 3b 73 69 b4 bc 06 0f 80 3d
       -0.02951073 0.0035300644 -0.022022938 0.062528655
000050 ec 5e 6e bc d3 b0 ed bd d1 18 cf bc d4 09 6a bc
       -0.014548998 -0.11605992 -0.025280388 -0.01428457
000060 61 e7 70 bc a0 37 d2 bd 1e b2 c5 3b 44 40 78 bd
       -0.0147036025 -0.10264516 0.006033196 -0.060608163
000070 28 2d 28 bd 51 23 0d be 71 08 cd ba 66 e9 aa 3a
       -0.04105869 -0.13783003 -0.0015642775 0.0013039529
000080 2b e3 0a 3d 54 bc 89 bd d4 5e 21 3c c1 ac 1c bd
       0.03390805 -0.06725374 0.009849269 -0.03825069
000090 21 a3 e7 bc 0f 83 ec bc 43 b2 0f ba 73 1a f1 bc
       -0.028276028 -0.028871087 -0.000548158 -0.029431557
0000a0 08 76 4e 3d 81 72 07 be 24 68 87 bd b4 35 a3 bc
       0.050405532 -0.13227274 -0.0661166 -0.019923069
0000b0 fd be 90 bd e9 19 85 3c 0f c0 85 3d 6d 82 d1 bc
       -0.07067678 0.016247706 0.06530773 -0.025574887
0000c0 05 4e 76 bd c2 16 28 bc db e4 18 bb f2 9a 39 bd
       -0.060133 -0.010259332 -0.0023329768 -0.045313783
0000d0 e4 15 c2 3c 75 a6 b4 bd 8c 4c ab bc bf 79 84 bd
       0.023692079 -0.08820812 -0.020910524 -0.06468534
0000e0 e0 ee c8 ba 1e bf 35 bd 9a 75 23 3c dc 9b e8 3c
       -0.0015329979 -0.044371717 0.009976769 0.028394632
0000f0 f0 02 0a 3c 99 a2 8c bd 74 a7 83 bd 7f 06 a8 bc
       0.008423552 -0.068669505 -0.064284235 -0.02051091
000100 2b a1 b5 bd 87 70 15 3d 85 65 7c 3d 47 b0 ab 3c
       -0.08868631 0.036484268 0.061620254 0.020958079
000110 f9 57 39 bd 67 57 bd 3c 74 5a c0 3c 50 3a 97 bc
       -0.045249913 0.023112966 0.023480631 -0.018460423
000120 72 4d 3d bd 38 47 5d bd 2c 62 45 3d bc 05 ef bb
       -0.046216436 -0.054022998 0.048189327 -0.0072943848
000130 d8 7c 0c be e0 d1 23 3d 54 17 85 bd 31 57 84 bd
       -0.13719499 0.039995074 -0.0649859 -0.06461943
000140 dc 18 d6 bc 0b 6e 79 bd 55 4d de bc 67 64 7b bd
       -0.0261349 -0.06089596 -0.027136484 -0.061375048
000150 9d ba 88 bc 47 74 af bd 98 3e 67 bc 9a 34 92 3b
       -0.016690547 -0.085671 -0.014114045 0.004461837
000160 b7 a0 30 3b 73 b2 fd bd 9a 1d 6e 3d 90 e0 7f bd
       0.0026951262 -0.12387552 0.0581337 -0.06247002
000170 42 f5 92 3d 37 b8 3d 3d 38 8f bb bc 04 5c 91 bc
       0.071756855 0.04631826 -0.02289544 -0.017744072
000180 fc fe 90 bc 08 ef 90 bd 3d f9 e1 bc 05 41 92 bd
       -0.017699711 -0.070768416 -0.027584666 -0.07141308
000190 de e2 d3 3c 97 52 28 bd b0 75 b9 bc 35 50 a6 bc
       0.025865015 -0.04109439 -0.022639126 -0.020301918
0001a0 7a a9 8e bc d5 19 ce bb 09 f3 2b bd f7 4a 0d 3d
       -0.017414797 -0.0062897005 -0.041979823 0.03449532
0001b0 8d 15 3d bd b4 26 8b bd 93 75 d0 bc 60 d9 88 bd
       -0.04616313 -0.067944914 -0.025446689 -0.06682086
0001c0 6f 09 22 bc 5c 3e 35 bc 5f 65 b3 bd e2 6b 76 bc
       -0.009889944 -0.011062231 -0.087595694 -0.01504037
0001d0 ce d6 d7 3d 71 81 2e 3c e3 1e 29 3c 07 0e e3 bc
       0.105390176 0.010650978 0.010322305 -0.02771665
0001e0 14 10 85 3d 8d f4 2b 3d a3 67 af bc da 5f c9 bb
       0.06497207 0.04198127 -0.021411723 -0.0061454596
0001f0 39 93 8e bc e1 ca d2 bc 78 be 90 3d 84 8c 82 3c
       -0.017404186 -0.025731506 0.07067579 0.015936144

fc5.weight f4 [64, 128]
000000 f2 e0 f1 3d 13 ed 97 bc 0f 20 07 3d 2e a7 20 3e
       0.11810483 -0.018545663 0.032989558 0.15688774
000010 84 e4 a5 3c f6 74 9c bd 34 c4 bc bd 01 ba 80 3c
       0.020250566 -0.07639496 -0.0921711 0.015713694
000020 59 24 1a 3b e9 7d 84 3d 9b 50 6f bd 97 2d 66 3d
       0.00235202 0.06469328 -0.05842648 0.05619582
000030 b0 5b f5 bd fc 0f 35 3b 81 22 f3 bd 0d 1f 28 3e
       -0.11980379 0.0027627936 -0.118718155 0.16418095
000040 3d 0d 09 3e e0 73 01 bd 19 1e 8e bd b0 46 22 bd
       0.13383956 -0.031604648 -0.069393344 -0.039618194
000050 7f ef 45 3d 65 e0 dc bd e7 b5 89 3b a5 ac ed 3d
       0.048324104 -0.10784987 0.0042025927 0.11605195
000060 33 46 31 3d 02 76 fb 3d 94 1b 44 bd d5 33 15 3e
       0.043279838 0.122783676 -0.047877863 0.14570554
000070 ad 58 d9 3d a9 67 f0 3d dc d8 39 bd 06 b4 cf bd
       0.10612617 0.117385216 -0.04537283 -0.101417586
000080 37 ea 96 bd 4c dc b8 3d 67 81 a1 3c 01 ec 1b 3d
       -0.07368892 0.09026393 0.019715024 0.038066868
000090 98 27 ff 3c ca a0 ed b9 73 a3 85 3c fd 88 40 3d
       0.03114681 -0.0004532396 0.01631329 0.047005642
0000a0 2b 71 4a bb dd d6 df 3d 0a 16 85 3e ad 2b 26 3e
       -0.0030890207 0.10929654 0.25993377 0.16227598
0000b0 25 7c 9f 3c 98 e4 05 be df 17 02 be 4f 24 29 bd
       0.019468376 -0.13075483 -0.12704419 -0.041294392
0000c0 c1 21 59 3c 42 7a 9f 3b 1f c1 69 3d 81 18 dc 3c
       0.013252676 0.004866869 0.05706894 0.026867153
0000d0 18 e0 0e bd 63 22 64 bd 0d 6f ba bc 3c aa 16 3e
       -0.03488168 -0.055696856 -0.022758031 0.14713377
0000e0 50 87 76 3d d5 63 a9 3d 69 39 83 bd a2 36 d4 bd
       0.060187638 0.082709946 -0.064074345 -0.10361983
0000f0 90 06 a3 bc e8 69 43 bd 70 84 0c 3c 00 48 b8 bd
       -0.01990059 -0.047708422 0.008576497 -0.08998108
000100 58 e3 69 3d fe a9 3a be 93 1a 75 bd ee b8 37 bc
       0.057101578 -0.1822891 -0.059839796 -0.011213524
000110 4d b1 95 3d 52 e5 b9 bd 1e 06 b3 bd a8 11 9d 3d
       0.07309208 -0.090769425 -0.08741401 0.07669383
000120 24 95 c3 3d 49 4f 7e 3d 11 c6 a5 3c 7d c5 34 3e
       0.09549931 0.06208733 0.020236047 0.17653461
000130 fb 4f 98 bd 77 92 a5 bd e8 5b b2 bd ae 17 ef 3c
       -0.0743713 -0.080845766 -0.08708936 0.029186096
000140 2c a3 11 3d 9e a9 80 bd a6 5b 3c 3d da 7f 90 bd
       0.035556003 -0.06282352 0.04598584 -0.07055636
000150 a8 ec bb bd ba 3a a9 3b ba cf 26 3e ec 97 e4 bc
       -0.09175998 0.0051644715 0.16290179 -0.027904473
000160 94 09 64 3c a0 49 fe 3d 6f 08 24 be a7 40 d3 3d
       0.013918299 0.124163866 -0.16018842 0.10315066
000170 e4 46 ef bd cd 91 83 bd 8c 01 a1 3d 05 be 02 bc
       -0.11683443 -0.06424294 0.07861623 -0.0079798745
000180 6b 06 09 3d c9 6e 66 3d 46 cd fa 3c ec ee 6e 3d
       0.033453386 0.056257997 0.03061546 0.058333322
000190 3c b9 8d bd 14 c0 90 3c 0e be bc 3d 7d cd fa bc
       -0.06920096 0.017669715 0.092159376 -0.030615563
0001a0 06 ae 3f 3c 63 1e 86 3d b1 08 90 3c 84 bc 95 3d
       0.011699205 0.065487646 0.01758227 0.07311347
0001b0 cd 54 6e 3d af ed 31 3d 47 f5 66 3d 63 63 24 3d
       0.05818634 0.043439563 0.05638626 0.040133845
0001c0 33 81 6d 3d 32 4b 65 bc 86 9c 4c 3d 70 33 8a 3d
       0.057984542 -0.013994979 0.04995396 0.06748092
0001d0 81 ac 01 be 6d c0 50 be b8 bf a7 3d 93 79 60 3d
       -0.12663461 -0.20385905 0.08190864 0.054803442
0001e0 fa 8b e5 bd bb 8f 15 3e c1 e8 d3 3d dc 77 28 3d
       -0.11208339 0.1460561 0.10347129 0.04112993
0001f0 0d ef 84 bd b0 32 08 3e 9d 7c d5 bb 68 20 ef bd
       -0.06490908 0.13300586 -0.006515099 -0.11676103
000200 8d fc 8d 3c e5 db 80 3c 31 fb ab 3a d9 cd ab 3d
       0.01733234 0.015729854 0.0013121126 0.08388872
000210 65 17 30 3c 91 cd 74 bd c5 02 0f 3e 6a 3d 26 3e
       0.010747765 -0.059766356 0.139659 0.16234365
000220 7e 46 cf bd fd af 8d bc fa b6 a8 3d ff 6f 88 3d
       -0.10120867 -0.017295832 0.08238025 0.066619866
000230 cb 1c ab 3d 91 db 78 bc e0 a6 8e bd a9 0b c7 bd
       0.08355101 -0.015189067 -0.06965423 -0.09719021
000240 bf 4b 7f 3d 49 ca 0c 3d 69 5f da 3c cc 06 26 3d
       0.062328096 0.0343726 0.026656823 0.040533826
000250 26 49 f8 bd 39 fc d2 bd b6 0f 21 3d 3d 3e c0 bd
       -0.12123327 -0.10302014 0.039321624 -0.09386871
000260 eb 41 bd bd b0 f1 23 bd d2 3e ee 3c f1 0e 5c 3d
       -0.092410885 -0.040025413 0.02908269 0.053725187
000270 f1 f6 4b bc a2 f8 52 3d f9 a8 a9 bd 81 8e e1 3c
       -0.012449012 0.051506646 -0.08284182 0.027533771
000280 87 31 c8 bd 2e 6d 93 3d 14 3a 45 bd 1f 83 a7 bd
       -0.097750716 0.07198559 -0.04815109 -0.08179306
000290 92 fd e5 bc 07 9a 46 bd f4 74 95 bc d0 78 b3 bd
       -0.028075013 -0.048486736 -0.018244244 -0.087632775
0002a0 45 5e 78 bd e0 26 89 3c a6 b3 4c bd f6 a2 c3 bb
       -0.060636777 0.01674217 -0.049976014 -0.005970354
0002b0 2c 9c dd bd 51 4f 61 bd 13 87 8b bd 04 6e b9 bd
       -0.10820803 -0.055007283 -0.06812873 -0.09054187
0002c0 53 27 34 bd 21 fa c4 bc d1 7c e0 bb 4b 87 ea bc
       -0.043982815 -0.024045052 -0.006850817 -0.028628966
0002d0 29 b5 79 3d 60 53 3c 3e 16 34 7a 3d fc e0 95 3c
       0.060963783 0.1839118 0.06108483 0.018295757
0002e0 2e c9 f7 3c 6f 7d 93 bc 9c a9 a1 bb f4 70 fe 3c
       0.030247297 -0.018004147 -0.004933549 0.03105972
0002f0 f5 ad 64 3d 78 63 a0 bd ce 9a 45 3e 89 ff be 3d
       0.05582996 -0.07831472 0.19297335 0.09326083
000300 90 3b fa bb d2 85 79 bc 0d 2c ef 3a 81 6f 95 bd
       -0.007636495 -0.015229659 0.0018247381 -0.07296658
000310 72 f2 88 3c 94 5b b9 3c 92 3e 03 be 30 a9 58 bd
       0.01671717 0.022626676 -0.12816837 -0.052895725
000320 93 45 c3 bd 40 51 3a 3d 6c 09 c5 bd 4a 13 4f bd
       -0.095347546 0.045487642 -0.09620938 -0.050555505
000330 a6 75 01 3e 22 d5 6b 3d e7 c0 bc 3d df ce 72 bd
       0.12642536 0.057576306 0.09216481 -0.05927932
000340 47 6a 7e bc 9e f3 71 bb cb 11 6f 3d 44 44 4a 3d
       -0.015528268 -0.0036918889 0.058366578 0.04938151
000350 36 c0 b5 bd 48 7c ea bd 0f fe 85 3d ec 12 ca bd
       -0.08874552 -0.11449486 0.065425985 -0.0986689
000360 16 57 ab bd 1d d2 88 bd e2 6c 3f 3c d9 54 84 bd
       -0.0836622 -0.06680701 0.0116836745 -0.06461496
000370 79 21 d7 bc 36 ed 4e 3d 79 1d 3f 3b 7c bf bc bd
       -0.026261078 0.05051919 0.0029161854 -0.0921621
000380 e4 a7 5c bc 37 02 e1 3c 7f 2e 97 bd ae 77 b4 3b
       -0.013467763 0.027466876 -0.07381915 0.005507431
000390 49 97 e9 3c 6e 9b b5 bd 3a a5 11 3e fa 63 96 3d
       0.028514521 -0.088675365 0.14223185 0.07343288
0003a0 36 53 f3 bc 48 c4 29 3d da 90 9f b9 46 c6 1f 3d
       -0.029702764 0.041446954 -0.00030434766 0.039007448
0003b0 3c 22 c3 bd 4e 3c 07 3e d1 5d 74 3d 8d 5d 7b bd
       -0.09528014 0.13206598 0.059659783 -0.061368514
0003c0 fc 10 a3 3d 87 9e 4b bd c0 16 51 bd 29 ea 10 3d
       0.07962224 -0.04971173 -0.051047087 0.035379563
0003d0 01 7e 09 3d 18 e4 3f bd 85 f9 4e 3d c6 cf 8c bd
       0.033567432 -0.046848387 0.05053093 -0.06875567
0003e0 27 1a b1 3d 33 ee fe bd 80 6a 86 3d f5 ff 28 3d
       0.08647566 -0.12447777 0.06563282 0.041259725
0003f0 85 0c 74 3d 29 a8 fe bc d0 a5 84 bd d2 f4 c8 bc
       0.059582252 -0.031086044 -0.06476939 -0.024530802

fc5.bias f4 [64]
000000 47 5c 1e bd ca ee 87 bd 89 52 d2 3d 2c 53 07 3d
       -0.03866222 -0.06637342 0.102696486 0.033038303
000010 c7 ea 58 bd 36 e0 0d bd 5d d0 52 3c 03 f1 27 bd
       -0.052958276 -0.034637652 0.0128670605 -0.04100133
000020 bb 04 b6 3d 83 7c 18 3e b6 97 e8 3c a2 9d 99 3d
       0.08887621 0.14891247 0.028392654 0.07500769
000030 e5 cc bc 3d 85 f2 95 3c 09 15 79 3d 22 2d 52 bd
       0.09218768 0.018304119 0.060811076 -0.051312573
000040 b9 62 1e bb 7e 9c 0f bb 6e 7b 07 3d 99 d3 61 bb
       -0.002416773 -0.0021913345 0.033076696 -0.0034458397
000050 3e 22 b4 3c a0 c3 6c bb 38 0c 50 3d f2 25 78 bb
       0.021988984 -0.0036127344 0.050792903 -0.0037864414
000060 ca 4a 91 bd 37 de a0 bd ce 11 f9 3d 66 c5 1f bd
       -0.07094343 -0.07854884 0.12161599 -0.039006613
000070 59 7f 0e 3d 90 e4 6d 3d ec d3 a7 3c 41 1d 0e bc
       0.034789417 0.058079302 0.020486794 -0.008673967
000080 f5 71 69 bd ce b7 0a 3d 4d 58 10 3d 0d aa fc bb
       -0.056993444 0.033866696 0.03524046 -0.0077107013
000090 16 ce 4d bd 38 02 c5 3d 6e 60 d1 bc 98 2a c9 3b
       -0.050245367 0.09619564 -0.025558677 0.006139111
0000a0 f5 4c 86 3d 25 66 89 3d cd 02 4c ba b9 1c 34 3d
       0.06557647 0.06708936 -0.00077824 0.043972705
0000b0 0c 59 e4 bb ce ec ad 3d 74 33 bf bc a6 2a 7b bc
       -0.006968623 0.084924325 -0.023339964 -0.015329992
0000c0 69 a4 20 3d ba ac d3 bd 71 36 2e 3d 6d 2a 8a 3d
       0.039219294 -0.10335679 0.042532388 0.06746373
0000d0 79 09 8e 3c 03 90 91 3c 64 55 80 3d 29 23 97 bb
       0.017338501 0.017768865 0.06266287 -0.0046123457
0000e0 82 aa 5a bd 77 9f c9 bd d2 8a c0 3d 0b be 40 bd
       -0.053385265 -0.09844869 0.09401478 -0.04705624
0000f0 58 f2 91 3d de 2e 90 3d 0c 8e 6f bc 04 37 79 ba
       0.071263015 0.07040189 -0.014621269 -0.0009506794
