models/model_test3.pt (torch, 747987 bytes, 12 tensors)

fc1.weight f4 [128, 36]
0	0xbe1a52ac	-0.150706
1	0x3dede368	0.1161564
2	0x3e1c0468	0.15236056
3	0x3df12a8b	0.117756926
4	0x3ca97eb6	0.020690303
5	0x3d421210	0.047380507
6	0x3d7a325b	0.06108318
7	0x3d10d59b	0.03535996
8	0x3c7c9c6b	0.015418152
9	0xbe157d28	-0.14598525
10	0xbdec9710	-0.115522504
11	0x3dd3eda8	0.10348064
12	0xbe2909d7	-0.1650766
13	0x3e0cfa06	0.13767251
14	0x3dc352fe	0.09537314
15	0x3e11bdae	0.14232513
16	0xbd5cccbb	-0.053906184
17	0xbb3f8900	-0.0029225945
18	0x3c8d23b6	0.017228942
19	0xbdcf75a6	-0.101298615
20	0x3e1425b3	0.14467506
21	0x3e289da2	0.16466382
22	0xbe289044	-0.16461283
23	0x3d465746	0.048423074
24	0xbe09d8fc	-0.13461679
25	0xbcc74780	-0.024326086
26	0x3b850680	0.0040596128
27	0xbd4539eb	-0.048150938
28	0x3da2d043	0.07949879
29	0x3da07cbb	0.078362904
30	0x3dec5d93	0.11541285
31	0xbddcce58	-0.107815444
32	0x3dc8c92b	0.09803995
33	0x3dd2471e	0.10267471
34	0xbd6f256b	-0.058385294
35	0xbda59ddb	-0.08086749
36	0x3dd76448	0.10517174
37	0x3e0833a3	0.13300948
38	0x3d9cbbcb	0.07653006
39	0xbc946ccb	-0.018118283
40	0x3db5d10b	0.088777624
41	0x3e1a32be	0.15058419
42	0xbe1d08aa	-0.15335336
43	0x3d80322b	0.06259569
44	0x3b5966ab	0.0033172767
45	0xbd5abf36	-0.05340501
46	0x3e1732ff	0.14765547
47	0xbd773290	-0.060350955
48	0x3cc3370b	0.023829957
49	0xbe09a558	-0.1344198
50	0xbd90e21e	-0.070743784
51	0x3e073a9f	0.13205956
52	0xbe0a2c6e	-0.13493511
53	0xbcaa8260	-0.02081412
54	0xbdcfa0be	-0.10138081
55	0xbcb27c60	-0.021787822
56	0x3e24f383	0.16108517
57	0xbdf87410	-0.12131512
58	0x3ddd6c96	0.10811727
59	0xbda6da48	-0.081471026
60	0xbcf160c0	-0.02946508
61	0xbdb0e86e	-0.086380824
62	0xbe0b7530	-0.13618922
63	0xbdd47518	-0.10373896
64	0xbd75bb56	-0.05999311
65	0xbc775b16	-0.0150974
66	0x3e1a1c87	0.15049945
67	0xbdd952e6	-0.10611515
68	0x3e28327e	0.16425511
69	0x3c3fa66b	0.011697392
70	0x3e095540	0.13411427
71	0xbe234ade	-0.15946528
72	0x3cf69860	0.030101955
73	0x3d5921f0	0.05301088
74	0xbe1e4e40	-0.15459538
75	0x3c5331c0	0.012890279
76	0xbd9aa9e0	-0.07551932
77	0x3e121bbe	0.14268395
78	0xbdf50396	-0.119635746
79	0x3dc5cc00	0.096580505
80	0x3e06762b	0.13131015
81	0xbcb9a600	-0.022662163
82	0x3df04880	0.11732578
83	0xbe00ec13	-0.12590055
84	0x3d7d23b0	0.061801612
85	0xbd2c9150	-0.04213077
86	0x3d7c2406	0.061557792
87	0xbdb6b703	-0.089216255
88	0x3d87b973	0.066271685
89	0x3dd7c600	0.105358124
90	0xbd6f33c6	-0.058398984
91	0xbd18c216	-0.03729447
92	0x3df23b13	0.11827674
93	0xbe094ffa	-0.13409415
94	0xbd014760	-0.03156221
95	0xbd9c07d3	-0.0761868
96	0x3e1eeedb	0.15520804
97	0xbdaf1753	-0.085493706
98	0x3dbf9398	0.09354323
99	0xbe160d2a	-0.14653459
100	0xbd2a5da0	-0.041593194
101	0xbdf11b7b	-0.117728196
102	0xbe1e94de	-0.15486476
103	0x3df2a4c8	0.11847836
104	0xbde56a16	-0.11201875
105	0xbdd17eeb	-0.10229286
106	0xbdbafa8b	-0.091298185
107	0x3c56d800	0.013113022
108	0xbd5ae85b	-0.053444248
109	0x3d84049b	0.06446191
110	0xbd13154b	-0.03590898
111	0xbb943dd6	-0.004523973
112	0xbde9ef7e	-0.11422633
113	0xbdc1aac3	-0.09456398
114	0x3da8e686	0.08247094
115	0xbdea7c43	-0.11449482
116	0x3cec0496	0.02881078
117	0xbe230160	-0.15918493
118	0xbdb8a140	-0.09015131
119	0xbda3ca9b	-0.07997628
120	0xbd5c8b30	-0.053843677
121	0x3e2645a6	0.16237506
122	0xbd9029cb	-0.070392214
123	0x3dfab176	0.12240879
124	0xbd4487e6	-0.047981165
125	0xbdf616d6	-0.12016074
126	0x3d1e3e2b	0.038633507
127	0xbbe16cab	-0.0068794093
128	0xbe1cfa9c	-0.15329975
129	0x3ddd6453	0.10810151
130	0xbc6103d6	-0.013733825
131	0xbc93e960	-0.018055618
132	0x3e125d74	0.14293462
133	0xbd759a5b	-0.059961658
134	0x3d269180	0.040666103
135	0x3e216d46	0.15764341
136	0xbd1e1b30	-0.038600147
137	0xbe21960e	-0.15779898
138	0xbd55a47b	-0.052158814
139	0xbe1928b0	-0.14956927
140	0xbdbea108	-0.09308058
141	0x3dfdec8e	0.12398635
142	0xbd7e33c0	-0.06206107
143	0x3e27114a	0.16315189
144	0xbe06d1bb	-0.13165943
145	0xbdf606d3	-0.1201302
146	0x3e28295f	0.16422032
147	0x3d9aa0fe	0.07550238
148	0xbe13e667	-0.1444336
149	0x3de7036e	0.11279951
150	0x3d3f366b	0.046682756
151	0xbe0e20a3	-0.13879637
152	0xbd63da80	-0.0556283
153	0xbe038554	-0.1284383
154	0xbcc74056	-0.02432267
155	0x3dd2e56e	0.102976665
156	0xbcf6cfd6	-0.0301284
157	0xbdf7d33e	-0.12100838
158	0xbce6238b	-0.02809312
159	0x3e112caa	0.14177194
160	0x3dcf02b6	0.10107939
161	0x3e26cf03	0.16289906
162	0x3db1846e	0.08667837
163	0xbd40a38b	-0.047030967
164	0x3ddf0f68	0.108916104
165	0x3e275d4b	0.16344182
166	0xbce00d6b	-0.027350148
167	0x3cdd4fab	0.027015528
168	0xbb066aab	-0.0020510356
169	0x3d98d456	0.07462375
170	0x3d148cc0	0.036267042
171	0xbe23cc68	-0.15995944
172	0xbd869143	-0.06570675
173	0x3e249458	0.16072214
174	0xbe1b7d5a	-0.15184537
175	0xbe143b08	-0.14475644
176	0x3d86caab	0.065816246
177	0xbd4c3a56	-0.04986032
178	0xbe295e53	-0.16539888
179	0x3cb76f96	0.022392076
180	0xbdebdb20	-0.11516404
181	0xbd19b990	-0.03753048
182	0x3da9e796	0.08296125
183	0xbe1008d4	-0.14065868
184	0xbe1ec24f	-0.1550381
185	0xbe16bfd3	-0.14721613
186	0xbe0939ee	-0.13401005
187	0xbdd8541e	-0.10562919
188	0x3dd99b28	0.10625297
189	0x3e242ed8	0.16033494
190	0xbdee969e	-0.11649822
191	0x3d6883b0	0.056766212
192	0x3df090a3	0.11746337
193	0x3e182ae6	0.14860114
194	0xbb90fb2b	-0.004424473
195	0x3e00079a	0.125029
196	0x3cbe8cab	0.023260435
197	0xbdd4f00b	-0.10397347
198	0x3dc9b993	0.098498486
199	0xbd8f3346	-0.069922015
200	0xbddfd813	-0.10929885
201	0xbe2a53da	-0.1663355
202	0xbd8c438b	-0.0684882
203	0xbdcf3918	-0.10118312
204	0xbd5efec6	-0.05444219
205	0xbe2164ba	-0.1576108
206	0xbdeb4aa3	-0.11488845
207	0x3d7b82d6	0.06140407
208	0x3dc8f6f8	0.098127306
209	0x3da961db	0.082706176
210	0x3d8e1e36	0.06939356
211	0x3dc75a30	0.09733999
212	0xbde285c6	-0.110606715
213	0x3d6df91b	0.058098894
214	0xbe1fde8f	-0.15612243
215	0xbdca35ce	-0.09873544
216	0xbdbb9113	-0.0915853
217	0xbe08c416	-0.13356051
218	0x3d84c160	0.06482196
219	0xbddcdc30	-0.10784185
220	0xbd6fdd76	-0.05856081
221	0x3d3a1860	0.045433402
222	0xbd9809b0	-0.07423723
223	0xbd2d56bb	-0.04231904
224	0xbdf03238	-0.117283285
225	0xbce7f860	-0.028316677
226	0xbc8a9b40	-0.016919732
227	0x3ddadb70	0.10686386
228	0xbe0c60cc	-0.137088
229	0x3be40456	0.0069585247
230	0x3d87e416	0.06635301
231	0x3d97c223	0.074100755
232	0x3df4742e	0.11936222
233	0x3deda6c3	0.11604073
234	0xbdec6ff6	-0.11544792
235	0x3e16c58b	0.14723794
236	0x3dfbd773	0.12296953
237	0xbdea14a3	-0.114297174
238	0xbc3f7cd6	-0.011687478
239	0xbd96b648	-0.07358986
240	0xbde7ebf6	-0.11324303
241	0x3dcb3756	0.09922664
242	0xbd9daf33	-0.07699432
243	0xbe10ed22	-0.14152959
244	0x3dc651f6	0.096836016
245	0x3db443ab	0.08801969
246	0xbc9bafd6	-0.019004744
247	0x3dfc4f10	0.123197675
248	0xbbafc5ab	-0.00536414
249	0xbd78d616	-0.060751043
250	0x3e190c9c	0.14946216
251	0xbd124b7b	-0.035716515
252	0x3d9f5e90	0.07781708
253	0x3dd04188	0.10168749
254	0x3da5a733	0.08088531
255	0xbd3cacd6	-0.046063267

fc1.bias f4 [128]
0	0x3cd2e776	0.025745135
1	0x3e04a682	0.12954143
2	0x3d5575ab	0.05211417
3	0xbd9a2e9e	-0.07528423
4	0xbd58274b	-0.052771848
5	0xbd8fdfab	-0.07025083
6	0x3d61c040	0.055114985
7	0x3d4a9f26	0.049468182
8	0x3c3ebcab	0.011641662
9	0xbd2e6e76	-0.042585813
10	0xbe2407b2	-0.1601856
11	0xbe2a6a33	-0.16642074
12	0x3e0bbdf0	0.13646674
13	0x3dbb5f23	0.09149005
14	0x3d8d4803	0.06898501
15	0x3d90be1e	0.07067512
16	0xbddb4d5b	-0.10708114
17	0xbda73b5b	-0.08165618
18	0x3e1edbf4	0.15513593
19	0x3c631056	0.013858875
20	0x3e0493b6	0.12946972
21	0xbe07c5cc	-0.13259047
22	0x3e23adb2	0.15984228
23	0x3deafb76	0.114737436
24	0xbe25bf20	-0.1618619
25	0x3d2ec216	0.042665564
26	0xbe155d07	-0.14586268
27	0x3dad2b80	0.084555626
28	0x3b86ac2b	0.0041098795
29	0x3ca522d6	0.020158213
30	0xbdbfb0a3	-0.09359863
31	0x3d9ff7eb	0.078109585
32	0xbdb33a46	-0.08751349
33	0xbcb54a40	-0.022130132
34	0x3e109043	0.14117531
35	0xbde13cd6	-0.10997932
36	0xbd6d3a80	-0.057917118
37	0xbce52000	-0.02796936
38	0xbdeb2eb0	-0.11483514
39	0xbc153516	-0.009106895
40	0xbded986b	-0.11601337
41	0xbdebc340	-0.1151185
42	0x3e175fca	0.14782634
43	0xbe0edc67	-0.13951264
44	0xbde2df4e	-0.11077748
45	0x3d28955b	0.04115806
46	0xbe0c235b	-0.13685362
47	0xbda35f73	-0.0797719
48	0xbbdb3cab	-0.006690582
49	0xbdddbacb	-0.108266436
50	0x3d206d56	0.03916677
51	0xbe0b4e9c	-0.13604206
52	0xbe046e07	-0.12932597
53	0xbe0c593e	-0.13705918
54	0xbe03cec0	-0.12871838
55	0x3e0c398f	0.13693832
56	0xbd810458	-0.06299657
57	0xbdb0cc93	-0.086327694
58	0x3a70f000	0.0009191036
59	0xbe0eb3d7	-0.13935791
60	0xbbc78100	-0.006088376
61	0xbde0bacb	-0.10973128
62	0xbdc1b7c8	-0.094588816
63	0xbd010c9b	-0.031506162
64	0x3d880f96	0.06643598
65	0xbd40794b	-0.046990674
66	0x3da2e5e8	0.079540074
67	0xbdf449d8	-0.11928147
68	0xbd91a040	-0.071106434
69	0xbe0c2982	-0.13687709
70	0xbd3538b0	-0.044243515
71	0x3e07e2ce	0.13270113
72	0x3dc5b85b	0.09654304
73	0x3d930316	0.07178323
74	0x3de927c3	0.11384537
75	0xbd79d7a0	-0.06099665
76	0xbdf09260	-0.11746669
77	0x3dc97d03	0.09838297
78	0x3e29da1f	0.16587113
79	0xbdf0fd5b	-0.11767074
80	0x3ddee1b6	0.10882895
81	0x3d8e0e60	0.069363356
82	0x3e0deb90	0.13859391
83	0xbdfbcd68	-0.122950375
84	0xbb8c1f80	-0.004276216
85	0x3e0897fa	0.13339224
86	0xbd445b9b	-0.047938924
87	0x3a9bb556	0.0011879604
88	0xbd9870c0	-0.0744338
89	0xbdddb793	-0.1082603
90	0xbdf02456	-0.117256805
91	0xbdfc9893	-0.12333789
92	0xbad73800	-0.0016419888
93	0x3e16511e	0.14679381
94	0x3ba6d3ab	0.0050911508
95	0x3d2c3ee6	0.042052172
96	0x3e00a7bc	0.12563986
97	0x3da40280	0.08008289
98	0xbdfbe110	-0.12298787
99	0x3dcd459e	0.10023044
100	0xbd402a56	-0.046915375
101	0x3d48ed8b	0.049054664
102	0xbdd872ae	-0.105687484
103	0x3d8063e8	0.062690556
104	0xbc7f78ab	-0.015592734
105	0x3e1f22cc	0.15540618
106	0xbe17605c	-0.14782852
107	0xba634d56	-0.0008670887
108	0xbde39d7e	-0.111140236
109	0xbd8793f0	-0.06620014
110	0x3d51d270	0.05122608
111	0xbdd74cf6	-0.10512726
112	0xbe009b36	-0.12559208
113	0x3df6eda8	0.12057048
114	0xbd9b2b2e	-0.07576595
115	0xbe1de22b	-0.15418307
116	0xbe2545cf	-0.16139911
117	0x3e00273b	0.12514965
118	0xbc656996	-0.014002224
119	0x3e1b1137	0.15143286
120	0xbd41cf80	-0.047317028
121	0xbd91d038	-0.07119793
122	0x3e1844a0	0.14869928
123	0x3ba3e7d6	0.005002002
124	0x3e28ea42	0.16495612
125	0xbe050ca0	-0.12993097
126	0x3e234b54	0.15946704
127	0x3c811f36	0.015761953

fc2.weight f4 [64, 128]
0	0x3c2fe270	0.010735139
1	0xbc2ad0a2	-0.0104257185
2	0x3ce3d3cd	0.027810955
3	0x3d89e9c6	0.06734042
4	0x3cb97518	0.022638842
5	0xbd9d80be	-0.07690571
6	0x3d856dcf	0.06515085
7	0xbd9e0152	-0.077150956
8	0xbd16557d	-0.03670262
9	0x3d9423d4	0.07233396
10	0x3d8320e8	0.06402761
11	0x3c67a5c6	0.014138645
12	0xbd1c8267	-0.0382103
13	0x3c629562	0.013829561
14	0x3d68f867	0.05687752
15	0xbd93c473	-0.07215204
16	0x3cfafe7c	0.030638926
17	0xbd29bcd4	-0.041439846
18	0xbd14d1aa	-0.036332764
19	0xbd2d01dd	-0.042238105
20	0x3d89c9a8	0.06727916
21	0x3db26563	0.08710744
22	0x3cfbe916	0.030750792
23	0x3b8fce8b	0.0043886355
24	0x3d6516a1	0.055929784
25	0x3ca16c89	0.019705074
26	0xbd93ac66	-0.07210617
27	0x3cf9c7dd	0.03049081
28	0x3c6a0d39	0.014285379
29	0x3d8a99e5	0.06767634
30	0x3c829bb8	0.015943393
31	0x3cb15129	0.021645145
32	0xbb39f4ba	-0.0028374628
33	0x3d461410	0.048358977
34	0x3da30c12	0.079612866
35	0xbd96dc09	-0.07366187
36	0xbc58fe5a	-0.013244236
37	0x3d6b9bb0	0.057521522
38	0x3d918260	0.07104945
39	0xbd6c87df	-0.057746764
40	0x3c2a034e	0.010376764
41	0x3d79ac90	0.060955584
42	0x3c464245	0.012100761
43	0x3c00e05d	0.007865992
44	0x3c9e60c6	0.019333255
45	0x3da6832d	0.081304885
46	0xbd190743	-0.03736044
47	0x3c9c5d5c	0.019087486
48	0xbd1ec44c	-0.038761422
49	0xbc19a388	-0.009377368
50	0xbd17415e	-0.036927573
51	0xbcb99703	-0.022655016
52	0x3cb80a91	0.022465976
53	0xbdad5af0	-0.084646106
54	0xbd9d0cd5	-0.07668463
55	0xbd43f05a	-0.04783664
56	0x3d6ae4a3	0.05734695
57	0xbd4700b3	-0.04858465
58	0x3dae3145	0.08505491
59	0xbd5e31a0	-0.054246545
60	0x3c012de2	0.0078844745
61	0x3d3b67ab	0.045753162
62	0xbd6c7a54	-0.05773385
63	0xbda1479f	-0.07874989
64	0x3ceb7327	0.028741432
65	0x3d7dd2ae	0.061968498
66	0x3d17389d	0.036919225
67	0x3d1daf00	0.03849697
68	0xbd773896	-0.0603567
69	0xbd0ac42f	-0.0338785
70	0x3d07b1fb	0.03312872
71	0x3c886571	0.016649934
72	0x3c22483f	0.00990492
73	0x3ccf9253	0.025338328
74	0x3d086efd	0.03330897
75	0x3d00dce0	0.031460643
76	0xbd308df2	-0.04310412
77	0x3d8c27a0	0.06843495
78	0xbda3d07a	-0.07998748
79	0x3da58c9b	0.08083459
80	0x3d091638	0.033468455
81	0xbcc86c76	-0.02446578
82	0xbd4ef09e	-0.05052244
83	0x3c97c8a5	0.018528292
84	0x3d6411ac	0.055680916
85	0xbc9b9f09	-0.018996732
86	0x3afe8789	0.0019419055
87	0xbca1e6d2	-0.019763384
88	0x3d6ab7c5	0.057304163
89	0x3cc0ced1	0.023536118
90	0xbd05f7b5	-0.032706935
91	0xbd417a96	-0.047236048
92	0xbd556feb	-0.052108686
93	0xbda794a0	-0.08182645
94	0xbd748de8	-0.059705645
95	0xbdacb1ab	-0.08432325
96	0xbd065517	-0.03279599
97	0x3c3811dc	0.011234727
98	0x3d31f04e	0.043442063
99	0xbda75fed	-0.08172593
100	0x3ada082e	0.0016634518
101	0xbd15e6d7	-0.0365971
102	0xbd87892a	-0.06617959
103	0x3d3346cc	0.04376869
104	0x3cbcd812	0.02305225
105	0xbda457e6	-0.08024578
106	0x3d010a5c	0.03150402
107	0xbd34829f	-0.044069882
108	0x3d634c26	0.055492543
109	0x3d319fba	0.043365218
110	0xbbb5821b	-0.0055391914
111	0x3d2889d2	0.04114706
112	0xbda97728	-0.082746804
113	0x3dafb6a0	0.08579755
114	0xbbb08cc3	-0.005387874
115	0x3cb041fc	0.021515839
116	0xbd8f6222	-0.07001139
117	0x3cfcb1bb	0.030846467
118	0xbd4706ad	-0.04859035
119	0x3d7e87a2	0.06214107
120	0x3d830449	0.06397302
121	0x3b90e2ab	0.004421552
122	0x3d3e1a56	0.046411835
123	0xbd73c681	-0.05951548
124	0x3b91fc2f	0.0044551115
125	0xbd044454	-0.032291725
126	0xbd05b628	-0.03264442
127	0x3d21a424	0.039463177
128	0xbd452fa5	-0.04814114
129	0x3d3aac9b	0.045574766
130	0x3a289150	0.00064303447
131	0xbcbdcf40	-0.023170114
132	0x3d510785	0.05103256
133	0x3c96edd7	0.018423958
134	0xbca223b8	-0.019792423
135	0x3d20ef4a	0.039290704
136	0xbd95470e	-0.07288943
137	0x3d50cb7b	0.050975304
138	0xbd47b982	-0.0487609
139	0xbdaf1b69	-0.0855015
140	0x3ccfa69c	0.025348
141	0x3d70ff1c	0.05883704
142	0x3d46741c	0.048450574
143	0xbc945030	-0.018104643
144	0xbd39897d	-0.045297135
145	0xbd98e5a3	-0.07465675
146	0x3bb8fe1f	0.005645528
147	0xbc88dcc9	-0.016706841
148	0xbd19ba7b	-0.037531357
149	0x3ce670c5	0.028129945
150	0x3da8526a	0.08218844
151	0xbdb2eebc	-0.08736941
152	0xbd9da997	-0.07698362
153	0xbcd2df3a	-0.025741208
154	0x3cfd551d	0.030924374
155	0x3d7d0a13	0.061777186
156	0xbbfec16e	-0.0077745235
157	0x3d238414	0.03992088
158	0x3db13443	0.08652546
159	0x3da773e5	0.08176402
160	0xbcb5eda7	-0.022208048
161	0x3d831355	0.06400172
162	0xbcd6b73b	-0.026210418
163	0x3cb408b0	0.021976799
164	0x3d56cbb2	0.052440353
165	0xbce97811	-0.028499635
166	0xbc509558	-0.012730919
167	0x3d3eb5f2	0.046560235
168	0xbd78417a	-0.06060932
169	0xbda6a1bf	-0.08136319
170	0xbda1a241	-0.078922756
171	0xbd61377c	-0.054984555
172	0x3da5ab12	0.0808927
173	0xbbfe8f94	-0.0077685807
174	0xbd3e6af5	-0.04648872
175	0xbce621fe	-0.02809238
176	0xbd0ad7a4	-0.033897057
177	0xbd2ec98a	-0.04267267
178	0xbd97483b	-0.07386824
179	0x3c757d87	0.014983541
180	0xbbfb61c9	-0.007671569
181	0x3cf0fa45	0.029416213
182	0x3d3d7014	0.046249464
183	0x3c5e3608	0.013562687
184	0x3d938238	0.07202572
185	0x3db18048	0.08667046
186	0x3c2498d9	0.010046207
187	0xbd891d48	-0.06695038
188	0x3c481a21	0.012213261
189	0xbda52ba0	-0.080649614
190	0x3d930503	0.0717869
191	0xbd3b55b4	-0.04573603
192	0xbd0e79d4	-0.034784153
193	0x3d8c1795	0.068404354
194	0xbcc963ff	-0.024583815
195	0x3d9dfd77	0.0771436
196	0x3d331d0c	0.043728873
197	0x3afe5f3b	0.0019407043
198	0x3da5cd0a	0.08095749
199	0x3c3e3376	0.011608949
200	0xbbad08f8	-0.00528061
201	0xbdae3183	-0.08505537
202	0xbca2c29f	-0.019868193
203	0xbd12c1bb	-0.035829287
204	0x3d660a59	0.056162212
205	0x3d85b6e9	0.06529028
206	0xbcb01d26	-0.021498274
207	0x3d2c1554	0.042012528
208	0x3cfc1d15	0.030775586
209	0xbd40a135	-0.04702874
210	0x3d001ffa	0.031280495
211	0xbd702840	-0.058632135
212	0xbd893480	-0.06699467
213	0xbd308811	-0.043098513
214	0xbcb403b8	-0.02197443
215	0x3cf1f29f	0.029534636
216	0x3d594757	0.05304655
217	0x3d3d4a07	0.046213176
218	0xbd2007b9	-0.039069865
219	0x3b0c2be7	0.0021388473
220	0xbd169604	-0.03676416
221	0x3d5055c5	0.050863046
222	0xbd94a369	-0.072577305
223	0xbd1ba936	-0.03800317
224	0xbd29d28a	-0.04146055
225	0xbda789fe	-0.08180617
226	0xbd97cc05	-0.074119605
227	0xbb7d429f	-0.0038644446
228	0xbc62e7e5	-0.013849233
229	0x3daf309d	0.08554194
230	0xbcc5fa3b	-0.02416717
231	0x3a7ab48c	0.0009563647
232	0xbda5e5f1	-0.081004985
233	0x3d8edb31	0.06975401
234	0x3c858339	0.016297923
235	0xbd9fbbdb	-0.077995025
236	0xbd13ce66	-0.03608551
237	0xbd5af529	-0.05345646
238	0xbda0def4	-0.07855025
239	0x3d95b5a2	0.07310034
240	0xbd41d5fb	-0.04732321
241	0x3d800945	0.06251768
242	0x3b84f901	0.004058004
243	0x3cd1b5b0	0.02559933
244	0xbcbf3f9c	-0.023345761
245	0xbc5f9e86	-0.013648635
246	0xbd0ba5e2	-0.034093745
247	0xbd7aad19	-0.061200235
248	0x3ccc85a2	0.024966065
249	0x3d92594a	0.07145937
250	0x3bff191c	0.0077849757
251	0xbd817ac7	-0.06322246
252	0xbdab97c7	-0.083785586
253	0x3cad4600	0.021151543
254	0x3d037248	0.03209141
255	0xbca07f3c	-0.01959192

fc2.bias f4 [64]
0	0xbd91a388	-0.07111269
1	0xbd8ec0c2	-0.069703594
2	0x3c9fc6ec	0.019504033
3	0x3bd43638	0.00647619
4	0xbd505c06	-0.05086901
5	0xbd8162f4	-0.06317702
6	0x3c8965ca	0.01677217
7	0xbca7e0d3	-0.020492947
8	0xbd5593ac	-0.052142784
9	0xbd45733d	-0.048205603
10	0xbd775501	-0.0603838
11	0x3d865381	0.06558896
12	0x3a961067	0.001144898
13	0x3d07134a	0.03297738
14	0x3c2b033c	0.010437783
15	0xbd8b66fc	-0.06806752
16	0x3d60eaa8	0.054911286
17	0xbd1be858	-0.038063377
18	0xbc8ff065	-0.017570684
19	0xbd901f05	-0.070371665
20	0x3d9030a7	0.0704053
21	0x3c9b5590	0.018961698
22	0x3b86c94f	0.0041133533
23	0x3d8a88c8	0.0676437
24	0x3d68ac2b	0.056804817
25	0x3db45596	0.08805387
26	0xbd82015c	-0.063479155
27	0xbd2bbb0c	-0.04192643
28	0xbc97076d	-0.018436158
29	0xbdaa5816	-0.08317582
30	0x3d0181f3	0.03161807
31	0x3d6b586d	0.057457376
32	0x3d87fff7	0.06640618
33	0xbce38fcf	-0.027778534
34	0x3d625a5c	0.055261955
35	0x3c697357	0.014248691
36	0x3c661bdf	0.014044731
37	0x3d3090c3	0.043106806
38	0x3cdc2578	0.026873335
39	0xbdab59ec	-0.083667606
40	0xbd6db56c	-0.058034346
41	0x3d253e9b	0.04034291
42	0x396db59c	0.00022669736
43	0xbd2d22a8	-0.04226938
44	0xbd826e7b	-0.06368729
45	0x3db4e216	0.08832185
46	0x3d0be684	0.034155384
47	0xbbae5347	-0.005319986
48	0xbd73f200	-0.05955696
49	0x3d9ee959	0.07759351
50	0x3d535f37	0.051604476
51	0xbcd1d14a	-0.025612492
52	0x3ce895cb	0.02839174
53	0xbd9568a6	-0.07295351
54	0xbd2b697a	-0.041848637
55	0x3c254d07	0.0100891655
56	0x3d540718	0.051764578
57	0x3d04aeec	0.03239338
58	0x3a4f3fa3	0.0007905906
59	0x3d703168	0.058640867
60	0x3d9fabfa	0.07796474
61	0x3b7b8853	0.0038380816
62	0x3cdc7d6b	0.026915273
63	0x3d4be4ec	0.049778864

fc3.weight f4 [6, 64]
0	0xbbece7c0	-0.007229775
1	0x3de78078	0.113038
2	0x3d8ef6fc	0.06980702
3	0x3da3cdea	0.07998259
4	0xbd9f6d68	-0.077845395
5	0xbd3c92f0	-0.046038568
6	0xbd50ecfc	-0.051007256
7	0xbde8226a	-0.11334689
8	0xbd5f488c	-0.054512545
9	0x3c8b0b90	0.016973287
10	0xbd90c40c	-0.07068643
11	0x3dcd3836	0.10020487
12	0x3dcf0450	0.101082444
13	0xbd290594	-0.041265085
14	0xbd44779c	-0.04796563
15	0xbd5ee7a8	-0.054420143
16	0x3d9610c8	0.073274195
17	0xbd37700c	-0.04478459
18	0x3de531e2	0.11191155
19	0x3c939518	0.01801543
20	0x3dd1e0fc	0.102479905
21	0xbca4ab68	-0.020101264
22	0xbdc16f8e	-0.094451055
23	0xbdea70ee	-0.11447321
24	0xbdd035dc	-0.10166523
25	0xbdbb9cde	-0.091607794
26	0xbd9ec5b6	-0.07752554
27	0xbc0828e0	-0.008310527
28	0xbc781af0	-0.015143141
29	0x3db884de	0.090097174
30	0x3dce07f6	0.10060112
31	0x3de8a458	0.11359471
32	0x3dcdb50a	0.10044296
33	0x3d73c754	0.059516266
34	0x3c14d130	0.009083077
35	0xbd8f65e2	-0.070018545
36	0x3d1ca0d8	0.03823933
37	0xbdbad618	-0.091228664
38	0x3ca217d8	0.01978676
39	0x3d516bf8	0.051128358
40	0xbd943d54	-0.0723826
41	0xbdabcce8	-0.08388692
42	0x3dd0e54e	0.101999864
43	0x3d9feba2	0.07808615
44	0x3de0018a	0.109377936
45	0xbb8f2c60	-0.0043693036
46	0xbd83bd9e	-0.06432651
47	0x3d281d80	0.04104376
48	0xbdbab690	-0.09116852
49	0x3ab79300	0.0014005601
50	0xba8db880	-0.0010812432
51	0xbd433fa4	-0.047668114
52	0x3d2b1074	0.041763738
53	0xbdc7f8a0	-0.09764218
54	0x3b172940	0.0023065358
55	0xbd991d14	-0.07476249
56	0xbce04c60	-0.027380168
57	0x3d887e84	0.06664756
58	0xbdf1a2fe	-0.117986664
59	0xbdd8a842	-0.10578968
60	0xbdfcee5c	-0.12350151
61	0x3de22020	0.110412836
62	0xbdf6bc34	-0.12047616
63	0xbd12a734	-0.03580399
64	0xbd7af4ac	-0.061268494
65	0x3daa44c0	0.08313894
66	0xbdf6e37e	-0.120551094
67	0xbd96589c	-0.0734112
68	0x3cd24d88	0.025671735
69	0x3d5b512c	0.05354421
70	0xbd632b18	-0.05546102
71	0x3c42f610	0.011899486
72	0xbd984e00	-0.07436752
73	0xbd7e3620	-0.062063336
74	0xbdb6ab24	-0.08919361
75	0x3db25e4a	0.087093905
76	0xbcab9238	-0.020943746
77	0xbd399750	-0.04531032
78	0x3daec568	0.08533746
79	0xbdf5e956	-0.12007396
80	0xbd2c1908	-0.04201606
81	0xbd803d94	-0.06261745
82	0xbdf7edb0	-0.12105882
83	0x3dd9c882	0.10633947
84	0xbdf02106	-0.11725049
85	0xbdaa3dac	-0.08312544
86	0x3d9d44d2	0.07679142
87	0x3aa87100	0.001285106
88	0xbc32db20	-0.010916501
89	0x3d8dab14	0.06917396
90	0x3d7b5838	0.06136343
91	0x3d71ea00	0.05906105
92	0x3d95af30	0.07308805
93	0xbd5ee4e0	-0.05441749
94	0x3defc908	0.117082655
95	0x3dd47d76	0.10375492
96	0xbd423720	-0.047415853
97	0xbd8c93dc	-0.068641394
98	0xbdd01a12	-0.101612225
99	0x3d4efcf8	0.05053422
100	0x3da3f954	0.0800654
101	0xbda32eba	-0.07967897
102	0x3b82d800	0.0039930344
103	0xbda8e016	-0.08245866
104	0x3d20932c	0.039202854
105	0x3dd3f700	0.10349846
106	0xbda2a98a	-0.07942493
107	0x3db269be	0.08711575
108	0xbdd4f3a0	-0.1039803
109	0x3b8377e0	0.004012093
110	0xbd3f0140	-0.04663205
111	0xbcbe5ea8	-0.023238495
112	0xbdeb37fc	-0.114852875
113	0xbbbc1080	-0.0057392716
114	0xbca7b7e8	-0.020473436
115	0xbd9a2a64	-0.075276166
116	0xbdb13764	-0.08653143
117	0x3da8a9ae	0.08235489
118	0x3dffb88a	0.1248637
119	0x3dfd4014	0.123657376
120	0xbdc4cdf4	-0.09609595
121	0x3bfc0c20	0.007691875
122	0xbcb7bdd8	-0.022429392
123	0x3d1b9bf4	0.037990525
124	0xbc6d6f30	-0.014491841
125	0x3d82e1ae	0.06390701
126	0xbc3428f0	-0.010996088
127	0xbdd33bce	-0.10314141
128	0xbd2ac8dc	-0.04169546
129	0x3ce9cd38	0.028540239
130	0xbdd914ac	-0.10599646
131	0x3d31ac80	0.0433774
132	0xbcc68518	-0.024233386
133	0xbd7ca8e0	-0.06168449
134	0xbda6d0f0	-0.081453204
135	0x3dacad88	0.08431536
136	0xbc50ac20	-0.01273635
137	0x3dc29ac0	0.095021725
138	0xbd89456c	-0.06702694
139	0xbda7a5e2	-0.081859365
140	0x3dce641c	0.10077688
141	0xbca51830	-0.020153135
142	0x3d3a5508	0.04549125
143	0x3d2018fc	0.039086327
144	0xbcfee3f8	-0.031114563
145	0x3df73004	0.12069705
146	0xbd11ec00	-0.035625458
147	0x3cfb7a88	0.030698076
148	0xbd01c2d4	-0.031679943
149	0xbd20b224	-0.03923239
150	0x3d27f398	0.041003793
151	0xbdbf2258	-0.093327224
152	0x3d9e5e88	0.07732874
153	0x3d2d04f8	0.042241067
154	0x3d22df6c	0.039763853
155	0x3c98b050	0.01863876
156	0xbdfc9ebe	-0.12334965
157	0x3db767dc	0.089553565
158	0x3d9d4eda	0.07681055
159	0x3b374a00	0.0027967691
160	0xbdc20bac	-0.094748825
161	0xbdedb30c	-0.11606416
162	0xbdb926c0	-0.09040594
163	0x3d78dd34	0.06075783
164	0x3d4486fc	0.047980294
165	0x3c9b2ad8	0.018941328
166	0xbda9842c	-0.08277163
167	0xbdec4246	-0.11536078
168	0x3d8e9d32	0.069635764
169	0xbd9eaa12	-0.07747282
170	0x3cb86f08	0.022513881
171	0x3c54bbb0	0.012984201
172	0x39e2c000	0.0004324913
173	0x3d17b368	0.03703633
174	0x3d91d7b2	0.07121219
175	0x3dc13fb6	0.0943598
176	0x3c99ba40	0.018765569
177	0xbdc1e47e	-0.094674096
178	0xbde72b52	-0.112875596
179	0x3dbd653a	0.09247823
180	0x3df77a68	0.12083894
181	0xbdae5e6e	-0.08514105
182	0x3de74e3e	0.112942204
183	0x3dda5cb4	0.10662213
184	0xbde29ebc	-0.110654324
185	0x3b2afcc0	0.0026090592
186	0xbdabe6b8	-0.083936155
187	0x3c74d610	0.014943615
188	0x3de6e06c	0.11273274
189	0x3d073cec	0.033017084
190	0x3df2e55a	0.118601516
191	0xbdc82cd0	-0.09774172
192	0x3ddb5604	0.107097656
193	0x3dec3bd6	0.1153485
194	0xbd378028	-0.044799954
195	0x3d48b2e0	0.048998713
196	0x3d6f64e0	0.05844581
197	0x3d880c10	0.06642926
198	0x3dee9bbc	0.11650798
199	0xbdcb2414	-0.09918991
200	0x3dd15210	0.1022073
201	0xbd135d0c	-0.03597741
202	0x3c9033f0	0.01760289
203	0x3dc566f4	0.096387774
204	0x3c93f8f0	0.018063039
205	0x3d03e3b4	0.032199576
206	0x3db9584e	0.09050046
207	0x3c9969f8	0.018727288
208	0xbda10c12	-0.0786363
209	0xbd95c352	-0.07312645
210	0xbdbac288	-0.09119135
211	0x3da32a80	0.079670906
212	0x3d1a77c8	0.03771189
213	0x3d7b08fc	0.061287865
214	0xbcc49a00	-0.023999214
215	0x3da76efc	0.081754655
216	0xbdf9ece2	-0.12203385
217	0xbdea36b4	-0.11436215
218	0xbd4cb9d4	-0.049981907
219	0xbc290ab0	-0.0103174895
220	0x3c80dbe0	0.015729845
221	0xbc6a01d0	-0.014282659
222	0xbca30108	-0.019897953
223	0xbd4dfc6c	-0.050289556
224	0xbdf6d8ae	-0.12053047
225	0x3d6570a8	0.05601564
226	0x3dff6bf4	0.12471762
227	0xbd4ee494	-0.050510958
228	0xbc09aed0	-0.008403495
229	0xbc370e90	-0.011172906
230	0x3dfd7926	0.12376623
231	0x3df5466c	0.119763225
232	0x3cff9700	0.031199932
233	0xbdccbbd2	-0.099967614
234	0x3dece3ac	0.115668625
235	0xbd54a50c	-0.051915213
236	0x3dc17b12	0.09447302
237	0x3dcec102	0.10095407
238	0x3c895d78	0.016768202
239	0x3d92c3d2	0.07166256
240	0x3db7d552	0.089762345
241	0x3dce1906	0.100633666
242	0xbdf6fbbe	-0.12059735
243	0x3d0a8058	0.033813804
244	0xbc40c500	-0.011765718
245	0xbc2a7850	-0.010404661
246	0xbd128fb4	-0.035781577
247	0x3d424294	0.047426775
248	0x3d142288	0.036165744
249	0x3df462de	0.1193292
250	0xbd855c28	-0.06511718
251	0x3bce6d40	0.0062996447
252	0x3d2a958c	0.041646525
253	0x3da16cd4	0.078820854
254	0x3bdb3e80	0.0066908
255	0x3d96ca1e	0.073627695

fc3.bias f4 [6]
0	0x3df03114	0.11728111
1	0x3d9b46ea	0.07581885
2	0x3de4220c	0.111393064
3	0x3d368e50	0.044569314
4	0xbd91d8a8	-0.07121402
5	0xbd30b198	-0.043138117

fc4.weight f4 [128, 1280]
0	0x3c50a25f	0.012734025
1	0x3c9e1228	0.019295767
2	0x3ac103f5	0.0014725911
3	0x3cae647d	0.02128815
4	0xbcc06365	-0.023484895
5	0xbbacf88c	-0.0052786525
6	0x3b89a969	0.0042011035
7	0x3af20c20	0.0018466748
8	0xbc8beb32	-0.017079923
9	0x3bfbe08b	0.0076866797
10	0x3c48974d	0.012243104
11	0xbcdf4509	-0.027254598
12	0x3cd33c67	0.025785638
13	0x3cc4d9f5	0.024029711
14	0x3c0a9c83	0.008460167
15	0x3c90edb8	0.017691478
16	0xbbc18b37	-0.0059064883
17	0xbc228d93	-0.009921449
18	0xbc73e14f	-0.014885261
19	0x3b97384a	0.0046148645
20	0x3af0f5f6	0.0018383849
21	0xba18a1f2	-0.00058224716
22	0xbc6d633d	-0.014488992
23	0xbac037ce	-0.0014665069
24	0x3c019467	0.007908917
25	0x3cce0259	0.025147604
26	0x3cc73781	0.024318459
27	0x3b3baef3	0.0028638213
28	0xbcbff9b7	-0.023434503
29	0x3a2e7b78	0.00066559715
30	0x3c78c06c	0.015182596
31	0xbc626c9c	-0.01381984
32	0xbcb877b5	-0.022518018
33	0x3bf8fb2c	0.0075983014
34	0x3cd6fd20	0.026243746
35	0x3c41b2d5	0.011822422
36	0x3cada289	0.021195667
37	0x3c0ec913	0.008714932
38	0x3c440381	0.011963726
39	0x3bc8f281	0.0061324243
40	0x3c0f359b	0.008740808
41	0xbc912d61	-0.017721834
42	0xbbcc0c73	-0.00622707
43	0x3c49749a	0.012295866
44	0x3cb1f3bc	0.021722667
45	0xbcc704df	-0.024294315
46	0xbccd6e1a	-0.025076915
47	0x3c5134dc	0.01276895
48	0xbbb4c977	-0.0055171805
49	0x3c87d289	0.016579883
50	0x3c4adfaf	0.012382432
51	0x3cb3e113	0.02195791
52	0xbc070d69	-0.008242943
53	0xbc4cde02	-0.012504103
54	0xbcc79908	-0.024364963
55	0xbcde837b	-0.027162304
56	0xbc520416	-0.012818357
57	0x3cc0c371	0.023530694
58	0x3bf42855	0.007451097
59	0x3a9903c6	0.0011674098
60	0xbc261d87	-0.010138876
61	0x3c95ff18	0.018310115
62	0x3cc9ba31	0.024624916
63	0xbc4b8430	-0.012421653
64	0x3c90248f	0.017595557
65	0xbbed648e	-0.007244653
66	0x3cc27768	0.023738578
67	0xbcca50dc	-0.02469676
68	0x3cc40141	0.02392638
69	0xbc0f9321	-0.008763106
70	0xbc938c51	-0.018011244
71	0xbcd819ee	-0.026379552
72	0xbce36986	-0.027760278
73	0xbc544293	-0.012955326
74	0xbcca5e87	-0.024703277
75	0xbcab4b3c	-0.020909898
76	0x3c4ef39f	0.012631326
77	0x3bbf2656	0.0058334274
78	0xbccbfda1	-0.024901213
79	0x3cc1f90c	0.023678325
80	0x3c79269c	0.015206959
81	0xbccf0baf	-0.025274126
82	0x3b8a0cdc	0.0042129587
83	0x3c8a185a	0.016857315
84	0x3c20e712	0.009820716
85	0x3c21b380	0.009869456
86	0x3ca89a31	0.020581337
87	0xbc4cca79	-0.012499445
88	0xbaa59df9	-0.001263558
89	0xbcc57c54	-0.024107136
90	0x3c029dde	0.007972209
91	0x3cc71128	0.024300173
92	0xbcb11e2b	-0.02162083
93	0x3c2d0bc3	0.010561886
94	0x3b597cce	0.0033185962
95	0xbc835759	-0.016032862
96	0xbcac8a27	-0.02106197
97	0x3c4cfb6e	0.012511117
98	0xbba5c224	-0.0050585438
99	0xbc3550fc	-0.011066671
100	0xbaba69f0	-0.0014222246
101	0xbc9e988a	-0.019359846
102	0x3c0b85ca	0.0085157845
103	0xbbe7de13	-0.007076034
104	0xbc43c85f	-0.011949628
105	0x3c303b29	0.010756292
106	0x3cbaecc5	0.022817979
107	0x3a8ea088	0.0010881582
108	0xbc32ba70	-0.010908708
109	0xbb2d1dce	-0.002641547
110	0xbc9420d2	-0.018082056
111	0xbc3917f1	-0.011297212
112	0x3b380f60	0.0028085336
113	0x3cab3510	0.020899326
114	0xbc077868	-0.008268453
115	0xbc0ae96f	-0.0084785065
116	0xbc998900	-0.018742085
117	0xbcc94764	-0.024570175
118	0xba0ccfe0	-0.0005371552
119	0xbb21d211	-0.002469186
120	0x3c80d3b9	0.015725957
121	0x3c479d5a	0.012183512
122	0xbbbbb561	-0.005728409
123	0xbcd9f1fa	-0.026604641
124	0xbc35d36a	-0.011097768
125	0x3c34546b	0.011006455
126	0xbc5b477e	-0.013383744
127	0x3c8ce785	0.01720024
128	0x3c1334dc	0.008984771
129	0x3c2ab654	0.010419447
130	0x3ce28151	0.027649553
131	0xbc91ed7e	-0.01781344
132	0xbb51beb3	-0.0032004535
133	0x3cbfa491	0.023393901
134	0xbc9b80b4	-0.018982269
135	0x3c57ccb0	0.01317136
136	0xbc132bdc	-0.008982625
137	0xbccf1622	-0.025279108
138	0xbb0a9d81	-0.0021151009
139	0x3c230c67	0.009951687
140	0x3bbead72	0.005819016
141	0xbca11999	-0.019665526
142	0x3c00f41f	0.007870703
143	0x39c776d9	0.00038044786
144	0x3b81a887	0.0039568576
145	0xbb22676f	-0.002478089
146	0xbbd8367b	-0.0065982915
147	0x3ce24586	0.027621042
148	0xbcbcb4e8	-0.023035482
149	0xbca4f9bc	-0.020138614
150	0x3ca8c9f0	0.020604104
151	0x3cd440a0	0.025909722
152	0x3c70df11	0.014701621
153	0xbce2ea88	-0.027699724
154	0x3c7c1e69	0.01538811
155	0x3cb982d7	0.022645397
156	0x3ca7ad94	0.02046851
157	0xbc91103a	-0.017707933
158	0xbcb081f7	-0.021546347
159	0x3cbfa1c9	0.023392575
160	0xbcda645f	-0.026659189
161	0x3b166bc6	0.0022952422
162	0xbc9d17dd	-0.019176418
163	0xbcbd1524	-0.02308137
164	0xbc89d911	-0.016827138
165	0x3c5c4314	0.013443727
166	0x3c301537	0.0107472455
167	0x3a7bd5a4	0.0009606725
168	0x3c54492c	0.012956899
169	0xbc42f950	-0.011900261
170	0xbb9c9a04	-0.0047791023
171	0xbc06f661	-0.008237452
172	0x3c827220	0.01592356
173	0xbcd72c23	-0.026266163
174	0xbbae1597	-0.0053126323
175	0x3cdf98b3	0.027294492
176	0xbcd33635	-0.025782684
177	0xbcdf9445	-0.02729238
178	0x3bbf137f	0.0058311815
179	0x3bd830a3	0.006597595
180	0xbc7e4cfb	-0.015521283
181	0x3cd6cfdd	0.026222164
182	0x3c9d3bcf	0.019193558
183	0x3c33b967	0.010969496
184	0x3bc1f840	0.0059194863
185	0xbc1cc134	-0.009567548
186	0x3c3a66dd	0.011377064
187	0x3c171d83	0.009223345
188	0xbbf0db2f	-0.0073503475
189	0x3bbd089f	0.00576885
190	0xbcd7b4df	-0.026331363
191	0xbc34c090	-0.011032239
192	0x3cb90d4b	0.022589346
193	0xb9d21a61	-0.00040073975
194	0x3c112378	0.008858554
195	0xbcafc061	-0.021454038
196	0xbc83e1af	-0.016098825
197	0x3c234be4	0.009966824
198	0x3c1daa42	0.009623112
199	0x3ce3d6a0	0.027812302
200	0x3a4459b1	0.00074901717
201	0xbc7fe9db	-0.01561972
202	0x3cc1894c	0.023625039
203	0xbc80ea1b	-0.01573663
204	0x3cb5e5e6	0.02220435
205	0x3ca79a39	0.020459281
206	0x3a83a31c	0.0010043117
207	0xbc32971b	-0.010900284
208	0x3c44f8a9	0.012022176
209	0xb9dc36da	-0.00042002538
210	0xbcd5220e	-0.026017215
211	0xbc0f2370	-0.008736476
212	0x3ce19d56	0.027540844
213	0xbc8b4070	-0.0169985
214	0xbca8f52f	-0.020624725
215	0x3bbdd11c	0.00579275
216	0x3cb2964f	0.021800188
217	0x3b88052b	0.0041510067
218	0xbc4369e6	-0.011927104
219	0x3c03df42	0.008048834
220	0x3ce3f870	0.027828425
221	0xbcc30b57	-0.023809118
222	0xbcc3901d	-0.02387243
223	0x3b79573e	0.0038046385
224	0xbcd75f96	-0.026290696
225	0x3c8a6c65	0.01689739
226	0xbca3c052	-0.019989166
227	0x3c9fd902	0.019512657
228	0xbb848d08	-0.0040451325
229	0xbc90889c	-0.017643265
230	0x3cb294ad	0.02179941
231	0x3cd24c6b	0.025671205
232	0x3c1ae944	0.009455029
233	0xbc790aac	-0.015200298
234	0xbb48c101	-0.0030632617
235	0x3ac7218b	0.0015192492
236	0xbc081223	-0.008305105
237	0xbc8efb86	-0.01745392
238	0xbc9007ac	-0.017581783
239	0xbccc8278	-0.024964556
240	0x3ccf623a	0.025315393
241	0x3cde46cb	0.027133366
242	0x3ce289f9	0.027653681
243	0x38a2062b	7.725911e-05
244	0xbc3bacd4	-0.01145478
245	0xba5354fe	-0.0008061676
246	0x3c829c75	0.015943745
247	0x3cb8beab	0.022551855
248	0x3c9d1d8f	0.019179134
249	0xbc7e11a4	-0.015507136
250	0xbc63cc4a	-0.013903687
251	0x3ca86561	0.020556154
252	0x3c86b046	0.016441476
253	0xbc9ce1c4	-0.019150622
254	0x3c2ee8f0	0.010675654
255	0xbc0158c5	-0.007894699

fc4.bias f4 [128]
0	0xbcccbc83	-0.024992233
1	0xbcd13a5e	-0.025540527
2	0x3afb975e	0.0019194891
3	0x3c562974	0.013071407
4	0xbad8bcac	-0.0016535721
5	0x3c65a293	0.0140158115
6	0xbc6e0dac	-0.014529627
7	0xbcd4d1e8	-0.025978997
8	0xbc8163b3	-0.01579461
9	0xbc6735da	-0.01411196
10	0x3c7f9d8d	0.015601528
11	0x3c9fc1f3	0.019501662
12	0x3afee748	0.0019447589
13	0x3cbd7e22	0.023131434
14	0x3a72b7db	0.0009258964
15	0x3c980dd7	0.018561287
16	0x3bc3d89d	0.00597675
17	0x3adc7b9c	0.0016821506
18	0x3bc4df12	0.0060080374
19	0x3bfcafb6	0.007711376
20	0xbc5da062	-0.013527008
21	0xbcb41ca5	-0.021986315
22	0x3c8f9198	0.01752548
23	0x3c962673	0.01832888
24	0x3cc6bc1c	0.02425962
25	0xbc8a9151	-0.016914995
26	0xbb3587ec	-0.0027699424
27	0xbc7400c1	-0.014892758
28	0xbb4b87cb	-0.003105628
29	0x3b42442a	0.002964268
30	0xbc44a150	-0.0120013505
31	0xbc416085	-0.011802797
32	0x3c9c52de	0.019082483
33	0x3ba05c47	0.004893813
34	0x3ca56af8	0.020192608
35	0xbcb27c8c	-0.021787904
36	0x3ce44d41	0.027868869
37	0x3bdcc0bb	0.0067368424
38	0xbc45a0f4	-0.0120623
39	0x3c5b8f4d	0.013400865
40	0xbc307d5c	-0.0107720755
41	0xbc84da0b	-0.016217252
42	0xbc40493c	-0.01173621
43	0xbc61bfae	-0.01377861
44	0x3c9c8484	0.019106157
45	0x3bf14f99	0.007364225
46	0x3c30ddb8	0.010795049
47	0x3ca4a713	0.020099198
48	0x3c4c93f1	0.012486444
49	0xbc58716e	-0.0132106375
50	0xbc07e738	-0.008294873
51	0x3ca51fa1	0.020156683
52	0x3c7c35aa	0.015393654
53	0x3c0db2d2	0.008648591
54	0x39d06573	0.00039748437
55	0xbcc0269c	-0.02345591
56	0xbb50f20b	-0.003188255
57	0x3bd4313f	0.006475597
58	0x3c9b4757	0.018954916
59	0xbab3d2d3	-0.0013719447
60	0x3b73fc5e	0.003722928
61	0x3cddfeae	0.02709898
62	0xbc88c5a7	-0.01669581
63	0xbc60e1ae	-0.013725681
64	0xbccf736b	-0.02532359
65	0x3c90b3fd	0.01766395
66	0xbc58e171	-0.013237343
67	0xbcc04545	-0.02347053
68	0xbc5010f8	-0.012699358
69	0xbcb73834	-0.022365667
70	0x3c81883d	0.015812034
71	0xbc868690	-0.016421586
72	0xbaedeb96	-0.0018151875
73	0x3af1e2a6	0.0018454387
74	0x3bab0de6	0.0052201627
75	0x3b249f01	0.0025119188
76	0x3b3885aa	0.0028155842
77	0xbc194d10	-0.009356752
78	0x3c5475a4	0.012967501
79	0x3c8a69cd	0.016896153
80	0x3ca7355d	0.020411188
81	0xbbe597f8	-0.0070066415
82	0x3c545807	0.0129604405
83	0x3cd7f1f2	0.026360486
84	0xbc5d9374	-0.013523925
85	0xbcae2d08	-0.021261707
86	0xbca7c21e	-0.020478304
87	0x3c4375a0	0.011929899
88	0xbc88c418	-0.016695067
89	0xb9e68c91	-0.0004397375
90	0x3c390867	0.011293507
91	0x3bae0a94	0.0053113196
92	0x3a8229ff	0.0009930729
93	0x3c12a949	0.008951494
94	0x3c8980a3	0.016784972
95	0x3b346c47	0.0027530359
96	0xbc611584	-0.01373804
97	0xbc753969	-0.014967301
98	0xbc986757	-0.018603964
99	0xbbcf3eae	-0.0063246107
100	0x3c09e77d	0.0084170075
101	0xbc5be46c	-0.013421159
102	0x3c5c6cf7	0.013453714
103	0xbc204160	-0.009781212
104	0x3c5215a8	0.012822546
105	0x3c399f2b	0.0113294525
106	0x3bca2cde	0.0061698994
107	0x3cd6e7a8	0.02623351
108	0x3c8044bc	0.015657775
109	0x3c7cacb9	0.01542204
110	0x3c17bd04	0.009261373
111	0x3c9806ae	0.018557873
112	0xbc47ba39	-0.012190395
113	0xbc41674c	-0.011804413
114	0xbc712573	-0.014718401
115	0xbc729fee	-0.014808638
116	0x3b468f87	0.0030297951
117	0xbb8919b7	-0.0041839737
118	0x3c511fd7	0.012763939
119	0xbc9a2d1d	-0.01882034
120	0x3c13dbba	0.009024555
121	0x3c6738b0	0.014112636
122	0xbc2a2e06	-0.010386949
123	0x3ce4ca72	0.027928565
124	0x3c586e45	0.013209884
125	0xbbca41dc	-0.006172402
126	0x3b93176a	0.004488875
127	0x3c9e5b33	0.019330597

fc5.weight f4 [64, 128]
0	0xbd469f43	-0.048491728
1	0xbd98eb1b	-0.07466718
2	0xbd42d156	-0.04756292
3	0xbcd2feb1	-0.025756212
4	0xbd9b2697	-0.0757572
5	0x3d62b31d	0.055346597
6	0xbc8e1439	-0.017343627
7	0xbd1ed2b5	-0.038775165
8	0x3d2a840e	0.041629843
9	0xbca6a2a0	-0.020341218
10	0xbd6b6d5d	-0.057477344
11	0x3c226edf	0.009914129
12	0x3ce942c5	0.028474221
13	0x3cd7fb7c	0.026365034
14	0x3c035320	0.008015424
15	0x3d2c6f10	0.042098105
16	0x3c9cd93c	0.019146554
17	0x3c65b338	0.01401978
18	0xbd3a952c	-0.045552418
19	0x3c94ab45	0.018148074
20	0xba8d8fee	-0.0010800341
21	0x3d415f79	0.04721019
22	0x3ca01b8e	0.01954439
23	0x3d238192	0.03991849
24	0xbd86fbdf	-0.06591009
25	0xbd06d6fc	-0.03291987
26	0xbcc2ef77	-0.023795826
27	0xbbfc4563	-0.007698701
28	0xbc98c80b	-0.018650075
29	0x3d4ed5f8	0.050497025
30	0x3d29f393	0.041492056
31	0xbd82e633	-0.06391563
32	0x3da0576a	0.07829173
33	0x3c97b02f	0.018516628
34	0x3d1e5252	0.038652726
35	0xbcc287e5	-0.02374644
36	0x3d30644d	0.043064404
37	0xbd594d7b	-0.053052407
38	0x3ccdd01e	0.025123652
39	0x3daa67dc	0.08320591
40	0xbd3c3187	-0.04594567
41	0x3d89e62b	0.06733354
42	0xbd70374f	-0.058646496
43	0xbd66568d	-0.056234885
44	0x3cf3fb6d	0.029782975
45	0x3d494db3	0.049146365
46	0xbd9db21e	-0.07699989
47	0xbc24cc55	-0.010058482
48	0x3d8abce5	0.0677431
49	0x3d735f5b	0.05941711
50	0xbd2d7f82	-0.04235793
51	0x3d722758	0.059119552
52	0x3c7f522a	0.015583554
53	0xbd5b66b8	-0.053564757
54	0xbb3e9bac	-0.0029084487
55	0x3d55a4e0	0.05215919
56	0x3d0878e0	0.0333184
57	0xbcd306ab	-0.025760015
58	0x3c47df9e	0.012199311
59	0xbd79d1dd	-0.060991157
60	0x3cb031e0	0.021508157
61	0xbd4a3ebc	-0.049376234
62	0xbcb89606	-0.022532474
63	0x3b52f81c	0.0032191342
64	0x3bf9ec2b	0.0076270304
65	0xbd9e2e6a	-0.077236965
66	0x3d925e91	0.07146943
67	0xbd9b5e63	-0.07586362
68	0x3cf8f1f7	0.030388815
69	0xbda1ab9a	-0.078940585
70	0xbb1a0775	-0.002350298
71	0x3cfb3e69	0.030669408
72	0x3daf505c	0.08560249
73	0x3be3d953	0.0069533973
74	0xbd576756	-0.052588783
75	0x3b3b44f4	0.0028575035
76	0x3d869335	0.06571046
77	0xbd2a5859	-0.04158816
78	0xbd5ce7a6	-0.053931855
79	0xbd189c09	-0.03725818
80	0xbb832694	-0.0040024016
81	0x3cd20625	0.025637696
82	0x3d734583	0.059392463
83	0xbd334404	-0.043766037
84	0xbd3e975d	-0.04653107
85	0xbda2890c	-0.07936296
86	0x3d49b821	0.049247865
87	0xbdad909b	-0.08474847
88	0xbd910215	-0.07080475
89	0xbd11239c	-0.03543435
90	0xbd8f8538	-0.07007831
91	0xbb57e788	-0.00329444
92	0x3c04f496	0.008114954
93	0x3da3f891	0.08006395
94	0xbcd75436	-0.026285272
95	0xbd07fd46	-0.033200525
96	0x3c5f589c	0.013631966
97	0xbd40bc38	-0.0470545
98	0x3d216a89	0.03940824
99	0xbd8683d8	-0.06568116
100	0xbce6c6b4	-0.02817092
101	0x3d7086b1	0.0587222
102	0xbc4141d4	-0.01179548
103	0x3d45bc10	0.048275054
104	0xbc259987	-0.010107405
105	0xbd853c64	-0.06505659
106	0xbda951d1	-0.08267558
107	0xbd82d86a	-0.06388934
108	0xbd81e06c	-0.06341633
109	0xbd8a5e01	-0.06756211
110	0xbb93bff0	-0.0045089647
111	0x3d9e546a	0.077309445
112	0xba3bce50	-0.0007164227
113	0xbc53bd86	-0.012923604
114	0xbd66d4cb	-0.05635528
115	0xbd8122dc	-0.06305477
116	0x3d086848	0.033302575
117	0xbc68f4a2	-0.014218481
118	0xbd9c8bfa	-0.07643886
119	0xbda305a7	-0.079600625
120	0xbd23585a	-0.03987918
121	0xbd61ccf6	-0.055127107
122	0xbc82b55a	-0.015955616
123	0xbdaa9adc	-0.08330318
124	0xbbf2d342	-0.007410438
125	0x3d8de88d	0.06929121
126	0xbc1e74a3	-0.009671363
127	0x3d8acfa2	0.06777884
128	0x3c19549a	0.0093585495
129	0xbd1d3695	-0.03838213
130	0x3d934671	0.0719117
131	0xbdafbe3e	-0.08581208
132	0xbd1da3a2	-0.03848613
133	0x3d40ae7d	0.047041405
134	0x3d1f0e91	0.03883225
135	0xbc0a3ea6	-0.008437788
136	0xbda803d7	-0.082038574
137	0xbc2b9fc5	-0.010475104
138	0x3daddb0d	0.08489046
139	0x3d0bbca2	0.03411544
140	0xbd8d93d1	-0.06912959
141	0x3d761a05	0.060083408
142	0xbd9b9597	-0.075968914
143	0x3d97e7ce	0.0741726
144	0xbd597bad	-0.053096462
145	0x3d2399fa	0.039941765
146	0xbbf4d6bd	-0.007471888
147	0x3d75f48b	0.060047667
148	0x3dadaa99	0.084798045
149	0xbd9c3921	-0.07628084
150	0xbd7fe1b8	-0.06247112
151	0xbdae6ff9	-0.08517451
152	0xbda6167c	-0.08109757
153	0xbd592e04	-0.0530224
154	0x3da77fe1	0.08178688
155	0xbca6d1ab	-0.02036365
156	0xbd81b32a	-0.06333001
157	0x3d78ef0f	0.06077486
158	0xbd8dc0e4	-0.069215566
159	0x3cefa78b	0.029254695
160	0x3c810933	0.015751457
161	0x3c9eb8e0	0.019375265
162	0x3d10ddcb	0.03536777
163	0x3d041dab	0.032254856
164	0x3c27269c	0.010202076
165	0xbd217a34	-0.039423183
166	0x3c9a7602	0.018855099
167	0xbda00390	-0.078131795
168	0x3d8e7f80	0.069579124
169	0xbd0b37cb	-0.033988755
170	0xbd986943	-0.07441952
171	0x3d6783de	0.056522243
172	0xbd40599d	-0.046960462
173	0xbc968026	-0.018371653
174	0xbd1ff463	-0.039051425
175	0xbd0c58fb	-0.034264546
176	0x3cecfe45	0.028929839
177	0x3cf4a4de	0.029863771
178	0xbd9c8970	-0.076434016
179	0x3bf83a02	0.0075752744
180	0xbd9acd2d	-0.075586654
181	0xbd8f5e73	-0.07000437
182	0x3c6e95fb	0.014562125
183	0xbd29f894	-0.04149683
184	0xbd59f8f2	-0.05321593
185	0xbd5609dc	-0.052255496
186	0xbd7a44b9	-0.061100695
187	0x3d628d1b	0.05531035
188	0xbbc0293e	-0.0058642915
189	0xbd180a73	-0.03711934
190	0xbd933776	-0.07188313
191	0xbda6182e	-0.08110081
192	0x3cecfb05	0.02892829
193	0x3d9fb1e7	0.07797604
194	0xbdb1ebe1	-0.086875685
195	0xbc956c66	-0.018240165
196	0xbcb94322	-0.02261502
197	0xbd09a6b6	-0.033606254
198	0xbd4b8bde	-0.049693935
199	0xbbce85ee	-0.0063025868
200	0x39d9751a	0.00041476713
201	0xbd250667	-0.04028931
202	0xbdaba888	-0.08381754
203	0xbd26cb1e	-0.04072105
204	0x3d6e2ad0	0.058146298
205	0x3c36d755	0.011159738
206	0x3d3e25e7	0.046422865
207	0x3c45e6c9	0.012078949
208	0xbdb4e7e8	-0.08833295
209	0x3d9a86f2	0.0754527
210	0xbd504e6d	-0.050856043
211	0x3cad9df8	0.02119349
212	0xbdaf7a99	-0.085683055
213	0x3c528b64	0.012850616
214	0xbd16de7b	-0.036833268
215	0xbcd8db81	-0.026471855
216	0xbd73b38b	-0.059497397
217	0xbc426b91	-0.011866466
218	0xbca9722c	-0.020684324
219	0xbd9eef0e	-0.0776044
220	0xbab3e528	-0.001372491
221	0xbd961852	-0.073288575
222	0x3cdc3326	0.026879858
223	0xbc69b8e6	-0.014265275
224	0xbd7b9ef9	-0.061430905
225	0xbd1277e5	-0.03575887
226	0x3d62b1fa	0.055345513
227	0xbd7f65b3	-0.062352847
228	0xbd736711	-0.059424464
229	0xbd29f0ca	-0.0414894
230	0x3d991036	0.07473795
231	0x3d751283	0.059832107
232	0xbd66bf61	-0.056334857
233	0xbbb5addc	-0.0055444073
234	0xbc332f2a	-0.010936538
235	0xbd4f2395	-0.050571043
236	0xbd9b159a	-0.075724795
237	0xbcd4bbd1	-0.025968464
238	0x3d3207d6	0.043464504
239	0x3d03be85	0.032164115
240	0xbd28926b	-0.04115526
241	0x3cf584cc	0.029970549
242	0x3d96a535	0.073557295
243	0xbda7fbae	-0.08202301
244	0xbd56adcc	-0.05241184
245	0xbda9dea8	-0.082944214
246	0xbd2c726c	-0.04210131
247	0x3d8580e0	0.065187216
248	0xbda797ee	-0.08183275
249	0x3d85c07c	0.06530854
250	0xbc72ea76	-0.014826408
251	0xbcd56750	-0.02605024
252	0xbd895e8f	-0.06707489
253	0xbd73a608	-0.05948451
254	0xbc3ca266	-0.011513328
255	0xbdacbe49	-0.084347315

fc5.bias f4 [64]
0	0xbd4bf236	-0.049791537
1	0xbd22df6c	-0.039763853
2	0x3c987b03	0.018613344
3	0x3db1f3d1	0.086890824
4	0x3c14cc76	0.00908195
5	0xbcd740da	-0.02627604
6	0xbd4fad4e	-0.050702386
7	0xbd3ce607	-0.04611781
8	0x3cc6ecdb	0.024282863
9	0x3db4bab7	0.088246755
10	0xbc57c055	-0.013168414
11	0x3d2b847e	0.0418744
12	0xbd8062f4	-0.06268874
13	0x3c11b56e	0.008893354
14	0xbb6ab0be	-0.0035810913
15	0xbd15ff23	-0.03662027
16	0x3d9aeea0	0.07565045
17	0xbc8329e5	-0.016011188
18	0x3d100284	0.03515865
19	0xbd110bdb	-0.035411697
20	0xbdaf5408	-0.085609496
21	0xbd6da9d8	-0.058023304
22	0x3d9defbf	0.077117436
23	0x3d516947	0.05112579
24	0x3cbb1934	0.022839166
25	0xbb252e39	-0.0025204553
26	0x3d79e39b	0.061008077
27	0xbd59c8ea	-0.053170122
28	0xbd4e8884	-0.05042316
29	0x3d796cef	0.060894903
30	0xbcb03c38	-0.02151309
31	0x389050ea	6.8815265e-05
32	0x3d98de51	0.074642785
33	0xbd0705d2	-0.032964535
34	0xbd83f15e	-0.064425215
35	0xbd1897ea	-0.03725425
36	0x3d7eaa16	0.062173925
37	0xbd1db906	-0.03850653
38	0x3d3a3c33	0.045467567
39	0xbca34db3	-0.01993451
40	0xbdb2fbdf	-0.08739447
41	0xbd81a660	-0.06330562
42	0xbd84cf43	-0.064848445
43	0x3d11c694	0.03558977
44	0x3d985327	0.07437735
45	0xbd2a0570	-0.04150909
46	0xbb4aa4b6	-0.003092093
47	0x3d7f0819	0.062263582
48	0x3d428be8	0.047496706
49	0x3d50a8fd	0.05094241
50	0xbce2aa98	-0.027669236
51	0xbc26dffd	-0.010185239
52	0xbb4f2f5f	-0.0031613929
53	0xbaf0d9f1	-0.0018375498
54	0xbda7024a	-0.081547335
55	0x3d358613	0.044317316
56	0x3c89444a	0.016756196
57	0x3d472110	0.048615515
58	0xbb8e9b4e	-0.00435201
59	0xbd420317	-0.047366228
60	0x3c64d503	0.013966802
61	0xbc5755de	-0.013143031
62	0xbcbf44d3	-0.023348248
63	0x3d5a02f7	0.053225484
