models/model_test.pt (torch, 763673 bytes, 14 tensors)

fc1.weight f4 [128, 36]
0	0xbddb5dce	-0.10711251
1	0xbd081b46	-0.033229135
2	0xbde23748	-0.110457
3	0x3d7187cc	0.058967397
4	0xbd711ad8	-0.05886349
5	0x3d864803	0.06556704
6	0xbda43e73	-0.08019724
7	0xbdf45d23	-0.11931827
8	0xbdf37956	-0.11888377
9	0xbdafa2e0	-0.08575988
10	0x3cc12dc2	0.02358139
11	0xbe1d2351	-0.15345503
12	0xbc2bffc6	-0.010497993
13	0xbd1923fb	-0.03738783
14	0x3de41973	0.111376666
15	0x3de16797	0.11006086
16	0x3d0e1c0c	0.034694716
17	0xbbdb817b	-0.006698785
18	0x3c6843b7	0.014176301
19	0x3d044be6	0.032298945
20	0x3db21db0	0.08697069
21	0x3d848d3a	0.06472249
22	0x3e1011dc	0.14069313
23	0xbd95b0c8	-0.07309109
24	0x3da036a8	0.07822925
25	0xbdae8948	-0.08522278
26	0xbd8ed2e3	-0.06973817
27	0xbd0ef8d0	-0.034905255
28	0x3e13bf2f	0.144284
29	0x3d8580ec	0.065187305
30	0x3c6db572	0.014508592
31	0xbdcb0956	-0.0991389
32	0x3c63dbb6	0.013907364
33	0xbdf820da	-0.12115641
34	0x3e212c89	0.15739645
35	0x3daa197e	0.083056435
36	0x3d62850b	0.05530266
37	0xbd09b36b	-0.033618372
38	0x3dc9f560	0.09861255
39	0x3c227a76	0.009916892
40	0x3e11e81d	0.142487
41	0x3d722bd8	0.059123844
42	0x3e013c77	0.12620722
43	0x3e0a712e	0.13519737
44	0x3d50af26	0.050948285
45	0xbe0ca81c	-0.13736004
46	0xbd764460	-0.0601238
47	0x3cf75037	0.030189617
48	0x3a63c70f	0.0008689025
49	0xbd2f6146	-0.042817377
50	0xbdc88158	-0.09790295
51	0x3aebab54	0.0017980137
52	0xbdae79dc	-0.085193366
53	0xbdb6c895	-0.08924977
54	0x3e09e89f	0.13467644
55	0xbe1a69d0	-0.15079427
56	0x3e1e93a7	0.15486012
57	0xbc479d2b	-0.012183468
58	0xbd7cd261	-0.06172407
59	0xbd158fb4	-0.036514
60	0x3cb0b78d	0.021571899
61	0xbd9e3c63	-0.077263616
62	0x3e207ddc	0.15673012
63	0x3ca830d0	0.020531088
64	0x3ca26c29	0.019826965
65	0x3d1bec84	0.038067356
66	0xbd030c70	-0.031994283
67	0x3e299b2b	0.16563098
68	0x3e26416e	0.16235897
69	0x3d083e6f	0.033262666
70	0x3db2ddb4	0.08733693
71	0x3b931bd8	0.004489403
72	0xbccb9016	-0.024848979
73	0x3d07ef36	0.033187114
74	0xbe1a827f	-0.15088843
75	0x3d3d3196	0.046189867
76	0xbd37d90c	-0.044884726
77	0xbb2ddb6e	-0.0026528495
78	0x3d4467fb	0.047950726
79	0xbdc74000	-0.09729004
80	0xbd0dc7f6	-0.034614526
81	0x3d2a3991	0.041558806
82	0xbdf58dc9	-0.11989934
83	0xbbb8264a	-0.005619799
84	0x3e07a384	0.1324597
85	0x3df78558	0.1208598
86	0xbe0f4c80	-0.13994026
87	0x3cf7cbdd	0.030248577
88	0x3db3c424	0.08777645
89	0x3ddf4817	0.10902422
90	0xbdfd09d3	-0.123553894
91	0xbd0104e6	-0.031498812
92	0xbd4dd9d6	-0.050256573
93	0xbe17b048	-0.1481334
94	0xbe1dbc7c	-0.15403932
95	0x3dc93f37	0.098265104
96	0xbdad0788	-0.08448702
97	0x3d47de86	0.0487962
98	0x3d10abab	0.035319965
99	0x3d66fa78	0.05639121
100	0xbdfba86c	-0.12287983
101	0xbe0597ae	-0.13046142
102	0xbde9d2de	-0.11417173
103	0x3dc790c0	0.09744406
104	0x3d5e8f8b	0.054336112
105	0xbd309e84	-0.043119922
106	0x3d9d998f	0.076953046
107	0x3da10801	0.07862855
108	0xbc89f216	-0.016839068
109	0x3c2d15eb	0.010564308
110	0x3e06b2eb	0.1315419
111	0xbde37195	-0.111056484
112	0xbdbe0b4a	-0.09279497
113	0xbe0ba3af	-0.13636659
114	0x3e27c4b6	0.16383633
115	0x3d996cb3	0.07491436
116	0xbd6f69c6	-0.058450483
117	0x3e2182fd	0.15772624
118	0x3e24a409	0.160782
119	0xbc854b2b	-0.016271194
120	0x3d341bf6	0.043971978
121	0x3d7b8d90	0.0614143
122	0xbe236f60	-0.15960455
123	0xbd7ca9fe	-0.061685555
124	0xbd61c3dd	-0.05511843
125	0xbdb2a1cd	-0.08722267
126	0xbe023c5b	-0.12718336
127	0x3def50db	0.11685344
128	0xbc46a9ab	-0.012125413
129	0x3d86b231	0.06576956
130	0xbda28e65	-0.07937316
131	0xbd13ded5	-0.03610118
132	0x3e0e4ab2	0.13895682
133	0x3de5be6e	0.11217962
134	0x3d4fa566	0.050694846
135	0x3dc5b772	0.0965413
136	0xbda8964b	-0.08231791
137	0x3d8b5417	0.06803148
138	0x3dae3303	0.085058235
139	0xbde30dd0	-0.11086619
140	0xbd55660b	-0.05209927
141	0x3e102f1c	0.14080471
142	0x3d87d09f	0.06631588
143	0xbde56fa0	-0.112029314
144	0x3c6a85a6	0.014314091
145	0xbdc84f40	-0.09780741
146	0xbe001c10	-0.12510705
147	0x3e1f435b	0.15553038
148	0x3dbe0443	0.092781566
149	0xbdbfc3c6	-0.09363513
150	0x3da55ea3	0.08074691
151	0xbdac9903	-0.08427622
152	0x3dda0b8b	0.10646733
153	0xbd6ad224	-0.057329312
154	0x3d6859b4	0.056726173
155	0x3bfee6eb	0.0077789924
156	0x3db20798	0.08692855
157	0xbdc24173	-0.0948514
158	0x3c671324	0.014103685
159	0xbe0967e3	-0.13418536
160	0xbdf831d3	-0.12118878
161	0x3e20dcf2	0.15709284
162	0xbd555e80	-0.052092075
163	0xbe2944ae	-0.16530105
164	0xbe0e5a9f	-0.13901757
165	0xbd31a7af	-0.043372806
166	0xbd849da8	-0.06475383
167	0xbd035e2c	-0.03207223
168	0xbd9dfa13	-0.077137135
169	0xbce860c0	-0.028366446
170	0xbddb2658	-0.10700673
171	0xbd6440aa	-0.05572573
172	0xbe152f56	-0.14568838
173	0x3e002638	0.1251458
174	0xbd889d53	-0.06670632
175	0x3da800e6	0.08203296
176	0xbd00e570	-0.03146881
177	0x3e0b21de	0.13587138
178	0xbd706817	-0.058693018
179	0x3d74fbd2	0.059810467
180	0xbdf67363	-0.12033727
181	0xbe23462a	-0.15944734
182	0xbdfaf7fe	-0.12254332
183	0x3d3d378d	0.046195555
184	0x3e06c1e0	0.13159895
185	0x3dbd1837	0.09233134
186	0xbd00fb86	-0.03148987
187	0x3d810c93	0.063012265
188	0x3e2262e6	0.1585804
189	0xbd960581	-0.073252685
190	0xbe275982	-0.16342738
191	0x3d9c05d6	0.076183006
192	0xbe249263	-0.16071467
193	0xb9126620	-0.0001396169
194	0xbc8959cb	-0.01676645
195	0x3d7bc634	0.061468318
196	0xbd9b9035	-0.07595865
197	0xbb0e040b	-0.002166989
198	0x3b493d8a	0.0030706846
199	0xbdbaf3e0	-0.09128547
200	0xbd63de06	-0.05563166
201	0x3d5ab6ed	0.053397108
202	0x3d86b76a	0.06577952
203	0x3e1b2c67	0.15153657
204	0x3d566d3b	0.052350264
205	0x3e1eff02	0.15526965
206	0x3d0032bb	0.03129838
207	0x3df82c99	0.12117881
208	0x3e04efba	0.12982073
209	0x3dbae4ed	0.091256954
210	0xbdfc7896	-0.123276874
211	0x3d32a0d6	0.043610416
212	0x3e1d90d8	0.15387285
213	0xbd20737c	-0.039172634
214	0x3cde1eaa	0.027114231
215	0x3e16d782	0.14730647
216	0x3e17821e	0.1479573
217	0xbd949163	-0.07254293
218	0x3cd362cb	0.025803944
219	0xbbe44e50	-0.0069673434
220	0x3be9d7c1	0.0071363156
221	0xbd866939	-0.065630384
222	0xbccabe40	-0.024748921
223	0xbd54032b	-0.051760834
224	0xbde72ffe	-0.11288451
225	0xbd221e71	-0.039579812
226	0x3dfdf7a7	0.124007516
227	0x3b605bfa	0.003423451
228	0x3c9b5a00	0.018963814
229	0x3df5953b	0.11991354
230	0x3e00ff74	0.12597448
231	0xbc4838fc	-0.012220617
232	0xbe0d0dd4	-0.13774806
233	0x3cce3670	0.025172442
234	0x3e29c0ac	0.16577405
235	0xbde8d30b	-0.11368378
236	0x3d9aec20	0.075645685
237	0xbde0d6bd	-0.10978458
238	0xbd0d51cd	-0.03450184
239	0x3d85c17b	0.06531044
240	0x3dd2f8e3	0.103013776
241	0xbdcb490b	-0.09926041
242	0x3e14d678	0.14534938
243	0x3dcd9097	0.10037344
244	0x3e296bb5	0.16544993
245	0xbc4b4802	-0.012407305
246	0x3caa47b7	0.02078615
247	0xbe200beb	-0.15629546
248	0x3d8bfd26	0.068353936
249	0x3df77460	0.12082744
250	0xbd60f950	-0.054925263
251	0xbe1b0b9f	-0.15141152
252	0x3d2a6e76	0.04160925
253	0x3cd0d42b	0.025491795
254	0x3d47c2f0	0.04876989
255	0x3e14bfa7	0.14526235

fc1.bias f4 [128]
0	0x3cefd26f	0.029275147
1	0x3e02c336	0.1276978
2	0x3dc93085	0.098237075
3	0xbc153822	-0.009107621
4	0x3dc5fa51	0.09666885
5	0x3de1e913	0.110307835
6	0x3e070bcd	0.13188095
7	0xbe0ca228	-0.13733733
8	0x3e161655	0.14656956
9	0x3e29b877	0.16574274
10	0xbd32eb0b	-0.043681186
11	0xbcf703b6	-0.030153137
12	0xbe193e1a	-0.14965096
13	0x3e10cee0	0.14141417
14	0x3be6fbf8	0.00704908
15	0xbe02b55b	-0.12764494
16	0xbc91dc2b	-0.01780518
17	0xbd1e5f16	-0.0386649
18	0xbde9d5a8	-0.11417705
19	0xbdd4c4f6	-0.1038913
20	0xbde25363	-0.11051061
21	0xbe096c5e	-0.13420245
22	0x3e07daae	0.13267013
23	0x3e192462	0.14955285
24	0x3d19ccf8	0.03754899
25	0xbd906700	-0.07050896
26	0xbcebd6cb	-0.028788945
27	0xbd9ddb40	-0.07707834
28	0x3d76ca62	0.0602516
29	0xbdd51c0b	-0.104057394
30	0x3def81bd	0.116946675
31	0x3e259533	0.16170196
32	0xbdc8ef48	-0.09811264
33	0x3d9d61b8	0.07684654
34	0x3d02642f	0.031833824
35	0xbe0c1343	-0.13679223
36	0xbc8fc24b	-0.0175487
37	0x3cd7b772	0.02633259
38	0x3de1b1a9	0.11020214
39	0xbd02c93b	-0.03193019
40	0x3deffd57	0.117182426
41	0xbd990966	-0.07472496
42	0x3e03ebf5	0.12882979
43	0x3e079569	0.13240589
44	0x3dba9d94	0.09112087
45	0x3e0de110	0.13855386
46	0x3da78c12	0.08181013
47	0x3d4b459f	0.049626943
48	0xbd97c7be	-0.07411145
49	0x3e0e191e	0.13876769
50	0x3e1fa0fe	0.15588757
51	0xbd11c4bb	-0.035588007
52	0x3e0ec141	0.13940908
53	0xbe01b1b7	-0.12665449
54	0xbd913723	-0.070905946
55	0x3e0d06e4	0.1377216
56	0x3e1355eb	0.14388244
57	0x3e023003	0.12713628
58	0x3e1eaf13	0.15496473
59	0xbdd50068	-0.10400468
60	0x3c29128c	0.010319363
61	0x3e0a4285	0.13501938
62	0x3dcae5fe	0.09907149
63	0xbcf14516	-0.029451888
64	0xbd3cd8cb	-0.046105187
65	0x3e1286ec	0.14309281
66	0xbda81d88	-0.08208758
67	0x3e232cf6	0.1593512
68	0x3c8b9564	0.017039008
69	0xbcb927ab	-0.022601923
70	0x3d6ef682	0.058340557
71	0x3daebc8e	0.08532058
72	0x3dcaa289	0.09894282
73	0xbd9be406	-0.076118514
74	0xbd98089b	-0.07423516
75	0xbd92670e	-0.07148562
76	0xbd8fe52e	-0.070261344
77	0x3e285914	0.1644023
78	0xbe07a40a	-0.1324617
79	0x3d9b5487	0.07584482
80	0xbd91e09e	-0.071229205
81	0xbda9608b	-0.08270367
82	0x3dcc6394	0.099799305
83	0x3debaa7a	0.11507125
84	0x3d3e1bbf	0.04641318
85	0x3e20064a	0.15627399
86	0x3e0c4f54	0.13702136
87	0xbdea4e0e	-0.11440669
88	0x3dcdfb86	0.1005774
89	0x3d804a4e	0.062641725
90	0x3e265d71	0.16246583
91	0xbda1de16	-0.07903688
92	0x3e18f68d	0.14937802
93	0xbcee9de0	-0.029128015
94	0xbdeda17b	-0.116030656
95	0x3d910459	0.070809074
96	0x3d95e331	0.07318724
97	0xbddbe9a6	-0.10737924
98	0xbc9dace0	-0.019247472
99	0x3c4737f7	0.012159339
100	0x3c50de11	0.012748257
101	0xbc654e40	-0.013995707
102	0xbe232be0	-0.15934706
103	0x3d92f25a	0.07175131
104	0xbe1e6984	-0.15469939
105	0x3de4b957	0.11168163
106	0x3d58422d	0.052797485
107	0x3e225550	0.15852857
108	0x3e02bf21	0.12768222
109	0x3d91fc50	0.07128203
110	0xbd1e15ab	-0.038594883
111	0xbe03d1b6	-0.12872967
112	0xbde0d3ee	-0.109779224
113	0x3e201e86	0.15636644
114	0xbdb4011e	-0.087892756
115	0xbc86bc16	-0.016447108
116	0x3e25a765	0.16177137
117	0xbe209fd3	-0.15685968
118	0xbd0dd810	-0.03462988
119	0xba2c66fc	-0.0006576625
120	0x3d2615d9	0.04054818
121	0x3c94b077	0.018150551
122	0xbde033f6	-0.10947411
123	0x3ca081c0	0.01959312
124	0xbe214107	-0.15747462
125	0xbd662b3b	-0.05619357
126	0x3d7a311a	0.061081983
127	0x3deee11d	0.11664031

fc2.weight f4 [64, 128]
0	0x3daa6e27	0.08321791
1	0xbc46698e	-0.012110127
2	0x3cae8c44	0.021307118
3	0xbbdf06fc	-0.0068062525
4	0xbd87372a	-0.066023186
5	0x3c65eaba	0.014033014
6	0xbda2a350	-0.07941306
7	0xbda561fd	-0.080753304
8	0xbda0c58c	-0.07850179
9	0x3d6d09e4	0.05787076
10	0xbd061677	-0.032736268
11	0x3bb80d9e	0.0056168577
12	0xba1fe176	-0.0006098965
13	0x3c8b7bd5	0.017026821
14	0xbda7feae	-0.08202873
15	0xbc1ebbb4	-0.009688307
16	0xbc9b9d9f	-0.018996058
17	0x3befcb63	0.0073179468
18	0xbc338baa	-0.0109585915
19	0x3d713a4c	0.058893487
20	0x3c41a9d2	0.0118202735
21	0xbd3705d5	-0.044683296
22	0x3d0b9494	0.034077242
23	0xbdad0abb	-0.08449312
24	0xbd2018fe	-0.039086334
25	0xbd963fab	-0.073363625
26	0x3bb7b962	0.005606816
27	0x3c7112a5	0.014713918
28	0xbb34bf1f	-0.0027579737
29	0x3d5e91c8	0.054338247
30	0x3d6bd44d	0.057575513
31	0xbda11083	-0.078644775
32	0x3da6891c	0.0813162
33	0x3d014151	0.03155643
34	0x3c972f2e	0.018455114
35	0x3ca6c173	0.020355916
36	0x3b96bad1	0.004599907
37	0xbc477d76	-0.012175908
38	0xbc57bfa0	-0.013168246
39	0xbcd53680	-0.026026964
40	0xbcb7dcac	-0.022444092
41	0x3cb241a5	0.021759817
42	0x3d0e048f	0.034672316
43	0xbd3c9e47	-0.046049383
44	0x3da6089a	0.08107109
45	0xbc2f525d	-0.010700789
46	0x3d8f310a	0.06991775
47	0xbb8c7543	-0.0042864396
48	0xbcdd9979	-0.02705072
49	0xbc5abea8	-0.01335112
50	0x3b93d060	0.004510924
51	0xbd9a52c0	-0.075353146
52	0xbda78c35	-0.08181039
53	0xbdad5542	-0.08463527
54	0xbd445195	-0.047929365
55	0xbc340fd9	-0.0109901065
56	0xbcd2be9c	-0.025725655
57	0x3d399511	0.045308176
58	0xbcd7ac88	-0.026327386
59	0x3d6bc3d7	0.057559814
60	0x3c9ecd18	0.019384906
61	0xbd138616	-0.036016546
62	0xbdaa2cd2	-0.0830933
63	0xbd01a307	-0.031649616
64	0xbdad79f6	-0.08470528
65	0x3c18edf0	0.0093340725
66	0xbca757aa	-0.020427544
67	0x3d2a5bdf	0.04159152
68	0x3cd87ba6	0.026426148
69	0xbc5ba33b	-0.013405616
70	0xbda73bb9	-0.08165688
71	0xbc503051	-0.012706832
72	0x3c695c50	0.0142432
73	0x3d84f00e	0.06491099
74	0xbd59078b	-0.05298571
75	0xbd5e4be9	-0.054271612
76	0x3d78c417	0.06073388
77	0xbd945509	-0.07242782
78	0x3dac7ffc	0.084228486
79	0xbce55cdd	-0.027998382
80	0x3d4365fe	0.04770469
81	0xbd9c1e82	-0.076230064
82	0xbd0a17b7	-0.033714022
83	0x3d02f42a	0.031971134
84	0xbc9332fb	-0.017968645
85	0xbc8a4b33	-0.01688156
86	0xbd93e211	-0.07220853
87	0xbc129dcd	-0.008948755
88	0x3aaecbd6	0.0013335894
89	0xbd1aeb9e	-0.03782236
90	0x3da79639	0.081829496
91	0x3d5ecae9	0.05439273
92	0xbd8f4023	-0.06994655
93	0xbd0b8999	-0.03406677
94	0x3d83941d	0.06424735
95	0xbd934f12	-0.07192816
96	0x3d291a5e	0.04128491
97	0x3cd7354c	0.026270531
98	0xbd8cd2a7	-0.06876116
99	0x3d5b8ef8	0.053603142
100	0xbbc7f0cf	-0.0061017047
101	0x3b491aad	0.0030686066
102	0xbd81289f	-0.06306576
103	0xbd3dcaa7	-0.046335842
104	0x3c8eece3	0.01744694
105	0xbd00d951	-0.03145725
106	0x3c15c612	0.009141462
107	0xbda1bab7	-0.07896941
108	0xbc8790ef	-0.016548602
109	0xbdb055c7	-0.08610111
110	0xbd65aa9d	-0.056070913
111	0xbd9abe99	-0.07555885
112	0x3b45c69d	0.0030178197
113	0xba50e189	-0.00079681777
114	0x3d3d54be	0.046223395
115	0x3c174bf3	0.009234416
116	0xbdaf966c	-0.085736126
117	0xbd4ef6ba	-0.050528266
118	0x3c6accd9	0.014331066
119	0x3b0c84d2	0.0021441472
120	0xbd089fb6	-0.033355437
121	0xbd3eb82d	-0.046562362
122	0x3b4f5890	0.003163848
123	0xbd0e1357	-0.034686413
124	0x3da2422a	0.07922776
125	0x3c0da8cf	0.008646204
126	0x3da2b780	0.07945156
127	0xbcfa317d	-0.030541176
128	0x3d98eb1c	0.074667186
129	0xbd974035	-0.073852934
130	0x3ca90625	0.020632813
131	0x3cb8018c	0.022461675
132	0x3d0aa0dc	0.033844814
133	0xbc56c3c0	-0.013108194
134	0xbd84c01a	-0.06481953
135	0xbd04be91	-0.0324083
136	0x3da10124	0.07861546
137	0x3c6ccdcd	0.014453364
138	0x3da6f197	0.08151548
139	0xbd98b2c5	-0.074559726
140	0xbbd2f8fe	-0.0064383736
141	0x3d63820a	0.055543937
142	0x3d980531	0.07422865
143	0x3dade329	0.08490593
144	0xbd83dba3	-0.06438377
145	0xbccef996	-0.025265496
146	0xbd6bf6d1	-0.05760843
147	0x3d878f44	0.066191226
148	0x3d9cdb84	0.07659057
149	0x3d4e0ffa	0.050308205
150	0xbd348abb	-0.044077616
151	0x3cd38e0f	0.025824575
152	0x3da12a0e	0.078693494
153	0x3da1aa28	0.07893783
154	0x3be5b689	0.0070102853
155	0x3daaf1a5	0.08346871
156	0x3ca4009a	0.020019818
157	0x3d048986	0.032357715
158	0x3d087fe5	0.033325095
159	0x3da82255	0.08209673
160	0xbdb175f5	-0.08665077
161	0x3db1339a	0.0865242
162	0x3d35142e	0.044208698
163	0xbd0556ac	-0.03255336
164	0xbc0f2202	-0.008736135
165	0x3d463c38	0.048397273
166	0x3c123508	0.008923776
167	0xbd44cd59	-0.048047397
168	0x3d60f838	0.05492422
169	0xbd19efdb	-0.03758226
170	0xbba2dc7d	-0.004970132
171	0x3cef3802	0.029201511
172	0xbbaf090a	-0.0053416537
173	0xbd7bf2d1	-0.061510865
174	0x3d1d8fb4	0.038467124
175	0xbd96b2c3	-0.07358315
176	0x3c44653c	0.011987027
177	0xbd48e8f7	-0.049050298
178	0x3db26530	0.08710706
179	0xbd741aa6	-0.059595726
180	0x3cf7ede5	0.030264804
181	0xbd37ed12	-0.044903822
182	0xbdb471ad	-0.088107444
183	0xbd0319d3	-0.03200705
184	0xbd9086cc	-0.070569605
185	0x3ca2d1cb	0.019875428
186	0x3cc78c05	0.024358759
187	0x3dae6118	0.08514613
188	0x3d91111b	0.07083341
189	0x3ca52aec	0.020162068
190	0xbd351ddf	-0.04421794
191	0xbd4ee071	-0.050507013
192	0x3d112f74	0.035445645
193	0xbd928a50	-0.07155287
194	0x3d580fa3	0.052749287
195	0xbd9dce3b	-0.07705351
196	0x3d918d05	0.071069755
197	0x3cb746f1	0.022372695
198	0xbd2ed8d7	-0.042687263
199	0x3d1bad9c	0.038007364
200	0x3d841896	0.06450002
201	0xbcc77428	-0.02434738
202	0x3ca7c5f9	0.020480143
203	0x3bb7f4b1	0.0056138863
204	0x3d675fbd	0.056487788
205	0x3b400bef	0.0029303988
206	0xbd7d5247	-0.061846044
207	0xbd243352	-0.040088005
208	0xbc09c97e	-0.008409856
209	0x3d979489	0.07401378
210	0xbd3fd9d9	-0.046838615
211	0xbd6a2a40	-0.0571692
212	0x3c7b180d	0.015325558
213	0xbda312b0	-0.07962549
214	0xbd9cf135	-0.07663194
215	0xbd68b11e	-0.056809537
216	0xbd380460	-0.044926047
217	0xbd642998	-0.05570373
218	0x3d87d6d0	0.06632769
219	0xbd0771e9	-0.033067618
220	0x3d2b083c	0.0417559
221	0xbd5ca5a5	-0.05386891
222	0x3d0bd167	0.03413525
223	0x3d1863dd	0.037204612
224	0x3c2da15c	0.010597553
225	0xbd6ea7e2	-0.058265574
226	0x3d3e045c	0.046390876
227	0x3d5a71f6	0.053331338
228	0x3cba9655	0.022776762
229	0x3d755ddd	0.059903968
230	0x3d388b13	0.045054507
231	0x3d974d7b	0.07387825
232	0x3c82b467	0.015955163
233	0xbda7beec	-0.08190712
234	0xbd20b81c	-0.03923808
235	0xbd891ab7	-0.066945486
236	0xbc774d5d	-0.015094128
237	0xbd8ff2f5	-0.07028762
238	0xbd2e2134	-0.042512134
239	0xbd13cfa0	-0.03608668
240	0x3c8cbcae	0.017179813
241	0x3d77b352	0.060473748
242	0x3d8315a8	0.06400615
243	0x3b0a3f0c	0.0021094708
244	0xbc29ca8e	-0.010363234
245	0xbd8baa60	-0.06819606
246	0xbd879c31	-0.06621588
247	0xbd8b0100	-0.067873
248	0xbd24481e	-0.04010784
249	0x3dacfb58	0.084463775
250	0xbca122b0	-0.01966986
251	0x3d06a4b2	0.03287191
252	0x3ce1377a	0.027492274
253	0x3bcaff39	0.0061949757
254	0xbd0dccd6	-0.034619175
255	0x3d3b595e	0.045739524

fc2.bias f4 [64]
0	0x3b4dafc4	0.0031385282
1	0x3d2f7c8c	0.042843387
2	0xbd96dd21	-0.07366396
3	0xbd3874e1	-0.04503334
4	0x3d442cf4	0.047894433
5	0x3babfed5	0.005248884
6	0xbd9159b1	-0.070971854
7	0xbd194081	-0.03741503
8	0x3d05fa5a	0.032709457
9	0x3d85a3a8	0.065253556
10	0xbd9ea70d	-0.07746706
11	0xbd895df6	-0.06707375
12	0xbb725521	-0.003697701
13	0xbce30f9c	-0.027717404
14	0x3d66d946	0.05635955
15	0xbd46a850	-0.04850036
16	0xbcba3fdb	-0.022735527
17	0x3d33d079	0.043899987
18	0xbd8e2579	-0.06940741
19	0xbd77d213	-0.060503077
20	0xbd8af9d7	-0.067859344
21	0xbc16a890	-0.009195462
22	0x3d827545	0.06370024
23	0xbd33abc0	-0.043864965
24	0x3d9e1395	0.07718579
25	0x3d659e75	0.05605932
26	0xbd2b01a2	-0.041749604
27	0x3d11551b	0.035481554
28	0x3d7a145d	0.061054576
29	0xbd8c2e0b	-0.068447195
30	0xbd1caed2	-0.03825266
31	0xbda32bef	-0.07967364
32	0x3da4d390	0.08048165
33	0xbd979af4	-0.07402602
34	0x3cea3da5	0.028593848
35	0xbd4c22dc	-0.049837932
36	0xbc1988c0	-0.009370983
37	0xbc1981f9	-0.009369367
38	0x3d723c0e	0.059139304
39	0xb90960aa	-0.00013101348
40	0x3d5f396a	0.054498114
41	0xbd879cf7	-0.066217355
42	0xbd180e2a	-0.037122883
43	0x3d968d33	0.0735115
44	0x3db16c60	0.08663249
45	0xbd587633	-0.0528471
46	0xbd0825a8	-0.033239037
47	0x3cb4a600	0.022051811
48	0x3d3e0cda	0.046398975
49	0xbd977cc7	-0.07396846
50	0x3bb4994b	0.005511438
51	0x3c305667	0.010762787
52	0x3d8fd4e6	0.07023029
53	0x3da658bb	0.08122393
54	0xbc9d83ca	-0.019227881
55	0x3cdfd4ce	0.027323153
56	0xbcbdd865	-0.023174474
57	0x3c872f93	0.016502177
58	0xbc90ae08	-0.01766111
59	0xbd57d4fe	-0.05269336
60	0xbca14692	-0.01968697
61	0xbb8ccf6b	-0.004297187
62	0xbd07b015	-0.03312691
63	0x3d45d727	0.04830089

fc3.weight f4 [32, 64]
0	0xbdd0616c	-0.10174832
1	0xbd261c32	-0.040554233
2	0xbd6e509c	-0.058182344
3	0x3c050f20	0.008121282
4	0x3d5278ae	0.05138462
5	0xbd383f20	-0.044982076
6	0x3985c000	0.00025510788
7	0x3d9cd314	0.076574475
8	0xbdc57d72	-0.096430674
9	0x3db24436	0.087044165
10	0x3dac9542	0.08426906
11	0xbdcc4b86	-0.099753425
12	0x3cd7ec48	0.026357785
13	0x3cb4fc9c	0.02209311
14	0x3dbfacad	0.09359107
15	0x3d762d70	0.060101926
16	0x3d40507c	0.046951756
17	0x3dfc498c	0.123187155
18	0xba9b6e80	-0.0011858493
19	0xbcb59b78	-0.02216886
20	0x3db00f84	0.08596709
21	0x3cd1e248	0.025620595
22	0xbd55761c	-0.05211459
23	0xbd383598	-0.044972986
24	0xbd8d8cdc	-0.069116324
25	0x3c482428	0.012215652
26	0xbcff23b0	-0.031144947
27	0x3d38f808	0.045158416
28	0xbd96f41e	-0.073707804
29	0x3c6eb4c0	0.014569461
30	0x3b180fc0	0.0023202747
31	0x3d42b044	0.04753138
32	0xbde6a25b	-0.112614356
33	0x39e5b400	0.00043812394
34	0xbdf08568	-0.11744195
35	0x3dc3238a	0.09528263
36	0x3dbc5057	0.09195011
37	0xbd1f3748	-0.03887108
38	0x3a94f9b0	0.0011365917
39	0xbdd6ec44	-0.10494283
40	0x3cff2fc7	0.031150712
41	0x3d30da8c	0.043177173
42	0xbd8b10d8	-0.06790322
43	0x3d78212d	0.060578514
44	0xbdefb95c	-0.11705276
45	0xbdc2b66a	-0.09507449
46	0x3d4ed104	0.0504923
47	0x3db2caba	0.08730073
48	0x3dff93da	0.12479372
49	0xbba21b60	-0.004947111
50	0xbc8382f8	-0.016053662
51	0x3dfb3856	0.122666046
52	0x3dc68b03	0.09694483
53	0x3d9a9e5f	0.07549738
54	0xbb254fed	-0.0025224641
55	0xbc82782e	-0.015926447
56	0xbc98da2f	-0.018658726
57	0xbd754e38	-0.05988905
58	0xbd3e714d	-0.04649477
59	0xbdd0153e	-0.101603016
60	0x3df35aa4	0.11882523
61	0xbd14b55c	-0.03630577
62	0xbcd7da8f	-0.026349334
63	0xbdc8a9cf	-0.097980134
64	0x3dab6c94	0.08370319
65	0x3d4a87af	0.049445804
66	0xbd797a98	-0.06090793
67	0xbb8e61a0	-0.004345134
68	0xbd97fa50	-0.0742079
69	0x3cf41d50	0.029799134
70	0x3da578e0	0.08079696
71	0xbd7922e0	-0.060824275
72	0xbd097caa	-0.033566155
73	0x3d1aac7a	0.037762143
74	0x3dd71f38	0.105040014
75	0xbddf3a10	-0.108997464
76	0xbc117840	-0.0088787675
77	0xbcffc0f8	-0.031219944
78	0xbdf5a82b	-0.11994966
79	0x3bd7af60	0.0065821856
80	0xbda1ad04	-0.07894328
81	0x3ce6abab	0.02815803
82	0xbdbc4eb4	-0.09194699
83	0xbd160c1c	-0.036632642
84	0xbda5b234	-0.0809063
85	0x3d8d302c	0.06893954
86	0x3dfc2d7a	0.123133615
87	0xbd7e818c	-0.062135264
88	0x3d91b8c3	0.071153186
89	0x3d96f11b	0.07370206
90	0xbda28e66	-0.079373166
91	0xbdac4ebf	-0.08413457
92	0x3de20c22	0.110374704
93	0x3d003330	0.031298816
94	0x3d425524	0.047444478
95	0x3dcda17e	0.10040568
96	0xbd795051	-0.06086761
97	0x3d10e780	0.035377026
98	0x3d55a164	0.052155867
99	0xbc265250	-0.010151461
100	0xbcb3d50b	-0.021952173
101	0x3dc3cd65	0.0956066
102	0x3db2d8b2	0.087327376
103	0xbdafab0e	-0.08577548
104	0x3bf57553	0.007490793
105	0xbde9403e	-0.11389206
106	0xbdaf479b	-0.085585795
107	0x3d3b6d97	0.04575881
108	0x3dd3c7cb	0.10340842
109	0x3d170690	0.036871493
110	0x3de0e250	0.10980666
111	0xbd6cd4f1	-0.057820264
112	0xbcb556b9	-0.02213608
113	0x3ce95530	0.028483003
114	0x3da4de9a	0.080502704
115	0xbdaf06f4	-0.08546248
116	0x3c02f1d8	0.00799223
117	0x3dfa9b2b	0.12236627
118	0x3d2f5eac	0.042814896
119	0x3d2630d2	0.040573902
120	0xbc762b6d	-0.015025002
121	0x3dfcf7a0	0.12351918
122	0x3d8386a6	0.064221665
123	0x3d0bfde8	0.03417769
124	0x3dfc7dd4	0.12328687
125	0x3de81b24	0.11333302
126	0x3d5088c9	0.0509117
127	0xbc45a907	-0.012064225
128	0xbdbc2eca	-0.09188612
129	0x3d2389f2	0.039926477
130	0x3d3be88c	0.04587607
131	0xbdabfcfa	-0.08397861
132	0x3db9a44b	0.090645395
133	0xbd829a8a	-0.06377132
134	0x3d90b302	0.07065393
135	0x3cfe89e8	0.031071618
136	0x3dd133ff	0.102149956
137	0x3d422922	0.04740251
138	0x3d8efb98	0.069815814
139	0xbde66d26	-0.11251287
140	0xbda96574	-0.08271304
141	0xbdce994c	-0.10087833
142	0x3db89b39	0.09013981
143	0xbd9941c8	-0.0748325
144	0x3da32410	0.07965863
145	0xbd1063d5	-0.035251457
146	0xbdb092d8	-0.08621758
147	0xbd8e29aa	-0.069415405
148	0xbde8ead6	-0.113729164
149	0x3df17406	0.11789708
150	0xbdf24d26	-0.11831121
151	0x3c82be08	0.015959755
152	0x3c60f8fc	0.0137312375
153	0xbd97a521	-0.07404543
154	0x3b9bd520	0.004755631
155	0x3df31111	0.118684895
156	0xbdc29dca	-0.09502752
157	0xbd814ed8	-0.063138664
158	0xbdfe6888	-0.124222815
159	0xbd45782c	-0.048210308
160	0x3c52b594	0.012860674
161	0xbc501ee0	-0.012702674
162	0x3da37dcb	0.079829775
163	0xbc35aed0	-0.011089042
164	0xbdabf561	-0.08396412
165	0x3db9f66f	0.090802066
166	0x3c279b90	0.01022996
167	0xbd2135cc	-0.039357945
168	0x3bc43f22	0.0059889713
169	0x3c1e13b0	0.009648249
170	0x3cdd8e1f	0.027045308
171	0xbd634760	-0.05548799
172	0x3c9f5d74	0.019453742
173	0xbdc89e64	-0.097958356
174	0xbd580828	-0.052742153
175	0x3ddc4844	0.10755971
176	0xbdec2aca	-0.11531599
177	0x3dc79fae	0.09747253
178	0x3cb21e10	0.02174285
179	0x3db3c118	0.08777064
180	0xbda138da	-0.07872172
181	0x3ca2e702	0.019885544
182	0xbda427f0	-0.0801543
183	0x3d90502e	0.07046543
184	0x3d9e3b69	0.07726175
185	0x3dd85662	0.10563351
186	0xbdab3c39	-0.08361096
187	0xbdb79c0e	-0.08965312
188	0x3da22936	0.079180166
189	0xbda16bce	-0.0788189
190	0xbd1ee80d	-0.03879552
191	0x3d4c6e72	0.049910016
192	0xbd8aac6a	-0.067711666
193	0xbdca6d47	-0.09884124
194	0x3d85af78	0.06527609
195	0xbd7b38bc	-0.061333403
196	0x3dbc0ccc	0.09182128
197	0xbdec8eb8	-0.11550659
198	0x3d9a6a9a	0.07539864
199	0xbd8ffcd0	-0.07030642
200	0xbd8c603e	-0.06854294
201	0xbd193a76	-0.03740927
202	0x3d86d296	0.06583135
203	0xbdea009c	-0.114258975
204	0xbd886df0	-0.06661594
205	0x3d28feca	0.04125861
206	0xbcc2f4fb	-0.023798456
207	0x3d2a0304	0.041506782
208	0xbdeba984	-0.11506942
209	0x3def97e1	0.116988905
210	0x3c881710	0.01661256
211	0x3d8a4cd8	0.06752938
212	0x3d9740e2	0.07385422
213	0x3d2b7a28	0.041864544
214	0x3d796b9c	0.06089364
215	0xbc807fe0	-0.015685976
216	0x3cfd76ab	0.030940374
217	0x3c826db9	0.01592146
218	0x3dfa3bb4	0.12218419
219	0xbd9dc949	-0.07704408
220	0x3ddb3c2e	0.10704838
221	0xbd742af8	-0.05961129
222	0xbdba9ff2	-0.091125384
223	0xbd4fc2a0	-0.05072272
224	0xbdf76ba2	-0.12081076
225	0x3df65aa8	0.1202901
226	0xbdbf0518	-0.093271434
227	0x3dfeab4c	0.12435016
228	0xbd0d8a74	-0.034555867
229	0xbcd1acbd	-0.025595063
230	0x3df18b65	0.117941655
231	0x3c61ce00	0.013782024
232	0xbccdc26b	-0.02511712
233	0x3d3d1c44	0.046169534
234	0x3d98efe1	0.07467628
235	0xbdecef1f	-0.11569046
236	0xbdd4817e	-0.10376261
237	0xbcdaecd0	-0.02672425
238	0x3bf6fe20	0.0075376183
239	0xbdca6219	-0.09881992
240	0xbc6957a2	-0.014242085
241	0xbd89d1cc	-0.06729469
242	0xbcb42490	-0.02199009
243	0x3debd179	0.11514563
244	0x3ca12255	0.019669691
245	0xbdc034e8	-0.09385091
246	0xbd8cdae1	-0.06877685
247	0x3dbdbade	0.09264158
248	0x3d26ce64	0.040724173
249	0x3da613b2	0.08109225
250	0x3d9d4d8d	0.07680807
251	0xbd0312d0	-0.032000363
252	0x3d879304	0.06619838
253	0x3de135c8	0.10996586
254	0xbd5c53aa	-0.053790726
255	0xbd6ba9a5	-0.057534833

fc3.bias f4 [32]
0	0x3d8a4ff2	0.067535296
1	0xbdf2fc4d	-0.11864529
2	0x3cdec986	0.027195703
3	0x3df4f9c3	0.11961701
4	0xbc328e94	-0.010898251
5	0xbd11b296	-0.035570703
6	0xbccc77ca	-0.024959464
7	0x3de730a1	0.11288572
8	0x3dddf0ef	0.1083697
9	0xbc4c567d	-0.012471792
10	0xbb596a5c	-0.0033174967
11	0x3d9a748c	0.07541761
12	0xbceeff3d	-0.029174441
13	0xbd6d3194	-0.05790861
14	0xbd0a5369	-0.033770952
15	0xbdd3e801	-0.103469856
16	0x3ca34c70	0.01993391
17	0xbd55c77c	-0.052192196
18	0x3dc54baa	0.096335724
19	0xbdef5551	-0.11686195
20	0x3ce37433	0.027765369
21	0xbd3e94c8	-0.046528608
22	0xba8735aa	-0.0010315676
23	0x3b1d88a4	0.0024037743
24	0xbdeca7c1	-0.11555434
25	0x3dfdad22	0.12386538
26	0xbdb8c628	-0.0902217
27	0x3ce1284d	0.027485037
28	0xbda7945a	-0.08182593
29	0x3e100189	0.14063086
30	0x3e207893	0.15670995
31	0x3ce3732e	0.027764883

fc4.weight f4 [128, 1280]
0	0xbc7d820f	-0.015472903
1	0xbcbc1c85	-0.022962818
2	0xbce45e4a	-0.027876992
3	0xbb9be81c	-0.004757894
4	0xbb0ed070	-0.002179172
5	0x3caa38ef	0.020779101
6	0x3bdbfc61	0.0067134355
7	0x3c190223	0.009338888
8	0xbcc0e487	-0.02354647
9	0xbc47d0b9	-0.012195759
10	0x3c8523c3	0.016252404
11	0xbcc96022	-0.024581973
12	0x3c8b723f	0.01702225
13	0xbce090e5	-0.027412841
14	0x3c88aa36	0.016682725
15	0x3cd553d4	0.026040949
16	0xbcc66600	-0.02421856
17	0x3c35e47e	0.01110184
18	0xbcbe36f0	-0.023219556
19	0x3cbd5555	0.023111979
20	0x3c31bb8d	0.010847938
21	0xbcb6314a	-0.0222403
22	0xbc8a66b7	-0.016894681
23	0xb9fa54d0	-0.00047746906
24	0x3ca2bbc9	0.019864934
25	0x3c0432f9	0.008068793
26	0xbc7dc98b	-0.015489946
27	0xbc489bc2	-0.012244167
28	0xbb64fd51	-0.0034941027
29	0xbccd654e	-0.02507272
30	0xbba912f4	-0.00515973
31	0x3c3c5fc8	0.011497445
32	0xbc83b71c	-0.016078524
33	0x3cd40bf2	0.025884602
34	0xbc82e807	-0.01597978
35	0x3c034d02	0.008013966
36	0x3c50c50f	0.012742295
37	0x3cca2e96	0.024680417
38	0x3ba4ff7e	0.00503534
39	0xbb5b10fa	-0.0033426867
40	0xbca1073f	-0.019656776
41	0x3b375d9b	0.0027979377
42	0x3ca03932	0.019558523
43	0x3b85ff7e	0.004089295
44	0x3c99b3bb	0.01876246
45	0x3c4cf9dd	0.012510744
46	0x3c88394c	0.016628884
47	0xbc359bcb	-0.011084507
48	0x3c9fa3aa	0.01948722
49	0x3c70096d	0.014650685
50	0xbcd1421a	-0.025544215
51	0x3c29a5eb	0.010354499
52	0x3c433292	0.011913912
53	0x3ccd3193	0.025048053
54	0x3c83d1d8	0.016091272
55	0x3c479aae	0.012182875
56	0x3c35ba34	0.011091758
57	0x3b01ab36	0.0019785888
58	0x3c4bd346	0.012440508
59	0x3c8aedc9	0.016959088
60	0x3b6303e9	0.0034639782
61	0x3c426e4d	0.011867118
62	0x3a152a3a	0.0005690191
63	0xbca2fbbe	-0.01989543
64	0x3cd1c73b	0.025607696
65	0x3bfb1699	0.007662606
66	0x3c9be148	0.01902832
67	0xbc7b77c1	-0.015348376
68	0xb9d77eed	-0.00041102563
69	0xbcb10012	-0.021606479
70	0x3ae53a5c	0.0017488706
71	0x3cb19984	0.021679647
72	0x3c6590b4	0.014011551
73	0xbccc5f19	-0.02494769
74	0x3c910e0a	0.01770689
75	0xbcacf21e	-0.021111544
76	0xba85878e	-0.0010187493
77	0x3cca7f42	0.024718884
78	0xbc9e17c6	-0.019298445
79	0xbc995285	-0.018716106
80	0xbc93bf05	-0.018035421
81	0x3ccdc8af	0.025120107
82	0xbc6021f7	-0.013679973
83	0xbc3529e5	-0.011057352
84	0x3c808681	0.015689136
85	0xbc617f24	-0.013763223
86	0x3cd535ca	0.026026625
87	0xbc0c8dc9	-0.008578726
88	0x3c2f38f6	0.010694733
89	0x3bfe1c06	0.0077548055
90	0xbc8b77ae	-0.017024841
91	0xbc1c7118	-0.009548448
92	0x3bb889be	0.0056316545
93	0xbc8d076a	-0.01721545
94	0xbc9e833f	-0.019349692
95	0xbcd0a460	-0.025469005
96	0xbb3899f4	-0.0028167935
97	0xbc184c0a	-0.009295473
98	0x3ba8c3e8	0.005150307
99	0xbcc1a0f9	-0.023636328
100	0xbbd3a3d8	-0.0064587407
101	0xbcd6cd09	-0.026220815
102	0x3b0ac9b9	0.0021177365
103	0x3b2b94d1	0.002618123
104	0xbc8a6d8a	-0.016897935
105	0xbcdc750e	-0.026911285
106	0xbc11d07c	-0.008899804
107	0x3b1bb70e	0.0023760232
108	0x3c80d5f9	0.01572703
109	0xbc874a89	-0.016515033
110	0x3c03be4e	0.008040978
111	0x3bf11356	0.0073570414
112	0xbc7f0df4	-0.0155672915
113	0x3bb70846	0.005585703
114	0xbc9b34d7	-0.018946094
115	0xbc90d08a	-0.017677564
116	0x3ce228e6	0.027607393
117	0xbb8f6a40	-0.0043766797
118	0x3ca7e356	0.020494144
119	0xbc1c7e14	-0.009551544
120	0xbc23f26c	-0.010006528
121	0x3cac7cda	0.021055628
122	0xbcb0aab4	-0.021565773
123	0xbcbad474	-0.022806384
124	0xbc9ed508	-0.01938869
125	0x3c94b9d8	0.018155023
126	0x3c9861f6	0.018601399
127	0x3af0b0c1	0.0018363224
128	0xbcd292cc	-0.025704764
129	0x3cb48510	0.022036105
130	0xbc6cf5db	-0.014462913
131	0xbca74f93	-0.020423686
132	0xbbe39924	-0.006945746
133	0xbc86d424	-0.016458578
134	0xbcbbebe4	-0.02293963
135	0x3c0d9043	0.008640352
136	0x3cab6f98	0.020927235
137	0x3c085d37	0.008323005
138	0xbc3b94c3	-0.011449042
139	0x3b0076b1	0.0019601996
140	0xbbc48520	-0.005997315
141	0x3c9b07fe	0.01892471
142	0xbcb307ee	-0.021854367
143	0x3bb53feb	0.0055313013
144	0x3cbb226c	0.022843562
145	0xbc971ba7	-0.018445803
146	0x3cd8b990	0.02645567
147	0x3c952a94	0.01820878
148	0x3c7b16b5	0.015325238
149	0x3c9122fd	0.017716879
150	0xbbe68c34	-0.0070357565
151	0x3bb88df0	0.0056321546
152	0xbcd369ea	-0.02580734
153	0x3c126683	0.0089355735
154	0x3cb0124f	0.021493105
155	0xbcb6efd6	-0.02233116
156	0xbbcfb303	-0.0063384785
157	0xbcb76c24	-0.022390433
158	0xbcbdcd6a	-0.023169238
159	0x3c433f26	0.011916911
160	0xbc973191	-0.018456252
161	0x3c399049	0.011325904
162	0xbcd4570b	-0.025920412
163	0xbbd7e182	-0.006588162
164	0xbc54b5c3	-0.0129827885
165	0x3ccaf2fa	0.024774063
166	0x3c2508ff	0.010072946
167	0x3c8d8c22	0.017278735
168	0xbcc9ed2d	-0.024649227
169	0x3cd7c33d	0.026338214
170	0xbcc9825a	-0.02459829
171	0x3be3d034	0.00695231
172	0x3cde48ab	0.02713426
173	0xbc518d77	-0.0127900755
174	0xbce4492c	-0.027866922
175	0xbaea74a6	-0.0017887547
176	0xbccae1fb	-0.024765959
177	0x3b54b5ad	0.003245692
178	0xbc66abed	-0.014079076
179	0xbcdfa56e	-0.027300563
180	0x3ce20a41	0.02759278
181	0x3c90ed19	0.017691182
182	0xbcd40e3d	-0.025885696
183	0xbcb0a56d	-0.021563256
184	0x3cd1793a	0.0255705
185	0xbc4a024c	-0.012329649
186	0x3ccd0272	0.02502558
187	0x3bcdcefd	0.0062807784
188	0xbbac62bb	-0.005260793
189	0x3b7280a0	0.0037002936
190	0x3c9f7f34	0.019469835
191	0x3cc4053e	0.02392828
192	0xbc67f089	-0.014156469
193	0xbc564be7	-0.01307962
194	0xb970a65b	-0.00022950156
195	0xbc9f7be0	-0.019468248
196	0xbc70f563	-0.014706942
197	0x3c77b744	0.0151193775
198	0x3cba0cf2	0.02271125
199	0xbc84c174	-0.016205527
200	0x3c8f0b4f	0.017461447
201	0x3c78a527	0.015176094
202	0x3bf2044d	0.0073857666
203	0x3cbcebec	0.023061715
204	0xbc91fa35	-0.017819503
205	0x3cba6d42	0.022757176
206	0xbcdadcc0	-0.02671659
207	0xbcc806d1	-0.024417313
208	0x3cdb17af	0.026744692
209	0x3ca84aa1	0.020543398
210	0xbc192ffe	-0.009349821
211	0x3c2bf40f	0.0104952
212	0x3cb31c39	0.021864044
213	0xbc95d855	-0.018291632
214	0x3c4a1051	0.012332992
215	0xbbf151eb	-0.0073645017
216	0x3c380921	0.011232645
217	0xbb24ccbc	-0.0025146445
218	0x3c276f54	0.010219414
219	0x3cb91b03	0.022595888
220	0x3cad28ac	0.021137558
221	0xbbbc260d	-0.0057418407
222	0x3ba78528	0.005112309
223	0x3bdd9f39	0.0067633656
224	0x3bce82ef	0.0063022296
225	0x3b89a3bc	0.004200427
226	0x3c709359	0.014683568
227	0xbc6f5d83	-0.014609697
228	0x3c69c337	0.014267734
229	0x3c86dbe9	0.016462283
230	0xbc759639	-0.014989429
231	0xbc985da6	-0.018599343
232	0xbb0c6d8b	-0.0021427597
233	0xbc88934b	-0.016671797
234	0x3c481d21	0.012213976
235	0x3c1b9058	0.009494863
236	0xbbf46cd7	-0.007459264
237	0xbca2aec9	-0.019858735
238	0xbbe65226	-0.007028836
239	0xbcc12e11	-0.023581536
240	0x3c90facb	0.017697712
241	0xbc9daf46	-0.019248616
242	0x3c8281e2	0.015931074
243	0xbbb6410a	-0.0055619525
244	0xbc88aa76	-0.016682845
245	0xbcdc37d8	-0.026882097
246	0x3c2182af	0.009857818
247	0x3cbeb91a	0.023281623
248	0xbc02895a	-0.0079673175
249	0x3ba812a5	0.0051291757
250	0x3ca49d30	0.020094484
251	0xbc42127b	-0.011845226
252	0x3c0e83be	0.008698402
253	0x3cd72541	0.026262881
254	0xbc27ce7c	-0.010242101
255	0xbcc22204	-0.02369786

fc4.bias f4 [128]
0	0x3b9984f6	0.0046850396
1	0xbb9d79e7	-0.0048057917
2	0x3ca98bc4	0.020696528
3	0xbc75e33e	-0.015007792
4	0x3cdaad63	0.026694005
5	0x3cd04a51	0.025426062
6	0xbbacd16a	-0.0052739875
7	0xbc9899ac	-0.018627964
8	0x3c8bbd2e	0.017057981
9	0xbbc037ae	-0.0058660125
10	0xbc8ef6bd	-0.017451638
11	0x3c3d5511	0.011555926
12	0xbabcb6eb	-0.0014397776
13	0xbbe8c83f	-0.0071039493
14	0xbc47fc66	-0.012206173
15	0x3cd4c075	0.025970677
16	0xbc0c2858	-0.008554541
17	0xbc91994a	-0.01777329
18	0x3cd688d0	0.026188284
19	0x3bc6dfa2	0.0060691396
20	0xbc92f2a3	-0.017937964
21	0xbb4926ad	-0.0030693219
22	0xbce1149e	-0.027475651
23	0x3cb73c29	0.022367554
24	0x3c6faee1	0.014629097
25	0xbc8888ac	-0.016666733
26	0x3cd74fd5	0.026283184
27	0xbc865728	-0.016398981
28	0x3c509bc6	0.012732452
29	0x3bdc3d07	0.006721142
30	0x3cc79c73	0.024366593
31	0xbbb9f911	-0.005675443
32	0x3bea9255	0.0071585574
33	0xbc960d58	-0.01831691
34	0x3bf0ad3f	0.0073448713
35	0x3c2dd020	0.010608703
36	0xbb6bdda1	-0.0035990255
37	0x3cb8d8e4	0.022564359
38	0xbc23645d	-0.009972659
39	0x3b026744	0.0019897977
40	0xbc972c99	-0.018453883
41	0xbc85687b	-0.016285172
42	0x3bb088e5	0.005387413
43	0xbc4a6dcc	-0.012355279
44	0x3b5ac5eb	0.0033382128
45	0x3c905aab	0.017621359
46	0xbcad0a8f	-0.021123199
47	0x3c3da386	0.011574632
48	0x3b933592	0.00449247
49	0xbce8086d	-0.02832433
50	0x3ccb528d	0.024819637
51	0xbc411ad7	-0.011786184
52	0xbc713fd6	-0.014724692
53	0x3cc9f888	0.024654642
54	0xbc3d6a4a	-0.011560986
55	0xbcc7f163	-0.024407094
56	0x3ce3621e	0.027756747
57	0x3b97205d	0.0046120123
58	0xbc7a08f4	-0.015260924
59	0x3c8d8824	0.017276831
60	0xbccf8390	-0.025331289
61	0x3bd0e9e3	0.0063755377
62	0x3b036aa3	0.0020052574
63	0x3abc73f3	0.0014377817
64	0x3ce0cf8c	0.027442716
65	0xbc4dd6f3	-0.012563455
66	0xbbb3b24a	-0.0054839
67	0x3c11e536	0.008904746
68	0xbcafc563	-0.021456426
69	0xbc061adb	-0.008185114
70	0xbbf0691f	-0.00733675
71	0xbc0a095e	-0.008425085
72	0xbc8bfa93	-0.017087257
73	0x393fbd45	0.00018285688
74	0xbc557fb7	-0.013030938
75	0xbc76304d	-0.015026164
76	0xbcb6fea4	-0.022338219
77	0x3c93edeb	0.018057784
78	0xba03d080	-0.00050283223
79	0x3cd8a7ee	0.026447263
80	0x3c91a9de	0.017781194
81	0xbc475ebe	-0.012168584
82	0xbcb66576	-0.022265177
83	0xbc616288	-0.013756402
84	0xbc8b8e7f	-0.01703572
85	0x3c9f010d	0.01940968
86	0xbcb62437	-0.022234065
87	0xbcc61200	-0.024178505
88	0xbcb792bd	-0.022408837
89	0xba097822	-0.00052440364
90	0xbc1622a0	-0.009163529
91	0xbc852423	-0.016252583
92	0x3c0f70eb	0.008754949
93	0x3c6a22d1	0.014290527
94	0xbbbfddf9	-0.0058553186
95	0x3c0f6d5e	0.0087541025
96	0xbca1fc72	-0.019773696
97	0x3c77664e	0.015100075
98	0xbc6b20c8	-0.014351077
99	0xbc539ed5	-0.0129162865
100	0xbc12d455	-0.008961757
101	0x3ca5d368	0.020242408
102	0x3c87b93f	0.016567824
103	0xbbbfe36e	-0.005855969
104	0x3ce78e1f	0.02826601
105	0x3b23ca4c	0.0024992405
106	0x3c9a03ee	0.018800702
107	0xbc1c3741	-0.009534658
108	0xbc5df42d	-0.013546986
109	0x3b90bda1	0.004417137
110	0xbc0d2929	-0.00861577
111	0xbc8ebcfe	-0.017424103
112	0x3aed9309	0.0018125485
113	0xbc554819	-0.013017678
114	0x39458d79	0.00018840087
115	0xbcb917c1	-0.022594335
116	0x3cafcd1c	0.021460108
117	0xbcd01317	-0.025399728
118	0xba2eb2b3	-0.00066642015
119	0xbc859cb0	-0.016310066
120	0x3cab2e59	0.020896124
121	0xbce1b726	-0.027553152
122	0xbcde2c13	-0.027120626
123	0x3cad32a6	0.021142315
124	0x3c94e34b	0.018174788
125	0xbcd3876f	-0.025821416
126	0xbc87556a	-0.01652022
127	0x3cc75af7	0.024335368

fc5.weight f4 [64, 128]
0	0xbd914b0b	-0.070943914
1	0xbd0cfd15	-0.034421045
2	0x3d055cd1	0.03255922
3	0x39570131	0.00020504442
4	0x3c02dae0	0.007986754
5	0x3d29ef60	0.04148805
6	0x3cdd3c18	0.027006194
7	0x3d970384	0.073737174
8	0x3c95f232	0.018303964
9	0xbd21381f	-0.039360162
10	0xbcf7c25a	-0.030244041
11	0x3c93c784	0.018039472
12	0x3a5a2258	0.00083211577
13	0x3d98d2f2	0.074621096
14	0xbd5b7ee4	-0.05358781
15	0xbcfaf5bb	-0.030634752
16	0x3d6babe8	0.05753699
17	0xbd3ad697	-0.045614805
18	0x3d2a5ad2	0.04159052
19	0x3cf46ac6	0.02983607
20	0x3c11f0ea	0.008907536
21	0xbb5dfaa3	-0.0033871315
22	0x3d3885d3	0.0450495
23	0xbcdb7205	-0.026787767
24	0x3dabdbea	0.08391555
25	0xbd9cc768	-0.07655221
26	0x3bfc7343	0.00770417
27	0xbd10dfc8	-0.035369664
28	0x3d203659	0.03911433
29	0x3c602327	0.013680256
30	0xbcce2569	-0.025164323
31	0x3cf14402	0.029451374
32	0xbd3af19b	-0.04564057
33	0xbd5f4b1e	-0.054514997
34	0xbd783081	-0.060593132
35	0x3cfbcd06	0.030737411
36	0xbd65d45b	-0.05611072
37	0x3c506f29	0.012721815
38	0x3d0a8516	0.033818327
39	0xbd3edd33	-0.04659767
40	0xbc5e3ca9	-0.013564267
41	0x3b158a95	0.0022818197
42	0x3d8b5e59	0.06805105
43	0xbd2f330b	-0.042773288
44	0x3d5d42f1	0.05401892
45	0x3d923766	0.07139473
46	0xbd90c088	-0.070679724
47	0x3c829923	0.015942162
48	0xbdb3931f	-0.087682955
49	0xbd2bebfe	-0.041973107
50	0xbbddcdd3	-0.006768921
51	0xbd6d224a	-0.05789403
52	0xbc84398e	-0.016140725
53	0xbd0b79bb	-0.034051638
54	0xbd6085e7	-0.0548152
55	0x3d1c9185	0.038224716
56	0x3d9a6fd8	0.07540864
57	0x3c918153	0.017761862
58	0x3db1999b	0.08671876
59	0x3d57f3b2	0.05272264
60	0xbc9eb349	-0.0193726
61	0x3d151c8a	0.03640417
62	0xbd676b62	-0.056498893
63	0x3d4d7357	0.050158825
64	0x3d8426cd	0.06452713
65	0xbd83d110	-0.0643636
66	0xbd926fd6	-0.07150237
67	0xbd2ae140	-0.04171872
68	0xbcff83c0	-0.031190753
69	0x3d8217ce	0.06352197
70	0xbdb20f2e	-0.086943015
71	0x3d041bca	0.032253064
72	0x3da9d03c	0.08291671
73	0x3c6c73c9	0.014431902
74	0xbd1ed5fd	-0.038778294
75	0xbdb1944f	-0.08670866
76	0xbc2aec9b	-0.010432388
77	0x3d940798	0.07228011
78	0x3d78fb1d	0.060786355
79	0x3d834335	0.06409303
80	0xbc88f05d	-0.016716177
81	0xbc4e6dab	-0.012599389
82	0x3d2eec08	0.042705566
83	0x3cc49026	0.023994517
84	0x3da14056	0.07873599
85	0xbcfedda6	-0.03111155
86	0x3db33b91	0.08751596
87	0x3d862963	0.06550863
88	0x3da74a44	0.08168462
89	0xbd37f9e0	-0.044916034
90	0xbb0bf958	-0.0021358337
91	0xbc3319b0	-0.010931417
92	0xbca4f339	-0.020135509
93	0xbd6916a1	-0.056906346
94	0xbd93bc6e	-0.072136745
95	0xbbcc3139	-0.0062314537
96	0xbd5294af	-0.051411327
97	0xbd86040f	-0.06543743
98	0xbc9865d2	-0.01860324
99	0xbd24f5e8	-0.040273577
100	0x3d3f4a42	0.046701677
101	0xbc83b838	-0.016079053
102	0x3d1a22a3	0.03763069
103	0x3d90c991	0.07069696
104	0x3c5787b8	0.013154916
105	0xbd9ae03a	-0.07562299
106	0xbd1c0ca6	-0.038098
107	0xbc6d0f21	-0.014468939
108	0xbc272494	-0.010201592
109	0xbd979d9c	-0.074031085
110	0x3b5a82b0	0.0033342056
111	0xbd5117eb	-0.0510482
112	0x3d846f87	0.06466585
113	0x3cb31561	0.02186078
114	0x3d938c70	0.07204521
115	0xbd07b3ea	-0.033130564
116	0x3bbc8984	0.005753698
117	0x3d251efa	0.040312745
118	0xbc826ae8	-0.015920117
119	0x3db1955a	0.08671065
120	0xbd5d2c29	-0.053997193
121	0xbdb09f0f	-0.08624088
122	0xbd504bdc	-0.050853595
123	0xbd7b1106	-0.06129553
124	0x3cbc782c	0.023006521
125	0x3d012d87	0.03153756
126	0xbd9d5b69	-0.07683451
127	0x3d793f84	0.06085159
128	0xbd8c4dfc	-0.06850812
129	0x3d8915dc	0.066936225
130	0xbd13f339	-0.036120627
131	0xbc994210	-0.018708259
132	0xbca5a3cd	-0.020219708
133	0xbcdcfbb4	-0.02697549
134	0x3d992355	0.07477442
135	0x3d943ef8	0.07238573
136	0x3c47c9c9	0.012194105
137	0x3d33b7d3	0.04387648
138	0xbd7adeaf	-0.061247524
139	0x3d801419	0.06253833
140	0xbd2eb360	-0.042651534
141	0x3d94c0fa	0.0726337
142	0xbd2a7a7a	-0.04162071
143	0x3cc4e1a4	0.024033375
144	0xbd32e168	-0.043671995
145	0xbcb5e2b7	-0.022202833
146	0x3aa48e98	0.0012554703
147	0xbd7c8230	-0.061647594
148	0x3c4770e9	0.012172916
149	0x3d8ca294	0.06866947
150	0xbd9d7e33	-0.07690086
151	0xbd7aa5b0	-0.06119317
152	0xbafb2992	-0.0019162169
153	0x3db37d8e	0.08764182
154	0x3d4332d9	0.047655914
155	0xbd036b31	-0.032084648
156	0x3d600bdf	0.05469882
157	0xbca43771	-0.020045968
158	0x3b7ed98f	0.0038887
159	0xbc9b64be	-0.018968936
160	0x3c257d6b	0.010100703
161	0x3d1aeffe	0.03782653
162	0xbda57153	-0.080782555
163	0x3b4a2405	0.0030844223
164	0xbd886dc8	-0.06661564
165	0x3d1457d8	0.036216587
166	0x3d84b7c9	0.06480367
167	0x3d98b7ec	0.07456955
168	0x3d8962c4	0.06708291
169	0xbd7c4eb6	-0.061598502
170	0x3d4cdc08	0.050014526
171	0x3d8403a3	0.06446006
172	0xbd11559b	-0.03548203
173	0xbb88247f	-0.0041547413
174	0xbd1ff1a6	-0.039048813
175	0xbccf77f0	-0.025325745
176	0xbda0f963	-0.07860067
177	0xbbe64575	-0.007027323
178	0x3d903f7f	0.07043361
179	0xbd9147e1	-0.07093788
180	0x3b8508d3	0.00405989
181	0x3d090c54	0.033459023
182	0x3d07f831	0.03319568
183	0x3d68b76d	0.056815553
184	0x3d42300f	0.047409113
185	0x3d824070	0.06359947
186	0xbd15156d	-0.036397386
187	0x3d5217b9	0.051292155
188	0x3b2b1af7	0.0026108602
189	0xbdae257b	-0.085032426
190	0xbd8574ef	-0.06516444
191	0xbcc909a4	-0.02454073
192	0x3d5c334b	0.053759854
193	0xbc15cc64	-0.009142969
194	0xbae9e6dd	-0.0017845292
195	0xbd6e08a9	-0.058113728
196	0xbdaff59d	-0.08591769
197	0x3d3ec8a3	0.04657806
198	0xbd2f1760	-0.0427469
199	0xba859bd1	-0.0010193532
200	0xbb19f9ab	-0.002349476
201	0x3da8b4cd	0.0823761
202	0x3ba94c85	0.0051665925
203	0x3c1779d3	0.009245354
204	0x3d5e022f	0.0542013
205	0x3d8a884d	0.067642786
206	0xbd63cc74	-0.055614904
207	0x3d43ef48	0.04783562
208	0x3d87fa4c	0.06639537
209	0x3cf9a1c5	0.030472646
210	0xbd452ae2	-0.0481366
211	0x3cf9b142	0.03048003
212	0xbcf2f7da	-0.0296592
213	0xbc6f59ad	-0.014608783
214	0x3da2d783	0.07951262
215	0xbd54a120	-0.051911473
216	0xbd931c84	-0.07183173
217	0x3d960284	0.073246986
218	0x3cb03f3f	0.021514533
219	0xbdaded72	-0.08492555
220	0xbd618040	-0.05505395
221	0x3d94f4a9	0.07273228
222	0xbd25a1a5	-0.04043736
223	0xbd066dd6	-0.03281959
224	0x3c036840	0.008020461
225	0xbc0a3444	-0.008435313
226	0xbc4010fb	-0.011722798
227	0xbd1f103f	-0.038833853
228	0xbd2fb425	-0.04289641
229	0xbd7ead7a	-0.06217716
230	0x3da15970	0.07878387
231	0xbceec57e	-0.029146906
232	0x3d68b36d	0.05681174
233	0x3d644307	0.055727985
234	0x3c9a3154	0.01882235
235	0x3ca629e3	0.020283645
236	0x3d89d067	0.06729203
237	0x3d914b16	0.070944
238	0x3d0cb991	0.034356657
239	0x3d66e434	0.056369975
240	0x3d6ee791	0.058326308
241	0x3c19a4dc	0.009377684
242	0xbcf62994	-0.030049123
243	0x3c018ca2	0.007907065
244	0x3d9dbb30	0.07701719
245	0xbd43b3e5	-0.047778983
246	0x3d454aa3	0.048166882
247	0x3ca80192	0.020508561
248	0x3b4760bc	0.0030422648
249	0x3d2ed499	0.042683218
250	0x3cba3d1e	0.022734221
251	0x3d8a2f9e	0.067473635
252	0xbda873ab	-0.08225187
253	0x3cd76eba	0.026297916
254	0x3d3114ce	0.04323273
255	0xbd701410	-0.058612883

fc5.bias f4 [64]
0	0xbcfcb0ef	-0.030846087
1	0xbdae5f3a	-0.08514257
2	0xbb9f1ce3	-0.0048557385
3	0x3d3dba3d	0.04632019
4	0xbd0bf522	-0.034169324
5	0x3d14ab75	0.036296327
6	0x3da542b0	0.0806936
7	0xbcaaf25a	-0.020867515
8	0xbd968f03	-0.07351496
9	0x3c8bc9cc	0.017063998
10	0xbce630cf	-0.028099446
11	0xbc5d7b45	-0.013518159
12	0xbd8e711b	-0.06955167
13	0xbda8816a	-0.08227809
14	0xbd6fdcad	-0.058560062
15	0xbdb1669b	-0.086621486
16	0xbd512d6c	-0.05106871
17	0xbd9e1735	-0.0771927
18	0xbd5d3baf	-0.054011997
19	0xbc1ad154	-0.009449322
20	0x3db06a4d	0.08614025
21	0xbd9cb664	-0.07651976
22	0x3da89bd4	0.08232847
23	0x3ca1cdb3	0.019751405
24	0xbd8da464	-0.06916121
25	0x3d941af1	0.07231701
26	0x3d4723f7	0.048618283
27	0x3d83c159	0.064333625
28	0xbbc77d05	-0.0060879015
29	0x3caa8ca4	0.020819016
30	0xbcd8c1fe	-0.02645969
31	0x3cebf663	0.02880401
32	0x3bce28ce	0.0062914854
33	0xbda470b1	-0.08029307
34	0xbc8bb553	-0.017054236
35	0xbda43218	-0.08017367
36	0xbd505093	-0.05085809
37	0xbd8c8db7	-0.068629675
38	0xbbcacc5e	-0.0061889132
39	0x3d0e5518	0.03474912
40	0xbbed6133	-0.007244253
41	0xbcd38366	-0.025819492
42	0xbd594872	-0.053047605
43	0xbd9584b8	-0.07300705
44	0x3da7c625	0.0819209
45	0xbd87b5a6	-0.066264436
46	0xbcad9e53	-0.021193659
47	0x3c7d5308	0.015461691
48	0x3c94ac4f	0.01814857
49	0xbbdf2b18	-0.006810557
50	0xbcae45bb	-0.021273484
51	0xbd20ad32	-0.039227672
52	0x3cd08835	0.025455574
53	0x3ce47974	0.027889945
54	0x3c0d72e5	0.00863335
55	0x3d0efa8a	0.0349069
56	0x3cad2741	0.021136882
57	0xbd94f73f	-0.07273721
58	0xba290d6b	-0.0006448838
59	0xbd3c7f63	-0.046019923
60	0xbd2625ff	-0.04056358
61	0x3d897ab9	0.067128606
62	0xbd1602bd	-0.036623705
63	0x3d842e5d	0.064541556
